Mini project III/models/vae.pth (torch, 453258 bytes, 32 tensors)

conv1.bias f4 [128]
0	0x3c2a0221	0.010376484
1	0xbc77c1fc	-0.015121933
2	0x3c414302	0.011795761
3	0x3c93eccd	0.018057251
4	0xbc00dee4	-0.007865641
5	0xbbebf52b	-0.007200857
6	0x3c6e41a9	0.014542022
7	0x3ca2e857	0.019886179
8	0x3c89bccc	0.016813658
9	0xbb803de0	-0.003913626
10	0x3cf806fb	0.030276766
11	0xbc7e52b5	-0.015522649
12	0x3c97f25d	0.018548185
13	0xbb45f764	-0.003020727
14	0xbc33a194	-0.010963816
15	0xbc3bef06	-0.011470562
16	0xbb6d3d24	-0.0036199773
17	0x3c821cb6	0.015882831
18	0xbca8cda5	-0.020605871
19	0x3c3e87fc	0.011629101
20	0x39ecfdc6	0.00045202504
21	0x3b891aac	0.0041840877
22	0x3b356a12	0.002768163
23	0xbc682473	-0.014168846
24	0x3d08cb67	0.033397105
25	0x3cf389b3	0.029728746
26	0xbbfcae32	-0.0077111954
27	0xbcc11d43	-0.023573523
28	0x3c90019c	0.017578892
29	0x3d195818	0.03743753
30	0x3cb3e9da	0.021962095
31	0xbc9c1f50	-0.0190579
32	0xbcac3989	-0.021023529
33	0xbc0aad37	-0.008464149
34	0xbce5caaf	-0.028050749
35	0x3b810add	0.0039380626
36	0x3d102899	0.035194967
37	0xbcc13cd1	-0.02358857
38	0xbb9c150b	-0.0047632507
39	0xbbb38f45	-0.0054797255
40	0x3c58f3a3	0.013241681
41	0xbc1e58fb	-0.009664769
42	0xbaefc3b7	-0.001829258
43	0x3ccbe4ab	0.02488931
44	0xbbf04592	-0.007332512
45	0x3ba83139	0.005132821
46	0x3d218184	0.039430156
47	0x3aee8b76	0.0018199522
48	0x3cff89dd	0.031193668
49	0xbcd5ec91	-0.02611378
50	0xbd0a97c1	-0.03383613
51	0xbb29606a	-0.002584482
52	0x3d261102	0.040543564
53	0x3c4bb596	0.01243343
54	0x3c047fd4	0.008087117
55	0xbbf8ee1d	-0.0075967447
56	0x3c3f1563	0.011662814
57	0x3ab00862	0.0013430233
58	0x3c4c3d5a	0.012465799
59	0x3cb2d49b	0.021829894
60	0xbb95c5fc	-0.0045707207
61	0xbc599359	-0.013279759
62	0xbb87850a	-0.0041357325
63	0x3c95e3c5	0.018297086
64	0xbca3903b	-0.019966235
65	0xbcb95b57	-0.022626562
66	0x3d0492bc	0.0323665
67	0xbcd7bf93	-0.026336467
68	0xbcb3c8f8	-0.021946415
69	0x3cbe3e8d	0.023223186
70	0x3d021ead	0.031767536
71	0xbc629469	-0.013829329
72	0xbcd6e84a	-0.026233811
73	0x3c42aae6	0.011881566
74	0x3c864308	0.016389385
75	0xbcd53922	-0.02602822
76	0xbbf3511d	-0.007425441
77	0x3cab5961	0.020916643
78	0x3d0f2107	0.034943607
79	0xbd085247	-0.03328159
80	0xbc7490c4	-0.014927093
81	0x3ca417c0	0.020030856
82	0xba965999	-0.0011470794
83	0x3b432dcd	0.0029781938
84	0x3a8e1f68	0.00108431
85	0x3c8bbbd1	0.017057331
86	0x3c004c11	0.007830636
87	0xbc60caa3	-0.013720187
88	0xbca76d44	-0.020437844
89	0xbc8d6ccd	-0.017263794
90	0x3ca3eaa9	0.020009356
91	0x3ceb3984	0.028713949
92	0x3cc3a1cb	0.02388086
93	0x3b40c20d	0.0029412538
94	0x3c6f6762	0.014612051
95	0xbc7659c2	-0.015036048
96	0xbb6a5bf0	-0.0035760365
97	0x3c2bd42d	0.010487598
98	0xbc0c437b	-0.0085610105
99	0x3c6a21d6	0.014290294
100	0x3bd07f32	0.006362819
101	0x3c0d3fa1	0.008621127
102	0x3c53ed1d	0.01293495
103	0xbc8327e9	-0.016010242
104	0x3c6fdf8c	0.0146407
105	0x3c45ed62	0.012080522
106	0x3c459d6c	0.012061458
107	0x3cf01206	0.02930547
108	0xbcd19a11	-0.02558616
109	0x3cef0b14	0.029180087
110	0xbc90cc34	-0.017675497
111	0xbb77b598	-0.0037797447
112	0x3c28cd1e	0.01030281
113	0xbb850bd9	-0.0040602502
114	0xbc5660c3	-0.013084593
115	0x3b1fb137	0.0024367103
116	0xbce1dbc3	-0.02757061
117	0xba961df6	-0.0011453021
118	0x3ba14d62	0.004922555
119	0xbcf6a220	-0.030106604
120	0xbc555ff7	-0.013023368
121	0x3cb106ee	0.02160975
122	0xbcd0936d	-0.025460923
123	0x3c2a1b2f	0.010382458
124	0xbc6d5975	-0.01448666
125	0xbcce92f0	-0.02521655
126	0x3c4d3775	0.012525429
127	0xbce789d5	-0.028263966

conv1.lin.weight f4 [128, 7]
0	0x3dd87d0e	0.10570727
1	0x3dec9acc	0.11552963
2	0x3ce8f612	0.028437648
3	0x3e510cf3	0.20415096
4	0xbc0cc821	-0.008592636
5	0xbe0fe2ae	-0.14051315
6	0x3dd4662b	0.103710495
7	0xbdcc6ac5	-0.09981302
8	0xbe0f42bf	-0.13990305
9	0xbe3ad71e	-0.18246123
10	0x3a43e349	0.0007472528
11	0x3d81181d	0.06303427
12	0xbe20b03b	-0.15692227
13	0xbe1caa70	-0.15299392
14	0x3d904f9d	0.07046435
15	0xbdf75715	-0.120771565
16	0xbe05c310	-0.13062692
17	0xbe3e7c64	-0.18602139
18	0x3d76d139	0.060258124
19	0x3dbce9a1	0.09224249
20	0x3d1cf057	0.038315143
21	0x3e37558f	0.17903732
22	0xbe3e6243	-0.18592171
23	0x3bffbc1a	0.007804406
24	0xbd0e60df	-0.034760352
25	0xbd7130ad	-0.05888431
26	0xbdec29da	-0.1153142
27	0x3dad0e6c	0.084500164
28	0xbd9fe864	-0.07807997
29	0xbdd21fa0	-0.10259938
30	0xbc6898d2	-0.014196591
31	0xbd851f48	-0.06500107
32	0xbdf86a0c	-0.12129602
33	0x3ddd09ed	0.10792909
34	0x3c218fe9	0.009860971
35	0xbe47176d	-0.1944253
36	0x3d4898a7	0.048973706
37	0xbe252e4a	-0.16130939
38	0x3d655677	0.055990662
39	0xbde14f21	-0.11001421
40	0x3dc4c6f1	0.096082576
41	0xbe53874a	-0.20657077
42	0x3d380089	0.044922385
43	0x3e23675e	0.159574
44	0xbd92e4d4	-0.07172552
45	0x3da51341	0.08060313
46	0x3c9c5da4	0.01908762
47	0xbdebc157	-0.11511486
48	0x3e655842	0.22396949
49	0xbd58d063	-0.052933108
50	0xbdfcb612	-0.12339415
51	0x3e4d7135	0.20062716
52	0xbd186014	-0.037201002
53	0x3e264766	0.16238174
54	0xbe202322	-0.15638402
55	0xbc80b6e7	-0.015712215
56	0x3e067927	0.13132153
57	0x3e45a4f0	0.193012
58	0xbe4753e7	-0.194656
59	0x3e00af21	0.12566806
60	0xbd8bd123	-0.06826999
61	0xbd5dd093	-0.05415399
62	0x3d9ab4aa	0.0755399
63	0x3e4aea6a	0.19815984
64	0xbda4863c	-0.08033416
65	0x3d8bbe09	0.06823356
66	0xbe059d5c	-0.13048309
67	0x3e05aebd	0.13054939
68	0x3e0aa389	0.13538946
69	0xbe4ce3db	-0.20008795
70	0x3e4b6fb6	0.19866833
71	0xbdf3f8bd	-0.119126774
72	0x3e2e4818	0.17019689
73	0xbe0d255d	-0.13783784
74	0xbd9f6cc1	-0.07784415
75	0x3cd6d328	0.026223734
76	0xbc8c6dda	-0.017142225
77	0x3d99afc9	0.075042315
78	0x3deb44ab	0.11487707
79	0xbe4acd6d	-0.19804926
80	0x3ddcf768	0.107893765
81	0x3e437dc8	0.1909095
82	0x3da9e328	0.0829528
83	0x3de98bc3	0.114036106
84	0x3cc19659	0.023631262
85	0x3d729372	0.059222646
86	0x3d7d7cf6	0.06188675
87	0x3de4f743	0.11179974
88	0x3e049900	0.1294899
89	0xbe410653	-0.18850069
90	0xbe3d0b9f	-0.18461464
91	0xbde1839c	-0.110114306
92	0x3d2e52be	0.042559378
93	0xbdc151ab	-0.09439405
94	0x3d99cf3a	0.075102285
95	0xbdc5f0cf	-0.09665071
96	0xbdc6d5a2	-0.09708716
97	0x3e10374e	0.14083597
98	0x3e11caeb	0.14237563
99	0x3d8da131	0.069155104
100	0x3cca05f0	0.024661034
101	0xbe8b1cbf	-0.2717037
102	0x3ddc219a	0.107485965
103	0x3e135282	0.14386943
104	0x3c8a60ba	0.016891826
105	0x3ded0a16	0.11574189
106	0x3c0e606a	0.008689979
107	0xbe094e0e	-0.13408682
108	0x3ddd591e	0.108080134
109	0x3d444855	0.047920544
110	0x3e4133a9	0.18867363
111	0x3e32b987	0.17453586
112	0xbe82a973	-0.25519904
113	0xbd2c76f5	-0.042105634
114	0xbcf147e5	-0.029453227
115	0x3e143709	0.14474119
116	0x3e2ddbe6	0.16978416
117	0xbd6d4bd7	-0.057933655
118	0x3d985d24	0.0743964
119	0xbe0a8cb7	-0.13530241
120	0x3d51a3ad	0.051181484
121	0xbd768ac2	-0.060190924
122	0x3e3776e8	0.17916453
123	0xbd9934ae	-0.07480751
124	0x3e1792b2	0.14802054
125	0x3e01be6c	0.12670296
126	0xbe6cf87e	-0.23141667
127	0xbdc77207	-0.09738546
128	0x3e2bc584	0.16774565
129	0xbd50336a	-0.050830282
130	0x3df0da6b	0.1176041
131	0x3e1ea255	0.15491612
132	0xbdc89741	-0.097944744
133	0x3c8d3ebb	0.017241826
134	0xbd09f4df	-0.033680793
135	0x3dcd4293	0.10022464
136	0xbe199a40	-0.15000248
137	0x3d787a12	0.06066329
138	0xbe0f31b4	-0.13983804
139	0x3cb1c10c	0.021698497
140	0x3ce8fa7b	0.02843975
141	0x3e466c92	0.19377354
142	0xbdad3b7f	-0.084586136
143	0x3d33ba08	0.043878585
144	0x3e540d71	0.20708252
145	0x3e07e53a	0.13271037
146	0x3e2a2f02	0.16619495
147	0x3da5367b	0.08067032
148	0x3cb8350b	0.02248623
149	0xbdd9e6f5	-0.10639755
150	0x3c6799e7	0.014135814
151	0xbe359cd3	-0.17735605
152	0xbd66659d	-0.05624925
153	0x3e435d0f	0.19078468
154	0xbe6bb902	-0.23019794
155	0xbdd0cec4	-0.101956874
156	0x3d332e70	0.043745458
157	0xbd74922f	-0.059709724
158	0xbda20ba1	-0.07912374
159	0x3d5eb7ff	0.05437469
160	0x3d1e0278	0.038576573
161	0x3cfb98e7	0.030712558
162	0x3e3eeda5	0.18645342
163	0xbd9dcbf6	-0.07704918
164	0xbe20a9ce	-0.15689775
165	0x3dd21ea1	0.10259748
166	0x3e684f15	0.22686417
167	0x3d7d9d88	0.06191781
168	0xbe066d8b	-0.13127725
169	0xbd4b5442	-0.0496409
170	0x3da75288	0.081700385
171	0x3de480a9	0.111573525
172	0xbde69105	-0.11258129
173	0x3e26ae97	0.16277538
174	0x3e237688	0.15963185
175	0x3df77b50	0.12084067
176	0x3e228002	0.15869144
177	0xbc8962b8	-0.016770706
178	0xbd9316f8	-0.07182115
179	0x3cef9e86	0.029250395
180	0xbe5bb461	-0.21455528
181	0xbe3d1f1e	-0.18468902
182	0xbc9c3e92	-0.019072805
183	0xbe34e9f4	-0.17667371
184	0xbe27b7d1	-0.16378714
185	0xbddc31b6	-0.10751669
186	0x3cf0c843	0.029392367
187	0xbe0b9235	-0.13629992
188	0xbe0eb4b1	-0.13936116
189	0x3e152288	0.14563954
190	0xbdd28aa9	-0.102803536
191	0x3e05d851	0.130708
192	0xbe172c7b	-0.14763062
193	0x3dadccbe	0.08486317
194	0x3e41c23a	0.18921748
195	0xbdf84524	-0.121225625
196	0xbd93d331	-0.07218016
197	0x3dfa6845	0.12226919
198	0xbdf7b86b	-0.12095722
199	0x3e20d3af	0.15705751
200	0xbe0f1ebc	-0.13976568
201	0xbd95e721	-0.07319475
202	0xbe211c55	-0.15733464
203	0xbc8ca122	-0.017166678
204	0x3de6181c	0.11235067
205	0xbe486325	-0.1956907
206	0xbdb69d05	-0.08916668
207	0xbdf9bb2a	-0.12193902
208	0x3d890c25	0.066917695
209	0x3e14becc	0.14525908
210	0xbe237890	-0.1596396
211	0x3d21b226	0.039476536
212	0xbdac3756	-0.08408992
213	0x3e3975ca	0.18111339
214	0xbe37cb89	-0.17948736
215	0xbe1b2589	-0.15151037
216	0xbdf18746	-0.117933795
217	0x3e30e055	0.17273076
218	0x3b8362cd	0.0040095807
219	0x3b309bc4	0.0026948312
220	0x3de4e8e1	0.111772306
221	0xbcab7bde	-0.020933088
222	0xbe21c34d	-0.15797158
223	0x3d810213	0.06299224
224	0xbe3d1ef4	-0.18468839
225	0xbd8400ca	-0.06445463
226	0xbdcec936	-0.10096972
227	0x3e0d71dc	0.13812965
228	0x3e088051	0.13330199
229	0xbd2cf6dd	-0.042227615
230	0xbd625b9f	-0.055263158
231	0x3dcc4688	0.0997439
232	0x3d0fa6af	0.03507107
233	0x3be00b00	0.006837249
234	0xbe15c59d	-0.14626165
235	0x3e2e46f0	0.17019248
236	0x3da63528	0.081156075
237	0x3d986c0a	0.07442482
238	0xbd87ee1c	-0.06637213
239	0xbc1a2e59	-0.009410464
240	0x3da8897d	0.08229349
241	0xbdddf923	-0.10838535
242	0xbc8bf0b0	-0.017082542
243	0xbce166a5	-0.027514765
244	0xbe3216bc	-0.17391485
245	0xbd3ef096	-0.04661616
246	0xbd99fdbb	-0.07519098
247	0x3de408b5	0.11134473
248	0xbe0d2061	-0.13781883
249	0xbe050eb0	-0.12993884
250	0xbc1df97e	-0.009642003
251	0xbe8197af	-0.25311038
252	0xbe036d00	-0.12834549
253	0xbe1baab5	-0.15201838
254	0x3e838d4c	0.25693738
255	0xbd850faf	-0.06497132

bn1.module.weight f4 [128]
0	0x3f82e8a9	1.0227252
1	0x3f88f350	1.0699253
2	0x3f7e3f38	0.99315214
3	0x3f7625e8	0.9615159
4	0x3f7df92c	0.9920833
5	0x3f7a8ad6	0.97868097
6	0x3f843062	1.0327265
7	0x3f81def0	1.014616
8	0x3f777520	0.96663094
9	0x3f7b6325	0.9819816
10	0x3f7c3a27	0.98526233
11	0x3f84e1a2	1.0381358
12	0x3f80cb55	1.0062052
13	0x3f84b8ee	1.0368936
14	0x3f7c0725	0.984484
15	0x3f78020a	0.9687811
16	0x3f776df5	0.96652156
17	0x3f7a5e7e	0.97800434
18	0x3f7d7b37	0.99016136
19	0x3f80b0b0	1.0053921
20	0x3f7dd30f	0.99150175
21	0x3f819538	1.0123663
22	0x3f8253d8	1.0181837
23	0x3f854f43	1.0414814
24	0x3f7e57c8	0.99352694
25	0x3f739d98	0.95162344
26	0x3f783d46	0.96968496
27	0x3f7a4b6a	0.9777132
28	0x3f814216	1.0098293
29	0x3f813107	1.0093087
30	0x3f8354a4	1.0260205
31	0x3f7ad480	0.979805
32	0x3f829fac	1.0204978
33	0x3f81be23	1.013615
34	0x3f824f61	1.0180475
35	0x3f7e692c	0.9937923
36	0x3f8226ef	1.0168132
37	0x3f79959a	0.974939
38	0x3f838879	1.0276023
39	0x3f777336	0.9666017
40	0x3f802ab9	1.0013038
41	0x3f7fa818	0.99865866
42	0x3f78f4bf	0.9724845
43	0x3f88a7ae	1.0676172
44	0x3f774f58	0.96605444
45	0x3f76205d	0.9614313
46	0x3f7adcb0	0.9799299
47	0x3f800ff7	1.0004872
48	0x3f7dbb19	0.99113613
49	0x3f84e5cb	1.0382627
50	0x3f71176f	0.9417638
51	0x3f7c206a	0.9848696
52	0x3f7f4ce0	0.99726677
53	0x3f7c6c11	0.98602396
54	0x3f7cf8ed	0.9881733
55	0x3f82d8b5	1.0222384
56	0x3f7cbc59	0.98724896
57	0x3f7e3593	0.993005
58	0x3f72cafa	0.9484097
59	0x3f8030b2	1.0014861
60	0x3f75a667	0.95957035
61	0x3f844a38	1.033515
62	0x3f7ca677	0.98691505
63	0x3f7e3fce	0.9931611
64	0x3f7fbc83	0.9989702
65	0x3f7b1b1c	0.9808824
66	0x3f75c92c	0.9601009
67	0x3f752279	0.95755726
68	0x3f80d310	1.0064411
69	0x3f783245	0.96951705
70	0x3f851193	1.0395988
71	0x3f7c5bb7	0.98577446
72	0x3f829b19	1.0203582
73	0x3f80f425	1.0074507
74	0x3f84db0b	1.0379347
75	0x3f842d98	1.0326414
76	0x3f81ffb4	1.0156159
77	0x3f806367	1.0030335
78	0x3f88ccfd	1.0687557
79	0x3f84b316	1.0367153
80	0x3f844b2f	1.0335444
81	0x3f801e10	1.0009174
82	0x3f7be2d5	0.98392993
83	0x3f805ba0	1.0027962
84	0x3f7fba2f	0.9989347
85	0x3f7757e9	0.96618515
86	0x3f7d0d3e	0.9884833
87	0x3f841006	1.031739
88	0x3f81e757	1.0148724
89	0x3f71dc7e	0.9447707
90	0x3f7850ce	0.969983
91	0x3f88162b	1.0631765
92	0x3f837b11	1.0271932
93	0x3f74ef96	0.9567808
94	0x3f7c053f	0.98445505
95	0x3f76a941	0.9635201
96	0x3f76e92c	0.9644954
97	0x3f7ab135	0.97926646
98	0x3f890b30	1.0706539
99	0x3f7fe86d	0.9996403
100	0x3f725ffb	0.94677705
101	0x3f845c40	1.0340652
102	0x3f86bec7	1.0526971
103	0x3f721de2	0.9457685
104	0x3f7fe84d	0.9996384
105	0x3f82ac29	1.0208789
106	0x3f852e0a	1.0404675
107	0x3f82c1f5	1.0215441
108	0x3f7f2888	0.9967122
109	0x3f80f728	1.0075426
110	0x3f8155b1	1.0104276
111	0x3f7986f4	0.9747155
112	0x3f78a4ba	0.9712635
113	0x3f735f43	0.9506723
114	0x3f7d9c69	0.9906679
115	0x3f877449	1.0582362
116	0x3f7c3d5c	0.98531127
117	0x3f83f01c	1.030765
118	0x3f8180af	1.0117396
119	0x3f7d1ccb	0.9887206
120	0x3f8132a2	1.0093577
121	0x3f7eb390	0.9949274
122	0x3f7c4df0	0.98556423
123	0x3f77bb23	0.9676992
124	0x3f7f7cd7	0.99799865
125	0x3f7c01ea	0.9844042
126	0x3f7469da	0.95474017
127	0x3f83c902	1.0295718

bn1.module.bias f4 [128]
0	0x3c6e7955	0.014555295
1	0x3d934d7a	0.07192512
2	0x3c9e3bb0	0.01931557
3	0xbdabc763	-0.083876394
4	0xbce5b3a1	-0.028039755
5	0xbc34aad0	-0.011027053
6	0x3c034b50	0.008013561
7	0xbc821012	-0.015876804
8	0xbd9b369e	-0.07578777
9	0xbd30bea6	-0.043150567
10	0xbcdc93cf	-0.02692595
11	0xb9bf9156	-0.00036538643
12	0xbd766ec7	-0.06016424
13	0xbb447091	-0.0029974321
14	0xbb9d8252	-0.004806795
15	0xbd10196c	-0.035180494
16	0xbd1f9fcb	-0.03897075
17	0xbdf0a0e9	-0.11749441
18	0x3b48ba2c	0.0030628545
19	0x3b36a36d	0.0027868405
20	0xbd03137b	-0.032001
21	0xbac4d698	-0.0015017567
22	0xbd3747d6	-0.044746242
23	0xbc340626	-0.010987794
24	0x3ca0de8e	0.019637372
25	0xbd2f7652	-0.04283745
26	0xbd661de4	-0.05618085
27	0xbd17ceea	-0.037062563
28	0xbbc04d40	-0.005868584
29	0xbc8868d9	-0.016651558
30	0xbba5a23b	-0.00505474
31	0xbc1417d8	-0.009038888
32	0xbcc1413d	-0.023590678
33	0x3c9bde90	0.019027025
34	0x3b914917	0.004433762
35	0xbc68ee5c	-0.014216986
36	0x3be71a32	0.0070526833
37	0xbd14e30a	-0.036349334
38	0xbbc59dda	-0.0060307803
39	0xbd12f3dc	-0.035877094
40	0x3c1d3224	0.009594474
41	0x3b9e2ae6	0.0048268912
42	0xbd4170fe	-0.0472269
43	0xbd419673	-0.04726262
44	0xbc50469e	-0.012712149
45	0xbd220ab2	-0.03956098
46	0x3d2f2db0	0.04276818
47	0xbd1a0250	-0.03759986
48	0xbb2cb398	-0.0026352163
49	0xbd5b52a7	-0.05354562
50	0xbd6d2fcd	-0.057906915
51	0xbcf05e8d	-0.02934196
52	0xbaebcdb0	-0.0017990377
53	0xbcfc448a	-0.0307944
54	0xbcb42d53	-0.021994269
55	0xbcd79300	-0.026315212
56	0x3d366f99	0.04454002
57	0x3a709b28	0.00091783935
58	0xbd268727	-0.040656235
59	0xbd112b8a	-0.035441913
60	0xbcbf3580	-0.02334094
61	0xbd190d7c	-0.037366375
62	0xbcf244c4	-0.029573806
63	0xbc295432	-0.010335015
64	0xbce03412	-0.027368579
65	0xbd52c2cf	-0.051455315
66	0xbd8bf683	-0.06834128
67	0xbd3dc181	-0.046327118
68	0xbd2ca791	-0.04215199
69	0x3c802244	0.01564134
70	0xbce1efe1	-0.027580203
71	0x3b0499da	0.0020233304
72	0x3cb88897	0.022526069
73	0x3c7778e3	0.015104505
74	0x3ce7252a	0.028215963
75	0x3c68c2ba	0.014206583
76	0xbd143e8a	-0.036192454
77	0xbb197339	-0.0023414625
78	0x3ce51dec	0.02796837
79	0x3d18df5f	0.0373224
80	0x3cb10816	0.021610301
81	0xbca2a783	-0.019855266
82	0xbc7416bf	-0.014898001
83	0xbbbeedd0	-0.0058266893
84	0xbbc57742	-0.0060261795
85	0xbd154b33	-0.03644867
86	0x3bc9f87f	0.0061636562
87	0xbc6b44d3	-0.014359671
88	0x3d032143	0.032014143
89	0xbd80d936	-0.0629143
90	0xbcdaca72	-0.026707862
91	0x3d31f594	0.043447092
92	0xbd09d5fb	-0.033651333
93	0x3ca3980d	0.019969964
94	0xbcc2258f	-0.02369955
95	0xbd41dc9f	-0.04732954
96	0xbd117780	-0.035514355
97	0xbd066699	-0.03281269
98	0x3b066751	0.0020508359
99	0x3d0f750d	0.035023738
100	0xbbce2e3f	-0.006292134
101	0x3a07f9eb	0.0005187082
102	0xbd0fb59a	-0.035085298
103	0xbd0940ff	-0.03350925
104	0xbd2984ec	-0.04138653
105	0xbc9a29a0	-0.018818676
106	0x3b2b05e3	0.0026096038
107	0xbcd47ad8	-0.025937483
108	0xbc9d7eac	-0.01922544
109	0x3c765dce	0.015037013
110	0xbc4e691a	-0.0125983
111	0xbcca65b0	-0.024706692
112	0xbc668997	-0.01407089
113	0xbd939bda	-0.07207461
114	0x3b334ab9	0.002735777
115	0xbba0fb35	-0.0049127587
116	0x3bb48aff	0.0055097337
117	0x3cbef22b	0.023308834
118	0xbccd6f50	-0.025077492
119	0x3c03d8a2	0.008047255
120	0x3bb4bead	0.0055158944
121	0xbc2c5321	-0.010517866
122	0xbd83d114	-0.06436363
123	0xbd5a5177	-0.053300347
124	0x3d092e0c	0.03349118
125	0xbd01fff4	-0.031738237
126	0xbcc700d9	-0.024292396
127	0x3d231aaf	0.03982037

bn1.module.running_mean f4 [128]
0	0x3dd54a27	0.10414534
1	0xbe058c23	-0.13041739
2	0x3cf7119c	0.030159764
3	0x3dffa513	0.12482657
4	0xbd9b5f6a	-0.07586558
5	0xbe2777c9	-0.16354288
6	0x3d5c0dfe	0.05372428
7	0xbb81fa41	-0.0039666
8	0x3dd7a50d	0.10529528
9	0x3e0da2fc	0.13831705
10	0x3e3a64a3	0.18202452
11	0x3cc50993	0.024052417
12	0x3d50c77e	0.0509715
13	0xbdba3ff0	-0.09094226
14	0x3dd17263	0.10226896
15	0x3d5eeb83	0.05442382
16	0xbe474aef	-0.19462179
17	0xbda85971	-0.082201846
18	0xbe306ac4	-0.17228228
19	0x3d08f3f9	0.033435795
20	0x3d04338f	0.032275733
21	0x3d478857	0.04871401
22	0xbe2b1f00	-0.16711044
23	0x3c9c4528	0.019075945
24	0xbd58df46	-0.052947305
25	0x3e05ce0e	0.13066885
26	0xbd88eab1	-0.06685389
27	0x3db45376	0.088049814
28	0xbd18b683	-0.03728343
29	0x3c1f6a77	0.009729973
30	0xbdcd1817	-0.100143604
31	0x3dd69bd5	0.10478941
32	0xbe32b6d0	-0.1745255
33	0x3d8b0b77	0.06789296
34	0xbd85b45e	-0.06528543
35	0xbcba08a1	-0.022709193
36	0xbd1b90e7	-0.037979987
37	0xbdb82b5b	-0.089926444
38	0xbda93eb2	-0.08263911
39	0x3caa076f	0.020755498
40	0x3d2d57cf	0.04232007
41	0x3e10d225	0.14142664
42	0xbb6c9f5d	-0.003610573
43	0x3c1a8162	0.009430261
44	0x3d4e87d7	0.050422516
45	0x3da4dab5	0.080495276
46	0xbd90d9f9	-0.07072825
47	0x3e14e7c4	0.14541537
48	0x3db7a883	0.08967688
49	0xbd372088	-0.04470876
50	0x3d1ae48d	0.03781562
51	0x3dd62680	0.10456562
52	0xbd991a20	-0.07475686
53	0xbcbad160	-0.022804916
54	0x3d664a8c	0.056223437
55	0xbb3286cd	-0.0027240992
56	0x3ba0decb	0.0049093715
57	0x3e292250	0.16516995
58	0x3e1c2535	0.15248568
59	0x3de2a3ae	0.11066376
60	0xbd9c6fad	-0.07638488
61	0xbd50bbeb	-0.050960463
62	0x3e03a1f8	0.12854755
63	0xbe362f87	-0.17791568
64	0xbdbec8a8	-0.09315616
65	0x3dddc1a3	0.10827949
66	0xbc708718	-0.014680646
67	0xbe1f0055	-0.1552747
68	0x3c259939	0.010107332
69	0x3dfc3dfd	0.12316511
70	0xbdbc55d5	-0.09196059
71	0x3e01de91	0.12682559
72	0xbe126eec	-0.14300126
73	0x3d0f09b6	0.03492137
74	0xbe32bbce	-0.17454454
75	0xbccc2446	-0.02491964
76	0xbe008e15	-0.125542
77	0xbce080cc	-0.027405165
78	0x3cfbaf20	0.030723155
79	0xbb95f1bc	-0.004575936
80	0xbd86044d	-0.06543789
81	0x3d6575a6	0.0560204
82	0x3dfd738d	0.12375555
83	0x3cb94dbc	0.022620074
84	0x3d91e6af	0.071240775
85	0x3d0da4ec	0.03458111
86	0x3de09b39	0.10967106
87	0xbdc1a79b	-0.09455796
88	0xbd905f0c	-0.07049379
89	0x3e1aa4b5	0.15101893
90	0x3e0871b9	0.13324632
91	0xbdc9715a	-0.09836073
92	0x3dd44284	0.10364249
93	0x3dcf70ff	0.10128974
94	0xbcef3db5	-0.029204229
95	0x3e0c4259	0.13697185
96	0x3e1dc398	0.15406644
97	0x3d952d11	0.07283986
98	0x3d0a1fcf	0.03372174
99	0xbdac7cf8	-0.084222734
100	0x3d727fed	0.05920403
101	0xbd5f47dc	-0.05451189
102	0xbcb16e54	-0.021659054
103	0xbdb5bbd7	-0.08873718
104	0x3d475e80	0.048674107
105	0xbd9dfb80	-0.077139854
106	0xbd644f06	-0.055739425
107	0xbdb7c25a	-0.089726165
108	0x3a96a158	0.0011492176
109	0xbddb244f	-0.10700285
110	0xbe0483a0	-0.12940836
111	0x3deda2e8	0.116033375
112	0xbca2e559	-0.019884752
113	0x3da76977	0.08174413
114	0x3dc4178c	0.09574804
115	0xbdca809e	-0.09887813
116	0xbd8b539a	-0.06803055
117	0x3d079bd0	0.03310758
118	0xbdc1dd6e	-0.094660625
119	0xbd45e793	-0.04831655
120	0x3e17dacf	0.14829563
121	0xbd2c1e22	-0.042020924
122	0xbe137254	-0.14399081
123	0x3b352d72	0.0027645496
124	0x3dc341c4	0.09534028
125	0x3a8c5268	0.0010705711
126	0xbca06805	-0.01958085
127	0xbd5a7f5a	-0.05334411

bn1.module.running_var f4 [128]
0	0x3a137882	0.0005625562
1	0x3a4efbd0	0.00078957994
2	0x3bba36dc	0.0056828093
3	0x3c11eb4d	0.008906198
4	0x39a297ef	0.00031012247
5	0x3b3098cc	0.0026946543
6	0x3a0cb839	0.00053680275
7	0x3b55c726	0.0032619922
8	0x3bbba31e	0.005726232
9	0x3bb4935e	0.0055107316
10	0x3b7da716	0.0038704327
11	0x3b87fb95	0.004149864
12	0x39b50c87	0.00034532344
13	0x3a8049a3	0.000978757
14	0x3afac726	0.0019132837
15	0x3bbb1171	0.0057088663
16	0x3bfa7238	0.0076430105
17	0x3b1f22b0	0.002428215
18	0x3c5c1a42	0.013433995
19	0x39e2e5ad	0.000432772
20	0x3a1472b1	0.00056628423
21	0x3b3b62e6	0.0028592884
22	0x3bf07f82	0.007339419
23	0x3a2b713a	0.00065400044
24	0x3b86de22	0.0041158358
25	0x3aac140b	0.0013128532
26	0x3b4b6b36	0.0031039244
27	0x3b15ed21	0.0022876936
28	0x3a5e3da8	0.00084778154
29	0x3aab8617	0.0013086227
30	0x3b2d5542	0.0026448523
31	0x3b8fe548	0.004391346
32	0x3af74ea4	0.0018868041
33	0x3a94ac02	0.0011342766
34	0x3afe0652	0.0019380546
35	0x3ab5f5ca	0.0013882455
36	0x3c10f5b3	0.008847642
37	0x3ae68dc6	0.0017589859
38	0x3c33dac8	0.0109774545
39	0x3b30cdb2	0.0026978073
40	0x3aafc129	0.0013409007
41	0x3b49c7d2	0.0030789268
42	0x3a08264c	0.0005193695
43	0x39c34c83	0.00037250304
44	0x3be00bce	0.0068373447
45	0x3a821264	0.0009923694
46	0x3a6359f0	0.00086727645
47	0x3b325966	0.002721393
48	0x39f26501	0.0004623309
49	0x399f46e5	0.00030379664
50	0x3bc2ae47	0.0059411856
51	0x3a6281d6	0.0008640563
52	0x3a86cb10	0.0010283906
53	0x3c062916	0.008188507
54	0x3a26d79c	0.0006364526
55	0x3b615c33	0.003438723
56	0x3bc71e60	0.006076619
57	0x3bb306f3	0.005463475
58	0x3b6f6e98	0.0036534425
59	0x3b0dcc8c	0.0021636812
60	0x3ba74804	0.0051050205
61	0x3b932d92	0.0044915164
62	0x3a17338c	0.0005767874
63	0x3b63f030	0.0034780614
64	0x3a948009	0.0011329661
65	0x3cad5cd6	0.021162432
66	0x3b59d41e	0.0033238004
67	0x3bc9bd1c	0.006156577
68	0x3b18753f	0.0023263243
69	0x3a968b8e	0.0011485682
70	0x3a561c39	0.00081676577
71	0x39c56288	0.0003764818
72	0x3b9f2d50	0.0048576966
73	0x3b59dd3e	0.0033243443
74	0x3b6c013b	0.0036011476
75	0x3b9f7801	0.0048666005
76	0x3bc9f18d	0.0061628283
77	0x3b07408b	0.0020637836
78	0x3a3ea966	0.0007273167
79	0x3a15995c	0.0005706751
80	0x3c0acd5b	0.008471812
81	0x3b4dc304	0.0031396756
82	0x3b4d5984	0.0031333873
83	0x3a728e66	0.00092527864
84	0x3afc2da3	0.0019239675
85	0x3aed95c5	0.00181263
86	0x3ae6107e	0.0017552522
87	0x3a605a25	0.00085583545
88	0x3a359b6d	0.00069277623
89	0x3baa80cd	0.0052033425
90	0x3af57327	0.0018726335
91	0x3a04c99f	0.0005065444
92	0x3ac83daa	0.0015277166
93	0x3a6cd0e8	0.0009033815
94	0x3bdaa42b	0.0066724024
95	0x3c0e4bcf	0.008685066
96	0x3c18404b	0.009292672
97	0x3b83fcaf	0.004027925
98	0x39bc8ae3	0.00035961633
99	0x3b33f17a	0.0027457164
100	0x3b99d725	0.0046948367
101	0x3c2440fd	0.01002526
102	0x3ae175ef	0.0017201285
103	0x3ab34e12	0.0013679883
104	0x3b370bd2	0.002793063
105	0x3b8ba11b	0.0042611486
106	0x3c054984	0.008135203
107	0x3b6ad800	0.0035834312
108	0x3999cdfb	0.00029335901
109	0x3af181cd	0.0018425524
110	0x3b2dc77a	0.0026516602
111	0x3c2841ee	0.010269625
112	0x3b902461	0.004398868
113	0x3ba3c718	0.004998099
114	0x3a1c4491	0.0005961145
115	0x3aa8d6d1	0.0012881403
116	0x3b1bc44f	0.0023768132
117	0x3b088b52	0.0020834995
118	0x3c8cbdf8	0.017180428
119	0x3b3c19b4	0.0028701844
120	0x3c357a56	0.01107653
121	0x3a89dbc5	0.0010517767
122	0x39dd218a	0.00042177393
123	0x3a7a2e92	0.00095436827
124	0x3b7e9b5c	0.0038849926
125	0x3ba16492	0.004925319
126	0x3ac5bcc3	0.0015086163
127	0x3b969fcf	0.0045966874

conv2.bias f4 [128]
0	0xbb398599	-0.002830839
1	0x3c208aa8	0.009798683
2	0x3b84bf29	0.0040511084
3	0x3bae9b84	0.0053285975
4	0xbc6a50b0	-0.014301464
5	0x390fc98d	0.00013712626
6	0xbbdfa605	-0.006825211
7	0xbc1145e4	-0.008866761
8	0x3b6e2961	0.0036340582
9	0xbc1f8034	-0.009735156
10	0xbc521719	-0.01282289
11	0x3b916ff6	0.0044383956
12	0x3c3ec2cd	0.011643124
13	0xbbc8ea71	-0.006131463
14	0x3b57ccaa	0.0032928386
15	0x3c370f18	0.011173032
16	0x3cb433e3	0.021997398
17	0x3c51c520	0.012803346
18	0xbc2469e5	-0.010035013
19	0x3bab5a1d	0.005229248
20	0xb9e73b6e	-0.00044104032
21	0xbb3e2ef1	-0.0029019678
22	0xbc06e9ef	-0.008234485
23	0xbbf3e3b2	-0.007442915
24	0x3b6977bf	0.0035624353
25	0xbc4d248e	-0.012520922
26	0xbc003357	-0.00782474
27	0xbc9b96c4	-0.01899279
28	0x3b826272	0.0039790208
29	0xbc216b2e	-0.009852214
30	0x39a2bee9	0.00031041287
31	0xbb7cc6ac	-0.0038570566
32	0xbc58699e	-0.013208775
33	0xbc1098cf	-0.008825495
34	0x3c590546	0.013245886
35	0x3c581481	0.013188482
36	0x3c2e5401	0.010640145
37	0xbbae3d5d	-0.0053173737
38	0xbba5d110	-0.0050603226
39	0xbc89fc11	-0.016843827
40	0x3c090b53	0.008364516
41	0xbc7c10bf	-0.015384852
42	0xbb40bbbd	-0.0029408776
43	0x3ae24e26	0.0017265722
44	0x399e2f6f	0.0003017145
45	0x3bce7b5e	0.0063013276
46	0xbc0c32e3	-0.008557054
47	0xbc29c011	-0.010360734
48	0xbcba486c	-0.022739612
49	0x3ad1612c	0.0015974394
50	0xbcb21b6a	-0.021741588
51	0x3be5a90a	0.0070086764
52	0x3c43d0ce	0.011951638
53	0xbc0822de	-0.008309094
54	0xbaef2168	-0.0018244209
55	0xbb9d8003	-0.00480652
56	0xbc403cb9	-0.011733227
57	0x3b059112	0.0020380658
58	0xbc802708	-0.015643612
59	0xb9c1bbdd	-0.00036951798
60	0x3befc2a6	0.007316905
61	0xbc46d667	-0.012136078
62	0x3b7ec4b5	0.003887457
63	0x3c8c7b09	0.017148511
64	0xbc235ee8	-0.009971358
65	0x3bfc92a6	0.0077079115
66	0x3c3507b4	0.0110492
67	0xbb71f02c	-0.0036916835
68	0x3bd10542	0.0063788006
69	0xbca09c3b	-0.019605746
70	0x3c60f083	0.013729217
71	0x3c64c7c2	0.013963642
72	0xbbc657fa	-0.006052968
73	0x3be6cdfc	0.007043598
74	0x3c8dc9e2	0.01730818
75	0xbc7a8534	-0.015290547
76	0xbc458909	-0.0120565975
77	0xbab8f633	-0.0014111459
78	0x3b74dee9	0.003736431
79	0xbc6f1652	-0.014592724
80	0xbb60da80	-0.0034309924
81	0xbc3bf2fb	-0.011471505
82	0x3c87b42e	0.016565409
83	0xbc674873	-0.014116394
84	0x3bc4e117	0.006008278
85	0xbc2988ee	-0.010347588
86	0xbca3f1db	-0.020012787
87	0x3c052490	0.008126393
88	0x3ba02319	0.0048869965
89	0xbc6be627	-0.014398134
90	0xbcb499fc	-0.022046082
91	0xbbd37ea8	-0.0064543076
92	0xba08869b	-0.0005208046
93	0xbc95b8e6	-0.018276643
94	0xbb8fbb3d	-0.004386334
95	0xbc1bee63	-0.009517285
96	0xbbefc86c	-0.0073175933
97	0xbc17f630	-0.009275004
98	0x3baebdbd	0.005332677
99	0x3b60f114	0.0034323381
100	0x3c4a57b2	0.01235001
101	0xbb1ba0a0	-0.0023746863
102	0x3be28e22	0.006913916
103	0x3a21a8ef	0.00061668357
104	0xbc2a6a6d	-0.01040135
105	0x3c069699	0.008214616
106	0xbbc4e2fa	-0.006008503
107	0xbb3a1ab6	-0.0028397269
108	0xbb6fca95	-0.0036589254
109	0x3afd21eb	0.0019312477
110	0xbb3b5cb6	-0.0028589196
111	0xbbaab2fe	-0.005209326
112	0xbc90342b	-0.017603
113	0xbc37b6be	-0.011213003
114	0xbca6a6c9	-0.020343201
115	0xb9d62922	-0.00040847907
116	0xbb7ce39e	-0.003858782
117	0xbc951243	-0.018197184
118	0x3c121053	0.008915025
119	0xbc2ac79b	-0.010423566
120	0xbab191c1	-0.0013547466
121	0x3b1671f5	0.0022956107
122	0xbc3e65c3	-0.011620942
123	0x39934459	0.00028088948
124	0x3c3d6943	0.011560741
125	0x3c88ff6a	0.016723353
126	0xbc01d884	-0.0079251565
127	0x3c70a9b1	0.014688895

conv2.lin.weight f4 [128, 128]
0	0x3e08f3b7	0.1337422
1	0x3d346516	0.044041716
2	0xbe03f24e	-0.128854
3	0x3d5ec9fb	0.054391842
4	0xbe2136ad	-0.15743513
5	0x3db22a07	0.08699422
6	0x3e022467	0.12709199
7	0xbdd1dbcc	-0.10247001
8	0x3ca09ce0	0.019606054
9	0xbc8f159f	-0.017466364
10	0xbd726a88	-0.059183627
11	0xbde26777	-0.110548906
12	0xbdfb4571	-0.12269104
13	0x3d4c9118	0.04994306
14	0xbce1e82f	-0.027576534
15	0xbc2b9aa8	-0.010473885
16	0xbcb9775c	-0.022639923
17	0x3d8c8030	0.06860387
18	0xbd6ba012	-0.0575257
19	0x3cdffb92	0.027341638
20	0xbd8d80f2	-0.0690936
21	0x3ddc4aee	0.10756479
22	0xbe171983	-0.14755826
23	0x3d2da416	0.042392813
24	0xbd07d24f	-0.03315955
25	0x3cddd1b0	0.027077526
26	0x3e117d8d	0.1420805
27	0xbcb715b2	-0.022349212
28	0xbcab041e	-0.020875987
29	0x3d881feb	0.06646713
30	0x3dd79832	0.10527076
31	0x3d4c99c0	0.049951315
32	0x3cf2da7c	0.029645197
33	0x3d80e12f	0.0629295
34	0xbd8b97e6	-0.06816082
35	0xbdf29a64	-0.11845854
36	0xbcb62607	-0.02223493
37	0xbe05b427	-0.13057004
38	0xbdbe1fb0	-0.09283388
39	0xbd897956	-0.06712596
40	0xbe29f9b4	-0.1659916
41	0x3e146fee	0.14495823
42	0xbd73e493	-0.059544157
43	0x3e5ef9a5	0.2177492
44	0x3c301c90	0.010748997
45	0xbe17b399	-0.14814605
46	0xbda98ff0	-0.08279407
47	0x3d8d3ae0	0.06895995
48	0x3d80d3e6	0.062904164
49	0x3ab42f94	0.001374709
50	0xbda8b935	-0.082384504
51	0x3d9f1343	0.07767346
52	0xbe04f921	-0.1298566
53	0x3db8a6b8	0.09016174
54	0x3ddcc92e	0.107805595
55	0xbdce12d4	-0.10062185
56	0xbd9c9dae	-0.076472625
57	0xbd920254	-0.0712935
58	0xbde07349	-0.10959489
59	0x3ddd40e5	0.10803393
60	0xb9ae349c	-0.00033227063
61	0xbe1a2cc6	-0.15056142
62	0xbd425fd1	-0.04745466
63	0x3dba7e1b	0.09106084
64	0x3d269ba4	0.040675774
65	0x3a974202	0.0011540058
66	0x3a925e48	0.0011167014
67	0x3d940e7d	0.07229326
68	0x3d904252	0.070438996
69	0xbdecb94f	-0.11558782
70	0x3c4f521a	0.012653852
71	0xbcff7726	-0.031184744
72	0xbd70d8fe	-0.05880069
73	0xbdc11583	-0.09427931
74	0x3da387e8	0.079849064
75	0xbdebbbbc	-0.11510417
76	0xbbcbcb2c	-0.0062192883
77	0xbcc3ecce	-0.023916628
78	0xbd7c3afa	-0.061579682
79	0x3e49be01	0.19701387
80	0xbc4b1928	-0.012396134
81	0x3dd1222a	0.102115944
82	0x3d6451b5	0.055741984
83	0x3d283dec	0.04107468
84	0xbd3fc637	-0.04681989
85	0xbe2c93c4	-0.16853243
86	0x3d3ac238	0.045595378
87	0x3d9e1b6f	0.07720076
88	0x3e0ba13c	0.13635725
89	0xbc5d7776	-0.013517251
90	0xbd29c573	-0.041448068
91	0x3d87665d	0.06611321
92	0x3c456a53	0.012049275
93	0x3da26346	0.07929091
94	0xbb45dfab	-0.003019313
95	0xbd344d37	-0.04401895
96	0x3e04c569	0.12965931
97	0x3d7f260d	0.062292147
98	0x3d885cfc	0.0665836
99	0xbdec8a1e	-0.11549781
100	0xbcdf238a	-0.027238626
101	0xbce9036d	-0.028444016
102	0xbdb366f2	-0.0875987
103	0x3e1aa29b	0.15101092
104	0xba04951a	-0.0005057618
105	0xbd202b9b	-0.039104085
106	0xbe09bddc	-0.13451332
107	0xbd271686	-0.040792964
108	0xbdf0aa1a	-0.11751194
109	0x3de59ad1	0.112111695
110	0xbc527a67	-0.012846566
111	0xbcd46143	-0.025925284
112	0xbd5efd7f	-0.05444097
113	0x3e22f2fb	0.15913002
114	0x3bd781b7	0.0065767425
115	0xbd132e66	-0.03593292
116	0xbe096a37	-0.13419424
117	0x3de48d40	0.11159754
118	0xbd57f887	-0.05272725
119	0xbd430d2b	-0.04761998
120	0x3dc105c6	0.09424929
121	0xbdf73d7e	-0.120722756
122	0x3db4249a	0.08796044
123	0x3da88b37	0.08229678
124	0x3d6a274b	0.05716638
125	0xbd8ce15b	-0.06878921
126	0x3d3cb93d	0.046075094
127	0xbdb30e20	-0.087429285
128	0xbe2801fc	-0.16407007
129	0xbd1266a8	-0.035742432
130	0xbc01cd24	-0.0079224445
131	0x3d567654	0.05235894
132	0x3d8339b7	0.064074926
133	0xbd0c3fe6	-0.034240626
134	0x3de5cd8a	0.11220844
135	0xbd08ea3c	-0.03342651
136	0xbdabacce	-0.08382569
137	0xbdceebf9	-0.10103602
138	0x3e170a6e	0.14750072
139	0xbcf73c73	-0.030180192
140	0xbd339d8e	-0.043851428
141	0x3e1d3895	0.15353616
142	0xbd718e4c	-0.058973595
143	0xbe08bd85	-0.13353546
144	0xbdf6f7ff	-0.1205902
145	0xbda89b1d	-0.082327105
146	0x3c73ad59	0.014872872
147	0x3dc9d8e5	0.098558225
148	0x3d8a03a6	0.06738977
149	0x3df59c62	0.11992718
150	0x3e0cbf91	0.13744952
151	0xbd5f8da0	-0.054578424
152	0xbd96c3c3	-0.07361557
153	0xbd13fc72	-0.036129422
154	0x3ddf7eb9	0.10912842
155	0x3d73aa00	0.059488297
156	0xbd8d9b69	-0.06914408
157	0x3d883fc2	0.06652786
158	0x3d8bf651	0.068340905
159	0x3d846e3b	0.06466337
160	0x3d88fe92	0.066891804
161	0xbdb79f60	-0.08965945
162	0x3da6a6bf	0.08137273
163	0x3d7e9020	0.062149167
164	0xbd450d20	-0.04810822
165	0x3dc429b2	0.09578265
166	0x3db8e3d3	0.09027829
167	0x3dc03087	0.09384256
168	0x3dd667ff	0.104690544
169	0xbdf00cea	-0.11721213
170	0xbd328261	-0.04358137
171	0xbd870ced	-0.06594262
172	0xbd977f47	-0.07397323
173	0xbde706e3	-0.112806104
174	0x3c43169f	0.011907249
175	0xbdd73fe1	-0.10510231
176	0xbc9215ef	-0.017832724
177	0x3d8bb8c7	0.06822353
178	0x3da54b6e	0.08071028
179	0x3d865e1d	0.065609194
180	0x3d606cc3	0.054791223
181	0x3e3f5769	0.18685688
182	0x3de54ad5	0.11195914
183	0x3dd25a3a	0.102711156
184	0xbdad1f3b	-0.08453222
185	0xbe3ae81d	-0.18252607
186	0x3de660c1	0.11248923
187	0x3d8b9678	0.06815809
188	0xbd5faa65	-0.05460586
189	0x3d816341	0.06317759
190	0x3dbee0d1	0.09320224
191	0x3e0f38a3	0.13986449
192	0xbdde5076	-0.108551905
193	0x3defd6f4	0.11710921
194	0x3da88647	0.08228736
195	0x3be083e3	0.0068516596
196	0x3e0eaff5	0.1393431
197	0xbe22ba7c	-0.1589145
198	0x3e204c6b	0.15654151
199	0xbcc5307e	-0.024070974
200	0x3d9dde5e	0.07708429
201	0x3cb538e4	0.022121854
202	0x3da74b96	0.08168714
203	0x3d2a32a0	0.041552186
204	0x3d314a2d	0.04328363
205	0xbdf7babe	-0.12096165
206	0xbc921224	-0.017830916
207	0xbdd1c3a8	-0.102423966
208	0xbd1a0a38	-0.0376074
209	0xbe06ee91	-0.13176943
210	0xbd0bd926	-0.034142636
211	0xbca1f30e	-0.019769218
212	0xbd125b97	-0.035731878
213	0x3dfbfc6f	0.12304007
214	0x3c9fdfaf	0.01951584
215	0x3e2f43f5	0.17115767
216	0x3bd1b605	0.0063998722
217	0x3e014e91	0.12627627
218	0xbd52e1ab	-0.051484745
219	0xbdfe07af	-0.12403809
220	0xbd46eb37	-0.048564162
221	0xbcc8606a	-0.024460036
222	0x3daa1e59	0.083065696
223	0xbe12897c	-0.14310259
224	0xbe0f9a3f	-0.14023684
225	0xbe178530	-0.14796901
226	0xbe068fcc	-0.13140792
227	0x3e2640a9	0.16235603
228	0xbe2a2675	-0.16616233
229	0xbc43753b	-0.011929805
230	0xbe1f2074	-0.15539724
231	0xbe388d3d	-0.18022628
232	0x3de0fc62	0.10985638
233	0xbdaec209	-0.08533103
234	0xbd8f9513	-0.070108555
235	0x3daeee16	0.08541505
236	0x3dd8d8b4	0.10588208
237	0x3cbcd194	0.023049153
238	0xbd910a43	-0.070820354
239	0x3d307df8	0.043088883
240	0xbd8bf89b	-0.06834527
241	0xbd589833	-0.052879523
242	0xbdfb69db	-0.1227605
243	0xbc923959	-0.017849611
244	0x3dfb75b0	0.122783065
245	0x3d9bb422	0.07602717
246	0x3d6e5913	0.058190417
247	0xbd3b4254	-0.045717552
248	0x3d0bed0c	0.034161612
249	0x3d5a2417	0.053257074
250	0x3de1a312	0.11017431
251	0xbdfdea2d	-0.12398181
252	0x3d9854bd	0.074380375
253	0x3db6fdc8	0.08935124
254	0x3de863eb	0.11347183
255	0x3e0f570a	0.13998047

bn2.module.weight f4 [128]
0	0x3f722a0a	0.94595397
1	0x3f7e477c	0.99327826
2	0x3f73d995	0.9525388
3	0x3f76a5ee	0.9634694
4	0x3f6c8b70	0.92400265
5	0x3f684061	0.90723234
6	0x3f8228df	1.0168723
7	0x3f75721b	0.95877236
8	0x3f6aef95	0.91771823
9	0x3f711975	0.9417947
10	0x3f7d2e8c	0.9889915
11	0x3f83b2f3	1.0288986
12	0x3f84848e	1.0352952
13	0x3f7eaf48	0.9948621
14	0x3f80d73b	1.0065683
15	0x3f825344	1.0181661
16	0x3f6ebccf	0.9325685
17	0x3f7327ec	0.9498279
18	0x3f8b1bda	1.0867875
19	0x3f7a30e4	0.9773085
20	0x3f818d68	1.0121279
21	0x3f810869	1.0080692
22	0x3f8563d4	1.042109
23	0x3f76572c	0.96226764
24	0x3f7b0989	0.98061424
25	0x3f81716a	1.0112736
26	0x3f82e589	1.0226299
27	0x3f8740cb	1.0566648
28	0x3f83810c	1.0273757
29	0x3f7db44f	0.99103254
30	0x3f83d82e	1.0300348
31	0x3f808ab3	1.0042328
32	0x3f769a1a	0.9632889
33	0x3f81ff35	1.0156008
34	0x3f749f0d	0.9555519
35	0x3f728391	0.94732004
36	0x3f76607d	0.9624098
37	0x3f800890	1.0002613
38	0x3f82623e	1.0186231
39	0x3f806943	1.0032123
40	0x3f6f9832	0.93591607
41	0x3f82626c	1.0186286
42	0x3f805921	1.00272
43	0x3f82d0c6	1.0219963
44	0x3f89319d	1.0718266
45	0x3f8316d7	1.0241345
46	0x3f6d2cf6	0.9264673
47	0x3f88f65e	1.0700185
48	0x3f77220b	0.9653632
49	0x3f7f5e9a	0.99753726
50	0x3f7c7dc9	0.9862943
51	0x3f746808	0.9547124
52	0x3f86f2e1	1.0542871
53	0x3f822eb5	1.0170504
54	0x3f7df82d	0.9920681
55	0x3f877a89	1.058427
56	0x3f7987e0	0.97472954
57	0x3f8169c7	1.0110406
58	0x3f79c61e	0.9756793
59	0x3f7c4f7b	0.9855878
60	0x3f84f060	1.0385857
61	0x3f8829be	1.0637739
62	0x3f81c840	1.0139236
63	0x3f817c72	1.0116103
64	0x3f868336	1.0508792
65	0x3f76411b	0.96193093
66	0x3f6e2af7	0.9303431
67	0x3f8950c9	1.0727779
68	0x3f7d6563	0.9898283
69	0x3f8277c5	1.0192801
70	0x3f74ef74	0.95677876
71	0x3f7a119c	0.9768312
72	0x3f80d646	1.0065391
73	0x3f839920	1.0281105
74	0x3f7ec845	0.9952434
75	0x3f7b897a	0.9825665
76	0x3f825201	1.0181276
77	0x3f8473a2	1.0347788
78	0x3f896422	1.0733683
79	0x3f6d910a	0.9279944
80	0x3f7ea42b	0.9946925
81	0x3f74f0e8	0.95680094
82	0x3f7aa864	0.97913194
83	0x3f82a118	1.0205412
84	0x3f8356b8	1.026084
85	0x3f832338	1.0245123
86	0x3f81bcb7	1.0135716
87	0x3f8ad1ff	1.0845336
88	0x3f887099	1.0659362
89	0x3f870d51	1.0550939
90	0x3f7470fe	0.9548491
91	0x3f7ea064	0.99463487
92	0x3f6ee48b	0.9331748
93	0x3f8165e1	1.0109216
94	0x3f833ee5	1.0253569
95	0x3f76ff32	0.9648315
96	0x3f7cad3d	0.9870184
97	0x3f7a61a9	0.9780527
98	0x3f8241cb	1.0176328
99	0x3f8221d9	1.016658
100	0x3f81d1ce	1.0142152
101	0x3f850284	1.0391393
102	0x3f70bce1	0.94038206
103	0x3f6f0a14	0.93374753
104	0x3f778244	0.96683145
105	0x3f7f5a54	0.99747205
106	0x3f80128e	1.0005662
107	0x3f7e2f08	0.99290514
108	0x3f66ad93	0.90108603
109	0x3f7d1f73	0.9887611
110	0x3f886a32	1.0657408
111	0x3f82c410	1.0216084
112	0x3f80a800	1.005127
113	0x3f7ab62d	0.9793423
114	0x3f7ca8a5	0.9869483
115	0x3f71c55c	0.9444177
116	0x3f6a002c	0.9140651
117	0x3f75741c	0.95880294
118	0x3f8b08e0	1.0862083
119	0x3f7d328e	0.98905265
120	0x3f753fd7	0.95800537
121	0x3f86db8c	1.053575
122	0x3f6ec3c0	0.9326744
123	0x3f8829c2	1.0637743
124	0x3f7f191a	0.99647677
125	0x3f844856	1.0334575
126	0x3f8564ff	1.0421447
127	0x3f6b3c30	0.91888714

bn2.module.bias f4 [128]
0	0xbd192c2f	-0.037395652
1	0x3b3dd6f4	0.0028967233
2	0xbd635655	-0.055502255
3	0xbd4dd4c4	-0.050251737
4	0xbc890663	-0.016726678
5	0xbdd424c0	-0.10358572
6	0x3acd8c53	0.0015682079
7	0xbcc0f303	-0.023553377
8	0xbd3b944d	-0.045795728
9	0xbda5512b	-0.08072122
10	0xbcd3c1ae	-0.02584919
11	0x3bd1773b	0.006392387
12	0xbc855c31	-0.016279312
13	0xbc9bd225	-0.019021103
14	0xbcd22668	-0.02565308
15	0x3bd3ba4f	0.0064614187
16	0xbd2452ff	-0.040118214
17	0xbd31f086	-0.04344227
18	0x3d5c8342	0.053836115
19	0xbd5fbeac	-0.0546252
20	0x3cb7fdb9	0.022459852
21	0x3bb88bd3	0.0056319027
22	0x3c9dd327	0.019265724
23	0xbd893bac	-0.06700835
24	0xbd33f98a	-0.04393915
25	0xbd0f76a3	-0.03502525
26	0xbd268d96	-0.04066237
27	0x3aa2cf2d	0.0012421362
28	0xbcaa6fe6	-0.02080531
29	0xbc71990d	-0.014745963
30	0xbd6990d5	-0.05702289
31	0xbc8101e5	-0.015747974
32	0xbd837c69	-0.06420214
33	0x3b93811c	0.004501475
34	0xbd4d42e6	-0.050112627
35	0xbd6b960a	-0.057516135
36	0xbd30d976	-0.043176137
37	0x3c2fd6b5	0.0107323425
38	0xbca5d068	-0.020240977
39	0xbc999559	-0.018747972
40	0xbd10aa40	-0.035318613
41	0x3bf48c24	0.007462995
42	0x3c5155c6	0.012776798
43	0x3c8f4743	0.017490035
44	0x3d632adb	0.055460792
45	0xbc335f3b	-0.010947998
46	0xbd2ca69a	-0.04215107
47	0x3d4d66b6	0.05014678
48	0xbc8522d2	-0.016251955
49	0xbb16ac8b	-0.0022991027
50	0xbc392007	-0.01129914
51	0xbd44234e	-0.04788523
52	0x3c1956aa	0.009359041
53	0xbb6d1f76	-0.0036182082
54	0xbcf2a5d9	-0.029620098
55	0x3d1af66a	0.037832655
56	0xbcb20852	-0.021732483
57	0x3bb8f0e9	0.005643953
58	0xb90fb31d	-0.00013704268
59	0xbd350ca8	-0.044201523
60	0x3c726b9a	0.014796162
61	0x3c5bb6d0	0.013410285
62	0xbcb17341	-0.021661403
63	0xbcdb51c0	-0.02677238
64	0x3b192761	0.002336942
65	0xbd7690fe	-0.06019687
66	0xbd8025b3	-0.062571906
67	0x3b230c83	0.0024879284
68	0x3c311f21	0.010810644
69	0x3c576dad	0.013148707
70	0xbd1a9a94	-0.037745073
71	0xbb4c0e4a	-0.0031136447
72	0xbc7627ea	-0.015024165
73	0xbc2a3d6c	-0.010390621
74	0x3cac30ec	0.021019422
75	0xbd3a2d33	-0.04545326
76	0x3d1397ad	0.03603332
77	0x3c54008a	0.012939582
78	0x3d809ca5	0.062798776
79	0xbd8dfdc4	-0.069331676
80	0x3abb39ae	0.0014284158
81	0xbd545748	-0.05184105
82	0xbd137169	-0.03599683
83	0xbbdc5fa9	-0.0067252708
84	0xbbd7ec10	-0.00658942
85	0x3c803591	0.015650542
86	0x3d1245d0	0.03571111
87	0x3d179a09	0.037012134
88	0x3d66105a	0.056167938
89	0x3bb7350b	0.00559104
90	0xbd015a98	-0.031580538
91	0xbc8ec7bf	-0.01742923
92	0xbdb85632	-0.090008155
93	0xbcecbedb	-0.0288996
94	0xbc988329	-0.01861723
95	0xbd066c5b	-0.03281818
96	0xbd31477e	-0.04328107
97	0xbd2546a7	-0.040350582
98	0x3cf7efd5	0.030265728
99	0xbca93f84	-0.02066017
100	0xbcbfc225	-0.023408005
101	0xbb874fe6	-0.0041293977
102	0xbd3373da	-0.043811657
103	0xbdb62bb3	-0.08895054
104	0xbd7586c8	-0.05994299
105	0x3bc40755	0.0059823194
106	0xbd42946a	-0.04750482
107	0xbd833978	-0.06407446
108	0xbd8e8625	-0.0695918
109	0xbcb0f49d	-0.021601016
110	0x3c4db930	0.012556359
111	0x3bfd77b2	0.007735216
112	0xbca306cd	-0.019900704
113	0xbd8b59a7	-0.06804209
114	0xbd15ee0c	-0.036603972
115	0xbcb93d8b	-0.022612354
116	0xbda965fe	-0.082714066
117	0xbd270244	-0.040773645
118	0x3d639e7c	0.055571064
119	0xbcd73057	-0.026268167
120	0xbcaef832	-0.021358583
121	0x3c6d51b7	0.014484814
122	0xbd7dd99c	-0.061975107
123	0x3d3878f9	0.045037244
124	0xbd7aa67b	-0.061193924
125	0x3c0d5455	0.008626063
126	0xbbe246a4	-0.0069053937
127	0xbd902b5d	-0.07039521

bn2.module.running_mean f4 [128]
0	0xbe60557d	-0.21907611
1	0x3e5f59a0	0.21811533
2	0x3dd146cd	0.10218582
3	0xbedd2bdf	-0.43197533
4	0xbf06e6c1	-0.5269585
5	0xbf2a5be1	-0.66546446
6	0x3d5dc38f	0.054141577
7	0xbe3d8654	-0.18508273
8	0xbed89622	-0.42302042
9	0xbea3052d	-0.31839886
10	0xbd11e13f	-0.035615202
11	0x3e81ef25	0.25377765
12	0x3d4bb4e0	0.049733043
13	0x3ebaa6b2	0.36455303
14	0x3efaeda9	0.49009445
15	0x3d6f4c71	0.05842251
16	0x3e8bdd24	0.27317154
17	0xbd82302a	-0.06356843
18	0x3e5e90eb	0.2173497
19	0x3df20889	0.11818034
20	0x3ea39955	0.3195292
21	0xbeeb1b30	-0.4591918
22	0xbefff0e3	-0.4998847
23	0xbee36855	-0.44415537
24	0x3f4e7143	0.80641574
25	0x3e11fb12	0.14255932
26	0x3e6b2014	0.22961456
27	0xbd9ff1ed	-0.078098156
28	0xbe9d534c	-0.30727613
29	0xbf0749db	-0.5284707
30	0x3eaf3cc9	0.34226063
31	0xbd8e07d6	-0.06935088
32	0xbdfca235	-0.12335626
33	0x3e5bf29c	0.21479267
34	0xbee07176	-0.43836564
35	0xbe180754	-0.14846545
36	0x3f366a35	0.7125581
37	0x3f0df019	0.55444485
38	0x3ecd592b	0.40107092
39	0xbde0df82	-0.10980131
40	0xbdad5027	-0.084625535
41	0x3f00ec7e	0.5036086
42	0xbed5ca90	-0.41756105
43	0x3f3cdbf8	0.73773146
44	0xbe66a85c	-0.22525162
45	0x3d3c2ded	0.045942236
46	0xbee6494b	-0.44977793
47	0x3dd23cc0	0.102654934
48	0xbee14519	-0.4399803
49	0x3f270965	0.6524871
50	0x3e296562	0.1654258
51	0x3e3069c9	0.17227854
52	0x3f3761e1	0.71633726
53	0x3f300a83	0.6876604
54	0xbea91425	-0.33023182
55	0x3d8c0029	0.06835968
56	0x3e98deab	0.29857382
57	0xbefae777	-0.4900472
58	0xbe33b9a7	-0.1755129
59	0xbcef0578	-0.029177412
60	0x3e02aeb2	0.12761953
61	0xbd7b2520	-0.061314702
62	0xbcc1d0b8	-0.023659095
63	0xbec76715	-0.38945833
64	0x3ee07e99	0.43846586
65	0xbe82256d	-0.2541918
66	0xbea6d04e	-0.325808
67	0x3e731c37	0.23741232
68	0xbeeaf1f7	-0.4588773
69	0xbc9c57aa	-0.01908477
70	0xbd9a9dfa	-0.07549663
71	0xbf3cdcd6	-0.7377447
72	0x3d5bcd06	0.053662322
73	0xbcb24ade	-0.021764215
74	0xbe31c3e6	-0.17359886
75	0xbf795881	-0.9740067
76	0xbf1f96ec	-0.62339664
77	0xbf388ee4	-0.72093034
78	0x3e141a41	0.1446314
79	0x3dba26e9	0.09089453
80	0x3e2d3ead	0.1691844
81	0xbe114a27	-0.14188443
82	0x3e65698a	0.22403541
83	0x3ec8689f	0.3914232
84	0xbe3459e6	-0.17612419
85	0x3ead809a	0.33887178
86	0x3f23a679	0.6392589
87	0xbe025c23	-0.1273046
88	0x3daddfae	0.08489929
89	0x3d4969b8	0.049173087
90	0xbf478547	-0.7793774
91	0x3ec08789	0.37603405
92	0xbe98cff9	-0.2984617
93	0xbf1fdb76	-0.62444246
94	0xbd424289	-0.047426734
95	0xbdb8f387	-0.09030824
96	0xbdb6032b	-0.08887323
97	0xbec958a1	-0.3932543
98	0xbe8ca803	-0.27471933
99	0x3ea63164	0.32459557
100	0xbd979ca2	-0.07402922
101	0xbdbe2010	-0.09283459
102	0x3e01f8e2	0.12692598
103	0xbde6a903	-0.11262705
104	0xbed0fce5	-0.40817943
105	0xbed855d4	-0.42252982
106	0x3ec5bda7	0.38621256
107	0x3ea5f4df	0.32413384
108	0xbf292838	-0.66076994
109	0x3d9929ec	0.07478699
110	0xbdd3ac11	-0.103355534
111	0x3e91de52	0.2848993
112	0xbf03af3d	-0.5143927
113	0x3e970117	0.2949302
114	0x3e8cb84e	0.27484363
115	0x3eaaeedf	0.3338537
116	0x3eae7a4a	0.34077674
117	0xbf30ef54	-0.69115186
118	0xbe988bf2	-0.2979427
119	0xbec2091b	-0.37897572
120	0x3e03ef1e	0.12884185
121	0x3e83ee83	0.25767908
122	0xbec6a78f	-0.38799712
123	0x3ee3c6f3	0.44487724
124	0x3f2246cd	0.63389283
125	0xbd757c5f	-0.059933063
126	0xbefa8463	-0.48929128
127	0xbe0d9e64	-0.13829952

bn2.module.running_var f4 [128]
0	0x4041b7bf	3.02684
1	0x40579049	3.3681815
2	0x3e4745d7	0.19460236
3	0x3f2cf234	0.6755707
4	0x3fd40096	1.6562679
5	0x407b8f50	3.930622
6	0x3fa4a392	1.2862418
7	0x3e8650f2	0.2623363
8	0x3fa9c152	1.3262122
9	0x3f657644	0.89633584
10	0x3efa4419	0.4888008
11	0x3fdc099c	1.7190433
12	0x3e8f9233	0.2804123
13	0x4000800d	2.0078156
14	0x3fa6fb31	1.3045408
15	0x3ffd6c1f	1.9798621
16	0x3e607937	0.2192124
17	0x4009f1ad	2.1553757
18	0x3fe168d2	1.7610114
19	0x3ec72f12	0.389031
20	0x3f7754eb	0.9661395
21	0x3fe009d4	1.7502999
22	0x3f94982d	1.160894
23	0x40ab75ce	5.3581305
24	0x3efc3f7e	0.4926719
25	0x3f3247fa	0.6964108
26	0x3ff6b40a	1.9273694
27	0x3e8d0348	0.27541566
28	0x3f6b3dae	0.9189099
29	0x3fa90243	1.3203815
30	0x3efd91cd	0.495253
31	0x3faf7462	1.3707392
32	0x3e9f029d	0.3105668
33	0x40108679	2.2582076
34	0x40257ffc	2.5859365
35	0x3fdc28ea	1.7199986
36	0x3f15c1e2	0.58498967
37	0x40577bb0	3.3669243
38	0x401f3fbf	2.4882658
39	0x3f273fc2	0.6533166
40	0x3f51a9ea	0.81899893
41	0x3eca3860	0.39496136
42	0x3ecdc3b3	0.4018837
43	0x3edd946f	0.43277308
44	0x4077b0fb	3.870177
45	0x3ff556d5	1.9167124
46	0x3eeeef61	0.46667007
47	0x400f1638	2.2357311
48	0x3fdb06d0	1.7111454
49	0x401ff66d	2.4994156
50	0x3ee0564c	0.4381584
51	0x3f4e06f2	0.8047935
52	0x3e07fa1e	0.13279006
53	0x40171407	2.3605974
54	0x40514b67	3.2702272
55	0x3efd0b9f	0.4942293
56	0x3f908c0e	1.1292741
57	0x40443cff	3.066223
58	0x3f396929	0.72426087
59	0x3ea38991	0.31940892
60	0x40466333	3.0998046
61	0x401cd24c	2.4503355
62	0x400a7f52	2.164021
63	0x3f4e2eb7	0.8054003
64	0x402b3c0e	2.6755404
65	0x3f532bd8	0.82488775
66	0x3f83411e	1.0254247
67	0x3fed5cc0	1.854393
68	0x3fa48051	1.2851659
69	0x3f260f9c	0.6486757
70	0x3fbc8b17	1.4729947
71	0x3e60c512	0.21950176
72	0x4039357f	2.8938901
73	0x3f397c2c	0.72455096
74	0x3fbe6d8d	1.4877182
75	0x4003fc4e	2.0622745
76	0x4031349c	2.768836
77	0x3f8298bd	1.0202862
78	0x4058b01c	3.3857489
79	0x4036e6c3	2.8578346
80	0x3ea9f119	0.33191755
81	0x3f80dab0	1.0066738
82	0x3e5e6bcf	0.21720813
83	0x3f953f6b	1.1659979
84	0x3f72227e	0.9458388
85	0x3eb1c961	0.34723952
86	0x3e828c7b	0.25497803
87	0x3ffaa564	1.9581723
88	0x3f10a7b2	0.5650588
89	0x3fdd553a	1.7291634
90	0x40410586	3.0159621
91	0x3ee83b7d	0.45357886
92	0x4002d82a	2.0444436
93	0x4082ef8a	4.0917406
94	0x3f265ec0	0.6498833
95	0x403d2f3c	2.956008
96	0x3f631c6d	0.8871525
97	0x409c98c2	4.893647
98	0x4007cb53	2.121785
99	0x3fe0041f	1.7501258
100	0x3fec0b12	1.8440878
101	0x3f73949b	0.9514863
102	0x3f82ee0d	1.0228897
103	0x3fe0ce2a	1.7562916
104	0x3f89097c	1.0706019
105	0x40078b1e	2.117866
106	0x3fb3dad5	1.4051157
107	0x3eea1e71	0.4572635
108	0x40458f94	3.0868883
109	0x3ecacd0c	0.39609563
110	0x3f0ce31c	0.5503404
111	0x402b48f6	2.6763282
112	0x400f3ef0	2.2382164
113	0x3f22474a	0.6339003
114	0x3f98b845	1.1931235
115	0x3f593070	0.84839535
116	0x3f58433b	0.84477586
117	0x3ffadac8	1.9598017
118	0x3f138997	0.5763182
119	0x3ee35f88	0.44408822
120	0x3f255bd8	0.6459327
121	0x40021f26	2.0331511
122	0x40203b48	2.5036182
123	0x3fa768da	1.3078873
124	0x3f285109	0.6574865
125	0x3e360e35	0.17778857
126	0x3fb81c6f	1.4383677
127	0x3e6f529c	0.23371357

conv3.bias f4 [128]
0	0xbc34aa88	-0.011026986
1	0xbc5b1476	-0.0133715775
2	0x3c852470	0.016252726
3	0xbd054acb	-0.03254203
4	0x3c78daac	0.015188854
5	0x3c3362d8	0.010948859
6	0x3c238db0	0.009982511
7	0xbc88393e	-0.016628858
8	0x3ca7f099	0.020500468
9	0xbc91747f	-0.017755745
10	0xbb426bf9	-0.0029666407
11	0xbc103720	-0.008802205
12	0xbb06a914	-0.0020547556
13	0xbcba0966	-0.02270956
14	0xbcab5e25	-0.020918915
15	0xba74e998	-0.00093426695
16	0x3c0ef1ee	0.008724673
17	0x3c9c7d6f	0.01910278
18	0x3c1705f5	0.009217729
19	0xbca7eddf	-0.020499168
20	0xbc848edd	-0.016181404
21	0xbc567e0f	-0.013091578
22	0x3c90ac8d	0.017660404
23	0x3cd9e4b2	0.026598308
24	0xbbba729d	-0.0056899325
25	0xbcce91d5	-0.025216023
26	0xbc883cbb	-0.016630521
27	0xbc2e3133	-0.010631847
28	0x3c04becc	0.00810213
29	0xbcc5bdae	-0.024138298
30	0x3c1976e5	0.009366726
31	0x3ca204d6	0.019777697
32	0xbcb54b45	-0.022130618
33	0xbc860a6e	-0.016362395
34	0x3c6bbbef	0.014388069
35	0x3c416f6e	0.011806352
36	0xbc107f06	-0.008819347
37	0x3c64e219	0.0139699215
38	0x3c60b190	0.013714209
39	0x3b862889	0.0040941876
40	0xbcdb70ee	-0.026787248
41	0x3c7de932	0.015497493
42	0x3a4293e3	0.00074225495
43	0x3c546d71	0.012965546
44	0x3cc9247f	0.024553536
45	0xbbe9c065	-0.007133531
46	0x3c6955ce	0.014241649
47	0xbc408844	-0.011751238
48	0xbc434767	-0.011918879
49	0xbc3dfc6b	-0.011595826
50	0x3c9d1932	0.019177053
51	0xbcc1ddde	-0.023665365
52	0xbc11b638	-0.008893542
53	0x3cf2e0ba	0.029648174
54	0xbae1fe0b	-0.0017241848
55	0xbbec6a62	-0.0072148303
56	0x39d068d2	0.0003975095
57	0xbc8e4d8b	-0.01737096
58	0xb9381f9f	-0.00017559387
59	0xbca8419c	-0.020539097
60	0xbc0fb7b0	-0.008771822
61	0x3cb26293	0.02177552
62	0x3b1b54b7	0.0023701617
63	0x3c1ea319	0.00968244
64	0xbba61cf4	-0.0050693695
65	0xbca6fed7	-0.020385189
66	0xbc7923a9	-0.015206256
67	0x3ca3d3a7	0.019998385
68	0x3ca8f8ab	0.020626387
69	0x3c728fe5	0.014804815
70	0xbc5b83a1	-0.013398082
71	0x3bcd8f32	0.0062731737
72	0x3cecaeac	0.028891884
73	0x3cbce399	0.023057746
74	0x3bc68d63	0.006059335
75	0x3c9f9ba1	0.01948339
76	0x3bc1eaeb	0.005917897
77	0x3ac6a187	0.001515434
78	0xbc6f0c7a	-0.014590377
79	0x3c78ef5b	0.015193786
80	0x3b05cc46	0.0020415946
81	0xbb2af8e5	-0.0026088294
82	0xbc09d32e	-0.008412166
83	0x3c3a3a23	0.0113664
84	0x3c8c73a3	0.017144984
85	0xbc52877e	-0.012849687
86	0x3b88b218	0.004171621
87	0xbb35f24d	-0.002776283
88	0xbc76fc85	-0.015074854
89	0x3cb69db0	0.022291988
90	0x3c5e0ac3	0.0135523705
91	0x3bdaeac0	0.0066808164
92	0x3bd2942d	0.0064263553
93	0xbc0bed42	-0.008540453
94	0x3c437bcb	0.01193137
95	0x3c936ef5	0.017997244
96	0x3c67e2ba	0.014153177
97	0x3c48a440	0.0122461915
98	0x3b96b108	0.0045987405
99	0x3c468d6a	0.012118677
100	0xbc9fa6bf	-0.01948869
101	0x3c8bfb5c	0.01708763
102	0x3c069af1	0.008215652
103	0xbbd6dade	-0.0065568527
104	0x3b2d79a3	0.0026470206
105	0xbc6bdfe3	-0.0143966405
106	0xbc6ca334	-0.0144432075
107	0x3c49e6b9	0.012323075
108	0x3ba5ca52	0.005059519
109	0x3c090750	0.00836356
110	0xbc5e9d24	-0.01358727
111	0x3c8251f5	0.01590822
112	0x3c5becaf	0.013423129
113	0x3c7a0004	0.015258793
114	0xbb09be6f	-0.0021018048
115	0x3c16cf9c	0.009204771
116	0xbb3efde4	-0.002914303
117	0x3cc792e3	0.024362033
118	0xbc8eefed	-0.01744839
119	0xba5c5b7d	-0.0008405967
120	0x3c653153	0.013988811
121	0xbb91b1ff	-0.0044462676
122	0x3bd6bab8	0.0065530203
123	0x3c0a11b0	0.008427069
124	0xbc35a94d	-0.011087728
125	0x3c9f0d1b	0.019415429
126	0xb97bb116	-0.00024003195
127	0xbc8287fa	-0.01593398
