Mini project III/models/vae.pth (torch, 454159 bytes, 32 tensors)

conv1.bias f4 [128]
0	0xbcf73919	-0.030178593
1	0x3c2872bb	0.01028126
2	0xbca9ec7c	-0.020742647
3	0xbc74554f	-0.014912917
4	0xbc653b34	-0.013991166
5	0xbc71be39	-0.014754825
6	0xbc60ad67	-0.013713217
7	0xbbfe69ce	-0.0077640777
8	0x3b3db559	0.0028947203
9	0xbc6039bb	-0.013685639
10	0xbba2425f	-0.0049517597
11	0xbc5c81b8	-0.013458662
12	0x3c51d1e1	0.012806387
13	0x3ca985d5	0.020693699
14	0xbc1af062	-0.009456726
15	0xbbe6174c	-0.00702182
16	0xbc596580	-0.013268828
17	0xbcb13f86	-0.021636736
18	0xbc3ad605	-0.011403565
19	0x3bdae622	0.006680266
20	0xbcad16b2	-0.021128986
21	0x3cb64c40	0.022253156
22	0xbc7e8482	-0.015534522
23	0xb9d7868a	-0.00041108235
24	0x3bcf5a0b	0.0063278726
25	0x3c587935	0.013212492
26	0xbc6baadd	-0.014383999
27	0x3c02c94e	0.007982565
28	0xbcbc887b	-0.023014298
29	0xbc54966c	-0.0129753165
30	0xbb5f1844	-0.0034041563
31	0xbc42619c	-0.011864092
32	0xbc8643fc	-0.01638984
33	0x3c2e6409	0.010643967
34	0x3bc05c37	0.005870368
35	0xbaffcc32	-0.0019515811
36	0xbcbb2ee4	-0.022849508
37	0x3ba51fa8	0.005039174
38	0xbc9282a5	-0.017884562
39	0x3cd2ec07	0.025747312
40	0xbc61e5b2	-0.013787674
41	0xbaf6bdff	-0.0018824934
42	0xbc74f3b0	-0.014950678
43	0x3bf03055	0.0073299804
44	0xbc64f37a	-0.013974065
45	0xbc1e15ac	-0.009648722
46	0x3c2ced41	0.010554613
47	0xbbcc28d9	-0.0062304554
48	0x3c2e5cc0	0.0106422305
49	0x39e5eb96	0.0004385381
50	0x3c8eb88f	0.017421989
51	0xbcbacfda	-0.02280419
52	0xbb1cee1b	-0.0023945633
53	0x3c4efa75	0.012632956
54	0xbc6aaaa8	-0.014322914
55	0xbc56d03b	-0.013111169
56	0xbc5a84fd	-0.013337371
57	0x3c4d6ab8	0.012537651
58	0xbc988614	-0.018618621
59	0x3b43f662	0.0029901494
60	0xbca7a467	-0.020464135
61	0xbc3c4e2d	-0.011493248
62	0xbc9f74db	-0.0194649
63	0xbcaeb12b	-0.021324715
64	0x3bfd3d4e	0.0077282554
65	0xb78013b2	-1.526796e-05
66	0x3c4439d8	0.011976682
67	0xbcb3dfa1	-0.02195722
68	0xbc41dd79	-0.011832588
69	0xbc578b36	-0.013155749
70	0xbcd16626	-0.025561403
71	0xbb933bc5	-0.004493209
72	0xbc9510da	-0.018196512
73	0xbc79872a	-0.0152299795
74	0xbb9558bd	-0.0045576976
75	0x3c851d0d	0.016249204
76	0x3c2d8316	0.010590335
77	0x3c7962c1	0.015221299
78	0x3bc07d43	0.0058743074
79	0xbc7edd99	-0.015555763
80	0xbb55fccc	-0.00326519
81	0xbcbaee0f	-0.022818593
82	0xbc8b8d62	-0.01703519
83	0xbc8c37ef	-0.017116515
84	0xbc953ba7	-0.018216921
85	0xbbc50797	-0.0060128677
86	0x3b10d6c5	0.002210067
87	0x3c120208	0.008911617
88	0x3b48caf7	0.0030638555
89	0xb9e2f51b	-0.00043288697
90	0x3b3f40d2	0.0029182923
91	0x3b8b5f2e	0.0042532897
92	0xbb313aa3	-0.0027043007
93	0x3b07511d	0.0020647713
94	0xbb1168cd	-0.002218771
95	0xbc5f7829	-0.013639488
96	0xbc8a6807	-0.016895307
97	0x3c231cf6	0.009955635
98	0xbb79161c	-0.0038007563
99	0xbb6badc7	-0.0035961734
100	0x3b71c9e7	0.0036894025
101	0xbc477453	-0.01217373
102	0x3ad3aa6f	0.0016148816
103	0xbca0ccb3	-0.019628858
104	0xbc79d2e6	-0.015248036
105	0x3a8ec404	0.0010892157
106	0xbcad0bd3	-0.021123802
107	0x3cd8962b	0.026438793
108	0xbc771017	-0.01507952
109	0x3c7bf8f0	0.015379176
110	0x3c9000ca	0.017578501
111	0xbbe04f91	-0.0068454226
112	0xbcb67a8c	-0.022275232
113	0xbcdff3fc	-0.02733802
114	0x3ca019c6	0.01954354
115	0x3c1611b3	0.009159493
116	0x3b2db493	0.0026505336
117	0x3c9ebbb3	0.019376611
118	0xbc10ce8a	-0.008838305
119	0xbc9c5dbf	-0.01908767
120	0x3a0211ab	0.0004961739
121	0x3b1eaed0	0.0024213083
122	0x3b9f81ae	0.004867754
123	0xbb94003b	-0.004516629
124	0xb9aa06a1	-0.00032429866
125	0x3c93c623	0.018038815
126	0x3c983c03	0.018583303
127	0x3b3996de	0.0028318684

conv1.lin.weight f4 [128, 7]
0	0xbd5afc38	-0.05346319
1	0x3cccdbb3	0.025007105
2	0x3b5d4106	0.003376068
3	0xbda48dba	-0.08034845
4	0xbe25c745	-0.16189297
5	0xbd84958b	-0.064738356
6	0xbda7a222	-0.08185221
7	0x3ca0006b	0.01953145
8	0xbe217a61	-0.1576934
9	0xbd4ab493	-0.049488615
10	0xbe12d042	-0.14337257
11	0xbae74f23	-0.0017647486
12	0x3cdee3c7	0.027208222
13	0xbda76ed5	-0.081754364
14	0x3dd7e6e7	0.10542088
15	0x3e109664	0.1411987
16	0x3cef2f4f	0.029197363
17	0xbe4594ea	-0.19295087
18	0x3e51e9c0	0.20499325
19	0xbc20dd4d	-0.009818387
20	0xbcbec8a9	-0.023289042
21	0xbdd2c705	-0.10291866
22	0xbdaf6186	-0.08563523
23	0x3e486e36	0.19573292
24	0x3e552b1a	0.20817223
25	0xbd6e0e00	-0.05811882
26	0xbe45bb42	-0.19309714
27	0x3db3658a	0.087596014
28	0xbe04a997	-0.12955318
29	0x3cc2971b	0.023753693
30	0x3e46fb7e	0.19431874
31	0x3e24c138	0.16089332
32	0xbd9a2174	-0.07525912
33	0x3d8fa4cd	0.07013855
34	0x3dc9bfda	0.09851046
35	0x3e316c09	0.17326368
36	0x3df61ff7	0.120178156
37	0xbd48f90d	-0.04906564
38	0x3e5078c3	0.20358567
39	0x3d95481f	0.07289147
40	0x3dd5bfcb	0.10436972
41	0x3e1f4f29	0.15557541
42	0x3e740b53	0.23832445
43	0xbe0a238a	-0.1349012
44	0x3e05ec3f	0.13078402
45	0xbd9c8f7a	-0.076445535
46	0xbe4921ed	-0.19641848
47	0xbe555f1e	-0.20837066
48	0xbe396a52	-0.18106964
49	0x3da6c593	0.08143153
50	0xbdf5205b	-0.11969062
51	0xbe04a820	-0.1295476
52	0xbe5e7de3	-0.2172771
53	0xbbe9ec20	-0.007138744
54	0x3cd26093	0.025680816
55	0xbb93c007	-0.0045089754
56	0x3dfe784b	0.12425288
57	0xbd3c7ec9	-0.04601935
58	0x3a6c6907	0.0009018336
59	0x3db017e7	0.08598309
60	0x3d71e052	0.05905182
61	0x3d7e388c	0.062065646
62	0x3daeb7db	0.085311614
63	0x3dccc569	0.099985905
64	0xbe776711	-0.2416041
65	0x3de298a9	0.11064274
66	0x3e309dc4	0.17247683
67	0x3de62f8c	0.112395376
68	0x3e374548	0.17897522
69	0x3b02c156	0.0019951663
70	0x3def5b02	0.1168728
71	0xbd07b757	-0.03313383
72	0x3b5c9afd	0.0033661716
73	0xbde468e7	-0.11152821
74	0xbe45eebc	-0.19329351
75	0x3d5933c3	0.05302788
76	0x3e30d0db	0.17267172
77	0x3d82dc4a	0.06389673
78	0x3ddc633f	0.10761117
79	0x3dfc056a	0.1230572
80	0xbdc986a2	-0.09840132
81	0xbe5009a1	-0.20316173
82	0xbd209939	-0.039208625
83	0x3d11cf43	0.03559805
84	0x3de2486d	0.1104897
85	0x3decb0d9	0.115571685
86	0x3e2cf8d7	0.168918
87	0xbe41314f	-0.18866466
88	0x3e5c0fd9	0.2149042
89	0x3de9a518	0.11408442
90	0x3d58aea5	0.05290093
91	0x3c86e449	0.016466277
92	0x3d87a908	0.06624037
93	0x3dc20d01	0.094751365
94	0x3e2dc410	0.16969323
95	0x3e1a5484	0.15071303
96	0xbe393aea	-0.1808888
97	0x3e2188b9	0.15774812
98	0xbe1390c4	-0.14410692
99	0xbe37b025	-0.17938288
100	0x3e2d03db	0.16896002
101	0xbd6841b4	-0.056703284
102	0xbd2bb561	-0.041921023
103	0x3e3d215a	0.18469754
104	0x3e2d6828	0.16934264
105	0x3e7a5e92	0.24450138
106	0xbe2fca9f	-0.17167138
107	0xbe55b9b4	-0.20871621
108	0x3dbc0c85	0.091820754
109	0x3e3d1f2b	0.18468921
110	0xbdff4251	-0.12463821
111	0xbe1024a5	-0.14076479
112	0xbc37094a	-0.011171648
113	0x3cb054b2	0.02152476
114	0x3e4c50de	0.19952723
115	0xbdfcd2dc	-0.12344906
116	0xbd7d65f6	-0.061864816
117	0xbc45ee0c	-0.012080681
118	0xbdc80525	-0.09766606
119	0xbe27eead	-0.16399641
120	0xbe0a08fe	-0.13479993
121	0x3d41f966	0.047356986
122	0x3de4eae0	0.11177611
123	0xbdc5676a	-0.09638865
124	0xbd5941ae	-0.053041153
125	0x3dcbdd34	0.099543005
126	0x3e4d9582	0.20076564
127	0x3dace0b0	0.08441293
128	0x3e4734b6	0.19453701
129	0xbdb3fd35	-0.0878853
130	0xbe57e262	-0.21082452
131	0x3dc6e3cc	0.097114176
132	0x3e074cc4	0.13212878
133	0xbe109210	-0.14118218
134	0xbe47f20f	-0.19525932
135	0xbe0e6471	-0.13905503
136	0xbce4c9b7	-0.027928216
137	0xbe4a7780	-0.19772148
138	0xbdecd472	-0.11563958
139	0xbe1d9908	-0.15390408
140	0x3d8d5b03	0.06902125
141	0x3e287280	0.16449928
142	0xbe0b157a	-0.13582411
143	0x3dc8a3f2	0.09796895
144	0xbd60724a	-0.054796495
145	0x3dc27b15	0.09496132
146	0x3de9b2fb	0.11411091
147	0x3be9979e	0.00712867
148	0xbd93756f	-0.07200133
149	0x3e69ecd4	0.22844249
150	0x3d8b140a	0.067909315
151	0x3ccb5e39	0.024825202
152	0x3e12e1da	0.14343968
153	0xbe03e4dc	-0.12880272
154	0xbe3bd734	-0.18343812
155	0x3cef40f0	0.02920577
156	0x3c9d7ebf	0.019225476
157	0x3ddd4512	0.1080419
158	0xbd4f2035	-0.050567824
159	0x3e409dd5	0.18810208
160	0xbe093750	-0.13400006
161	0xbe50bbe0	-0.20384169
162	0x3deb3a9e	0.1148579
163	0xbe077b83	-0.1323071
164	0xbcaa5b82	-0.020795587
165	0x3d3ac844	0.045601144
166	0xbd07175d	-0.032981265
167	0x3df68198	0.12036437
168	0xbd1d0bed	-0.03834145
169	0xbe635440	-0.22200108
170	0x3d8584c5	0.065194644
171	0x3cfecb8d	0.03110292
172	0xbe449e2a	-0.1920096
173	0x3e27d511	0.16389872
174	0x3dfb2230	0.1226238
175	0xbe00cd8a	-0.12578407
176	0xbcc45cf4	-0.023970105
177	0x3dcde867	0.10054093
178	0xbdfec2e5	-0.12439517
179	0x3e03b5ae	0.12862274
180	0x3e293dd7	0.16527496
181	0xbd7e6cd2	-0.062115498
182	0xbe589a06	-0.21152505
183	0x3dc76ec3	0.09737923
184	0x3e2cdfa5	0.16882189
185	0xb8a36d4d	-7.7928045e-05
186	0x3e0402ef	0.12891744
187	0x3d592b88	0.05302003
188	0x3d89c5dc	0.06727192
189	0xbe6d78b6	-0.23190579
190	0xbcfadae5	-0.030621955
191	0xbd8e6d14	-0.06954399
192	0x3c82a25f	0.015946565
193	0x3e076b30	0.13224483
194	0x3e04c60d	0.12966175
195	0xbde2b81f	-0.110702746
196	0xbca91406	-0.02063943
197	0x3d05544b	0.03255109
198	0x3d8c4534	0.06849137
199	0x3e1ef5db	0.15523474
200	0xbd8119c0	-0.063037395
201	0xbe4a9dae	-0.19786713
202	0x3d95faa0	0.073231936
203	0x3cfb2c8f	0.030660896
204	0xbe1868ee	-0.14883777
205	0x3d9d6026	0.076843545
206	0x3d148c8d	0.036266852
207	0x3e41e083	0.189333
208	0xbe441cc5	-0.191516
209	0xbd15cf94	-0.036574915
210	0x3cf97ced	0.030455077
211	0xbd4abb38	-0.049494952
212	0x3e53e6cc	0.20693511
213	0x3dc8f4e4	0.09812334
214	0x3da95793	0.082686566
215	0x3e2a66db	0.16640799
216	0xbe6f2c9f	-0.23356865
217	0xbc3b4b69	-0.011431553
218	0x3deee0ce	0.11663972
219	0x3d5501d9	0.052003715
220	0x3d7e67c9	0.062110696
221	0x3e26ee24	0.16301781
222	0xbe1b6e2a	-0.15178743
223	0xbc8bd27a	-0.017068136
224	0xbe24c369	-0.16090168
225	0xbe0a282c	-0.13491887
226	0x3dbaf61a	0.091289714
227	0x3e4ace54	0.1980527
228	0xbe3bd3e7	-0.18342553
229	0xbddb8986	-0.1071959
230	0xbe20261b	-0.15639536
231	0xbde985d0	-0.11402476
232	0x3e064763	0.1311317
233	0x3c7ec438	0.015549712
234	0x3d84367b	0.06455704
235	0xb8bcf291	-9.00972e-05
236	0xbe3840c5	-0.17993458
237	0xbe35313f	-0.17694567
238	0x3e483486	0.19551286
239	0xbe2144b0	-0.15748858
240	0xbe3e8663	-0.18605952
241	0xbdba5c57	-0.09099644
242	0xbe2c4c3f	-0.1682596
243	0x3dc8fe07	0.09814077
244	0xbe4d6d5a	-0.20061246
245	0x3de827ba	0.11335702
246	0x3dec8779	0.11549277
247	0xbd8176be	-0.063214764
248	0xbce3f02f	-0.02782449
249	0x3e33cd8f	0.17558883
250	0xbe28f5a2	-0.16499951
251	0x3e51afda	0.20477238
252	0xbe698717	-0.22805439
253	0xbe3515d9	-0.17684115
254	0x3e1d338c	0.15351695
255	0xbe2fcee2	-0.17168763

bn1.module.weight f4 [128]
0	0x3f8a82bf	1.082115
1	0x3f75bcda	0.9599129
2	0x3f75ad79	0.95967823
3	0x3f83cc3b	1.0296701
4	0x3f829466	1.0201538
5	0x3f787680	0.97055817
6	0x3f77a918	0.9674239
7	0x3f7beeed	0.98411447
8	0x3f7d7d29	0.99019104
9	0x3f795cc7	0.9740719
10	0x3f7f1145	0.99635726
11	0x3f74e00b	0.9565436
12	0x3f7b7a1e	0.9823321
13	0x3f83a997	1.028613
14	0x3f77021b	0.9648759
15	0x3f7d6ce5	0.98994285
16	0x3f7c5b8c	0.9857719
17	0x3f86a516	1.051913
18	0x3f78d6d4	0.972028
19	0x3f7a975e	0.9788722
20	0x3f768fd3	0.9631321
21	0x3f7f08ae	0.9962262
22	0x3f835cab	1.0262655
23	0x3f80b5c5	1.0055472
24	0x3f74aff8	0.95581007
25	0x3f897500	1.073883
26	0x3f835383	1.0259861
27	0x3f7dc5dc	0.99130034
28	0x3f7db788	0.9910817
29	0x3f7be664	0.98398423
30	0x3f7d84d2	0.9903079
31	0x3f7b3371	0.9812537
32	0x3f84a01e	1.0361364
33	0x3f7c57a9	0.9857126
34	0x3f787a1b	0.9706132
35	0x3f7ee365	0.99565727
36	0x3f82b0d3	1.0210212
37	0x3f782030	0.96924114
38	0x3f82021b	1.0156893
39	0x3f844bc8	1.0335627
40	0x3f817951	1.0115148
41	0x3f874885	1.0569006
42	0x3f821e9a	1.0165589
43	0x3f7e2a11	0.9928294
44	0x3f7931d8	0.9734168
45	0x3f74e739	0.9566532
46	0x3f77f611	0.9685984
47	0x3f8005e1	1.0001794
48	0x3f83dd42	1.0301898
49	0x3f82ddd8	1.0223951
50	0x3f7d1fee	0.98876846
51	0x3f7c4665	0.98544914
52	0x3f7ca126	0.98683393
53	0x3f7b3d28	0.9814019
54	0x3f814263	1.0098385
55	0x3f811eaf	1.0087489
56	0x3f7cd338	0.98759794
57	0x3f7e61c6	0.9936794
58	0x3f82d26c	1.0220466
59	0x3f7daccb	0.99091786
60	0x3f797ed6	0.9745916
61	0x3f859e3c	1.0438914
62	0x3f81e48d	1.0147873
63	0x3f7ede9c	0.99558425
64	0x3f82ba60	1.0213127
65	0x3f7e85f1	0.9942313
66	0x3f802fde	1.0014608
67	0x3f804c79	1.0023338
68	0x3f7e6716	0.99376047
69	0x3f810525	1.0079695
70	0x3f84118b	1.0317854
71	0x3f816388	1.01085
72	0x3f7c3092	0.9851161
73	0x3f8a13f9	1.0787345
74	0x3f7ea0af	0.99463934
75	0x3f780189	0.9687734
76	0x3f7407a8	0.9532418
77	0x3f813ade	1.009609
78	0x3f764865	0.96204215
79	0x3f8378c4	1.027123
80	0x3f81fd2a	1.0155385
81	0x3f7b3ea2	0.98142445
82	0x3f773283	0.9656145
83	0x3f76a6a1	0.96348006
84	0x3f832389	1.024522
85	0x3f7b0df8	0.9806819
86	0x3f7fa923	0.9986746
87	0x3f81b3ab	1.0132955
88	0x3f802a36	1.0012882
89	0x3f821b5b	1.0164598
90	0x3f85d10f	1.0454425
91	0x3f805a79	1.002761
92	0x3f814ed0	1.0102177
93	0x3f7dffc9	0.9921842
94	0x3f7f35c0	0.9969139
95	0x3f7aa39b	0.9790589
96	0x3f7913cf	0.9729585
97	0x3f82fcb2	1.0233366
98	0x3f837f29	1.0273181
99	0x3f78b979	0.9715801
100	0x3f7e94d7	0.9944586
101	0x3f795d38	0.97407866
102	0x3f7eebd2	0.99578583
103	0x3f74f3ad	0.9568432
104	0x3f7d21b4	0.9887955
105	0x3f7b702e	0.9821805
106	0x3f7674a5	0.96271735
107	0x3f7a5522	0.9778615
108	0x3f83cc11	1.0296651
109	0x3f82b32c	1.0210929
110	0x3f79125f	0.9729366
111	0x3f78c15c	0.97170043
112	0x3f856d85	1.0424048
113	0x3f74d8a1	0.9564305
114	0x3f868085	1.0507971
115	0x3f7ef55a	0.99593127
116	0x3f821279	1.0161887
117	0x3f7fb5dd	0.99886876
118	0x3f80ff2f	1.0077876
119	0x3f75b93d	0.95985776
120	0x3f7eca39	0.9952732
121	0x3f837299	1.0269347
122	0x3f75dd2a	0.96040595
123	0x3f8227ad	1.0168358
124	0x3f7f9fea	0.99853384
125	0x3f7b7e05	0.98239166
126	0x3f75c3d7	0.9600195
127	0x3f843d6e	1.0331247

bn1.module.bias f4 [128]
0	0x3d0d8bfd	0.03455733
1	0xbd120928	-0.035653263
2	0xbd13642f	-0.035984214
3	0x3cbe9967	0.023266507
4	0x3bd4ab17	0.006490122
5	0xbcdc77ac	-0.026912533
6	0xbcbcaa94	-0.023030557
7	0xbc823c24	-0.015897818
8	0xbc956101	-0.018234732
9	0xbd111a49	-0.035425458
10	0xbccedc68	-0.025251582
11	0xbd44fc5a	-0.048092224
12	0xbd116077	-0.035492387
13	0x3c929223	0.017891949
14	0xbc1d2844	-0.00959212
15	0xbcf9b3f3	-0.030481314
16	0xbbb07cbd	-0.0053859637
17	0x3d0d7826	0.03453841
18	0xbca6fb07	-0.020383371
19	0xbd471568	-0.0486044
20	0xbd09f8c2	-0.0336845
21	0xbc44338e	-0.011975182
22	0x3d2709f3	0.040780973
23	0xbbd4d6ac	-0.0064953174
24	0xbc853948	-0.016262665
25	0x3c3835b6	0.011243274
26	0xbb5f1693	-0.0034040555
27	0xbcb43d12	-0.022001777
28	0xbba3cc9c	-0.0049987566
29	0xbc9a8498	-0.018862054
30	0xbcbf4922	-0.023350302
31	0xbc83d531	-0.016092869
32	0x3d169509	0.036763225
33	0xbd40ae35	-0.047041137
34	0xbc8f89b2	-0.017521713
35	0xbbaed5b7	-0.0053355354
36	0xbcbdd9a9	-0.023175078
37	0xbc982cfe	-0.018576141
38	0x3b4f9060	0.0031671748
39	0x3cdebd53	0.027189886
40	0xbcde660d	-0.027148271
41	0x3c9a9889	0.018871563
42	0xbc41948e	-0.011815203
43	0xbcf5c18e	-0.02999952
44	0xbd53769e	-0.051626794
45	0xbd58f43b	-0.05296729
46	0xbd2378e8	-0.039910227
47	0xbc6ac3c9	-0.014328905
48	0xbd0798c6	-0.03310468
49	0x3be9b102	0.0071316967
50	0xbc9353fa	-0.01798438
51	0xbc9fdef3	-0.01951549
52	0xbd207cfe	-0.0391817
53	0xbd18a4a1	-0.037266377
54	0xbbee50a0	-0.007272795
55	0x39ca5d36	0.0003859789
56	0xbba97b29	-0.0051721525
57	0xbbf61063	-0.0075092777
58	0x3caedee1	0.021346511
59	0xbcef538e	-0.029214647
60	0xbc946bc5	-0.018117795
61	0x3cfe115c	0.031014137
62	0x3ce31262	0.027718727
63	0xbc006e26	-0.007838761
64	0xbd15efeb	-0.036605757
65	0xbcb6cc99	-0.022314357
66	0x3938097f	0.00017551145
67	0x3917f0ff	0.0001449026
68	0xbc7afa31	-0.015318439
69	0xbc124799	-0.008928203
70	0x3d1cedba	0.03831265
71	0x3b9cec1d	0.004788889
72	0xbcb36907	-0.021900667
73	0x3c9a6a2b	0.018849453
74	0x3ca791a6	0.020455193
75	0xbd1480f1	-0.03625578
76	0xbd36a3f0	-0.044589937
77	0x3ca086d1	0.019595535
78	0xbc2ccaba	-0.010546381
79	0x3c11f221	0.008907826
80	0x3c171f5b	0.009223784
81	0x3b617de7	0.003440732
82	0xbc8c4318	-0.017121837
83	0xbd30ed1b	-0.04319487
84	0x3ca7606f	0.020431725
85	0x3c23cd00	0.009997606
86	0x3969f7d7	0.00022312939
87	0x3d01d234	0.031694606
88	0xbc610a48	-0.013735361
89	0xbc9ca160	-0.019119918
90	0x3cb04612	0.021517787
91	0xb9fb8cb0	-0.0004797927
92	0x3cbf9fa1	0.023391547
93	0x3b1f8b5d	0.0024344542
94	0x3c30590f	0.010763421
95	0x3bea0d5f	0.0071427072
96	0xbd16d360	-0.036822677
97	0x3ca2a4df	0.019854007
98	0xbd277cc1	-0.04089046
99	0xbd4ce9b0	-0.05002755
100	0xbd490f80	-0.049087048
101	0xbc50b24c	-0.012737822
102	0xbb80dd7d	-0.0039326535
103	0xbd413061	-0.04716528
104	0xbbe8df47	-0.007106695
105	0xbd566c9c	-0.05234967
106	0xbd41fabb	-0.047358256
107	0xbc94c1eb	-0.018158874
108	0x3ca288f1	0.01984069
109	0x3d03a9bf	0.032144304
110	0xbcc03715	-0.023463765
111	0xbce19aba	-0.0275396
112	0x3c81f2a7	0.015862776
113	0xbc522f41	-0.012828649
114	0x3d1dbdee	0.03851121
115	0x3c9b4900	0.018955708
116	0x3bcd1eca	0.006259774
117	0xbc104534	-0.008805562
118	0x3bc9dfa0	0.0061606914
119	0xbd6ef871	-0.0583424
120	0xbca2afd4	-0.019859232
121	0xbcc4fe9e	-0.024047192
122	0xbd54dcff	-0.05196857
123	0x3c63554a	0.013875315
124	0xbcf8d1de	-0.03037351
125	0xbd03bcc8	-0.032162458
126	0xbd08195b	-0.033227306
127	0x3d8594b7	0.06522506

bn1.module.running_mean f4 [128]
0	0xbd86be00	-0.065792084
1	0xbaffc04e	-0.0019512267
2	0x3d98e789	0.07466037
3	0xbd8f6e3e	-0.07003449
4	0xbd986464	-0.07441023
5	0x3df0ea51	0.11763442
6	0x3e22613b	0.15857403
7	0x3c891ec5	0.016738305
8	0x3db2c358	0.08728665
9	0x3d428ba2	0.047496445
10	0x3d99d1c3	0.07510712
11	0x3d7e92dd	0.06215178
12	0x3e052b64	0.13004833
13	0x3d5d2c81	0.05399752
14	0xbddd38d3	-0.10801854
15	0x3def1d50	0.11675513
16	0x3c20c9ba	0.00981372
17	0xbe171ebe	-0.14757821
18	0x3e2ecd1d	0.17070432
19	0xbe0da477	-0.1383227
20	0x3ce9fbe9	0.028562503
21	0x3d5ab264	0.053392783
22	0xbe0e8d3e	-0.13921067
23	0xbe1c09c9	-0.15238108
24	0xbd15db6f	-0.03658622
25	0xbd84147f	-0.06449222
26	0xbe045b80	-0.1292553
27	0xbe2f07cd	-0.1709282
28	0xbcc72904	-0.02431155
29	0x3b0572f4	0.0020362707
30	0x3d34aa55	0.044107754
31	0x3a43d3e1	0.0007470232
32	0xbe08f846	-0.13375959
33	0xbd5d8e7f	-0.054090973
34	0x3dccd266	0.10001068
35	0x3da93126	0.082613274
36	0xbe3df849	-0.18551745
37	0x3d15921f	0.036516305
38	0xbda56941	-0.08076716
39	0x3e1b0b41	0.15141012
40	0x3caee32c	0.021348558
41	0xbd6f8b4f	-0.058482464
42	0xbdf8661d	-0.121288516
43	0xbdb32de6	-0.08748989
44	0x3d4e2ba7	0.0503346
45	0x3ddad4ea	0.106851414
46	0xbc65f2e2	-0.014034959
47	0xbdb40f33	-0.087919615
48	0x3dd5685d	0.10420296
49	0xbe0bacc1	-0.13640119
50	0x3db0eac0	0.08638525
51	0xbbccf77c	-0.0062550884
52	0x3dc49853	0.09599366
53	0xbdc4719e	-0.09591983
54	0xbda36a13	-0.079792164
55	0xbd2daa30	-0.04239863
56	0xbd81a237	-0.06329768
57	0xbe137d3d	-0.14403243
58	0xbda333a7	-0.07968836
59	0xbdf210a1	-0.11819578
60	0x3cda86cc	0.026675604
61	0xbdd01e35	-0.101620115
62	0x3d919da9	0.071101494
63	0x3db3505b	0.08755561
64	0x3dd7206c	0.10504231
65	0xbe165c7c	-0.14683717
66	0xbde4713a	-0.11154409
67	0xbd5502c1	-0.05200458
68	0xbde35e6d	-0.11101995
69	0xbdb80f6f	-0.08987319
70	0xbd9fa11b	-0.077944
71	0x3db6834a	0.0891176
72	0x3d9b477b	0.07581993
73	0xbc962fd0	-0.018333346
74	0x3b55f1fa	0.003264545
75	0xbd81d153	-0.063387536
76	0x3da342d1	0.079717286
77	0xbd84a78b	-0.06477269
78	0x3c77e1be	0.015129505
79	0xbdf01973	-0.11723604
80	0xbcdfae75	-0.027304867
81	0xbb840170	-0.0040284917
82	0x3d594db0	0.053052604
83	0x3e080eef	0.13286947
84	0xbe2f9b44	-0.17149073
85	0x3dbb7653	0.09153428
86	0x3e038100	0.12842178
87	0xbd8feec1	-0.070279606
88	0xbe02e883	-0.12784009
89	0xbe4268f7	-0.18985353
90	0xbc8709c5	-0.01648415
91	0xbd9dc24e	-0.07703076
92	0x3d761c1a	0.060085393
93	0xbd45f629	-0.04833046
94	0x3ce6b95f	0.028164564
95	0x3d7ead55	0.06217702
96	0x3da756b5	0.08170835
97	0x3d23eaa9	0.04001871
98	0xbe281d55	-0.1641744
99	0x3d152ab8	0.036417693
100	0xbe16457f	-0.14674948
101	0x3e0bf785	0.1366864
102	0x3dc19a3e	0.094532475
103	0x3daf1c1a	0.08550282
104	0xbd228fbb	-0.039687853
105	0xbde89739	-0.113569684
106	0x3e1be594	0.15224296
107	0xbe16d617	-0.14730106
108	0x3d75d30e	0.06001573
109	0xbe07aebf	-0.13250254
110	0x3d1e6cc6	0.038677953
111	0x3dd95658	0.10612172
112	0xbe12ecaf	-0.143481
113	0x3d8713a1	0.06595541
114	0xbdab57d4	-0.08366361
115	0xbddfcd59	-0.10927839
116	0xbd5e4705	-0.05426695
117	0x3d609bb5	0.054835994
118	0x3e0a8230	0.13526225
119	0x3cf53627	0.029933048
120	0x3da0c6cc	0.078504175
121	0xbc74fcaa	-0.014952818
122	0xbdf553e2	-0.1197889
123	0x3cd6574e	0.026164677
124	0x3da25953	0.079271935
125	0xbd677e11	-0.05651671
126	0xbd4b4d01	-0.049633984
127	0x3d9badfd	0.07601545

bn1.module.running_var f4 [128]
0	0x3a26f8bf	0.00063694635
1	0x3ae6318a	0.0017562371
2	0x3a0c8aa6	0.00053612364
3	0x3bc4b3b0	0.0060028657
4	0x3c1fe4bd	0.009759125
5	0x3b8294dc	0.0039850306
6	0x3bf4ed2d	0.0074745626
7	0x3bc71900	0.0060759783
8	0x3b401dfc	0.0029314747
9	0x3b4e91fb	0.0031520117
10	0x3b210516	0.0024569682
11	0x3a16a91f	0.0005747247
12	0x3a1a6d9c	0.0005890967
13	0x3a532358	0.0008054278
14	0x3bbc7714	0.0057515
15	0x3cdf3348	0.027246132
16	0x3b522c9c	0.0032070046
17	0x3b5e0656	0.0033878288
18	0x3a8cc674	0.0010740296
19	0x3994b77f	0.00028365475
20	0x3af3b8f7	0.0018594553
21	0x3b19a3b5	0.0023443524
22	0x3bd3784f	0.006453551
23	0x3b9ac08a	0.0047226595
24	0x3a3363c6	0.00068431755
25	0x3b9ddc8d	0.0048175515
26	0x3c916d49	0.017752307
27	0x3ba866d7	0.0051392126
28	0x3a7b2eb9	0.00095818524
29	0x3a2f7176	0.0006692627
30	0x3abfc480	0.0014630705
31	0x3a999735	0.0011718037
32	0x3b9717cc	0.004610991
33	0x3b91c08c	0.004448002
34	0x3c9f10f2	0.01941726
35	0x3b0b1d78	0.0021227282
36	0x3c2a5bf7	0.010397903
37	0x3c18d9be	0.0093292575
38	0x3c46daf4	0.012137163
39	0x3a13abde	0.0005633215
40	0x3b4f3026	0.0031614392
41	0x3b8e00d1	0.0043335934
42	0x3bd0aaa1	0.006367997
43	0x3c3e4491	0.011613027
44	0x3bac54d2	0.005259135
45	0x3a9eab51	0.00121055
46	0x3a9d65c6	0.001200848
47	0x3c6c165f	0.014409631
48	0x3ab026d0	0.0013439301
49	0x3b0c3abf	0.002139732
50	0x3b5e8d8e	0.0033958885
51	0x3a74467c	0.00093183643
52	0x3a6af0b3	0.00089622586
53	0x3b2b4d6f	0.0026138683
54	0x3c41920c	0.011814605
55	0x390f95e6	0.00013693384
56	0x3aa96034	0.0012922348
57	0x3b0bc844	0.0021329084
58	0x3acb9708	0.0015532682
59	0x3a241251	0.0006258833
60	0x3b3356dd	0.0027365007
61	0x3c02dd72	0.007987367
62	0x3c6a72ef	0.014309629
63	0x3badd263	0.005304621
64	0x3b203250	0.002444405
65	0x3ab106fb	0.0013506109
66	0x3b57115e	0.0032816748
67	0x3a7750ad	0.0009434324
68	0x3c11b86e	0.008894069
69	0x38ef991e	0.000114249284
70	0x3b872c70	0.0041251704
71	0x3b7f63db	0.003896943
72	0x3ae45d70	0.0017422866
73	0x3bbb9358	0.005724352
74	0x3b1ecf0a	0.0024232292
75	0x396713a9	0.000220372
76	0x3b861113	0.004091391
77	0x3b542e82	0.0032376354
78	0x3bae6eb3	0.005323255
79	0x3bfc2034	0.0076942686
80	0x3ad9a2e7	0.0016604335
81	0x3b25f629	0.0025323725
82	0x3a5eafc5	0.00084948196
83	0x3a098611	0.00052461127
84	0x3b506169	0.0031796342
85	0x3a45232a	0.00075201935
86	0x3b7f4b0d	0.0038954646
87	0x3a31dce4	0.00067849294
88	0x3be23e91	0.006904431
89	0x3b38ed15	0.0028217484
90	0x3c1d8edf	0.009616583
91	0x3ab5c183	0.0013866875
92	0x3c59c3bf	0.013291298
93	0x3bb359f0	0.005473368
94	0x3a90ebbe	0.0011056585
95	0x3a8756eb	0.0010325586
96	0x3c2b0229	0.010437527
97	0x3ad99afd	0.0016601976
98	0x3bc9c04b	0.0061569563
99	0x394f4a16	0.00019768658
100	0x39e7ac0f	0.00044187947
101	0x3c27c46a	0.0102397
102	0x3b9b81f1	0.004745715
103	0x3a98fb29	0.0011671531
104	0x39193260	0.00014609983
105	0x39d599f2	0.00040741224
106	0x3b9a9ac5	0.004718157
107	0x3a8ff84d	0.0010984034
108	0x3c803b2e	0.01565322
109	0x3c52a8f4	0.012857664
110	0x3ab1b198	0.0013556955
111	0x3b4c1dfb	0.00311458
112	0x3c3af9ee	0.011412127
113	0x3aab8bc8	0.0013087923
114	0x3bb051d5	0.005380849
115	0x3aca5a56	0.0015438299
116	0x3c81be5e	0.015837844
117	0x3ac2ca73	0.001486136
118	0x3c2f1a2e	0.010687394
119	0x3b6d657f	0.0036223826
120	0x3b92110a	0.0044575976
121	0x3bdc12ab	0.0067160926
122	0x3b724ac1	0.0036970826
123	0x3be2344d	0.0069032074
124	0x3bb25a27	0.005442876
125	0x3b563b24	0.003268906
126	0x3acb439f	0.0015507824
127	0x3aab9dd5	0.0013093302

conv2.bias f4 [128]
0	0xb9f7deb2	-0.00047277432
1	0x3a0a2f9e	0.0005271378
2	0x3bdac410	0.0066762045
3	0xbb160661	-0.0022891986
4	0x3a6d306d	0.00090480485
5	0xbacb63a5	-0.0015517367
6	0x3b8e3161	0.0043393825
7	0x3c1420a8	0.009040989
8	0x3baf3b2f	0.0053476314
9	0x3bd9c657	0.0066459584
10	0xbc1e91d7	-0.009678326
11	0xbb5ad912	-0.0033393544
12	0x3b5571b4	0.0032568993
13	0x3b30440e	0.0026896033
14	0xb9e8b9c0	-0.00044388883
15	0x3abddebe	0.0014485938
16	0x3c126ecc	0.008937549
17	0x3bc660d2	0.0060540223
18	0x3b0561bc	0.0020352444
19	0xbb30c5da	-0.0026973397
20	0x3c165847	0.00917632
21	0x3c51560e	0.012776865
22	0xb82784a8	-3.993945e-05
23	0xbb98ca6a	-0.0046628015
24	0x3aaf32c6	0.0013366572
25	0xbb855753	-0.0040692477
26	0xbb685969	-0.0035453683
27	0x3bfaf4d7	0.0076585817
28	0x3b5f1957	0.0034042203
29	0x3ba73f6f	0.0051039974
30	0xbb2eff62	-0.0026702513
31	0xbad76a99	-0.0016434967
32	0xbb1493f3	-0.0022671192
33	0x3b86f50c	0.0041185673
34	0xb9fd96ec	-0.00048368366
35	0x3b84d7f8	0.004054066
36	0x3aa4bd9f	0.0012568719
37	0xbb173090	-0.0023069717
38	0xbb141542	-0.0022595678
39	0xba316d9a	-0.0006768346
40	0xbafc2594	-0.0019237273
41	0x3b88c6fc	0.0041741114
42	0x3b5e952e	0.003396343
43	0x3c4ec38f	0.012619867
44	0xba21e853	-0.00061762816
45	0xbb98836d	-0.004654339
46	0xbb891125	-0.004182952
47	0xbb1a746a	-0.0023567923
48	0x3bd8b75d	0.0066136555
49	0x3c0785d0	0.0082716495
50	0xbadfd790	-0.0017077792
51	0x3b16b3de	0.0022995393
52	0xbbebe14c	-0.0071984883
53	0xbc0d87c8	-0.00863833
54	0x3b7a10ed	0.0038157061
55	0xba4b24c9	-0.0007749317
56	0x3be1af9a	0.0068873884
57	0x3a99b940	0.0011728182
58	0xbb2344a7	-0.0024912746
59	0x3aeff458	0.0018307073
60	0x3c228ad9	0.009920799
61	0xba55ca16	-0.00081554183
62	0x39632a4e	0.00021664167
63	0xbba56cad	-0.0050483556
64	0xbc1f3235	-0.00971656
65	0x3bd7ecae	0.0065894937
66	0xbb4f66ab	-0.0031646888
67	0x39a93926	0.0003227677
68	0xbb6f08f8	-0.0036473852
69	0xbb927e50	-0.004470624
70	0xba5dc8e4	-0.0008460416
71	0x3a679dce	0.00088354654
72	0xbb4df140	-0.0031424314
73	0x3a5cd5fc	0.000842422
74	0xbae263b3	-0.0017272144
75	0x3a20f9ba	0.0006140728
76	0x3ba57b36	0.0050500883
77	0x3bebf65f	0.0072010006
78	0x3b49767c	0.0030740788
79	0x3ac33ed7	0.0014896047
80	0x3a4fc919	0.0007926389
81	0x3a836037	0.0010023181
82	0xbb0a7d5f	-0.0021131856
83	0x39c87a2a	0.00038237992
84	0xbbc32b21	-0.005956069
85	0x39a8c03c	0.00032186683
86	0xbb57c46a	-0.0032923468
87	0x39e2d8c0	0.0004326757
88	0x3aa97cc5	0.0012930861
89	0xb976b5dd	-0.00023528138
90	0xbb607a2e	-0.0034252512
91	0x3bc71bff	0.0060763354
92	0xbad54dcf	-0.0016273799
93	0xbaf46892	-0.0018646887
94	0x38c28ceb	9.276889e-05
95	0xbb0f5887	-0.0021872835
96	0x3b1b9ad1	0.00237434
97	0xbb84d8e8	-0.0040541776
98	0xbaf30b84	-0.0018542861
99	0xbaeece10	-0.001821937
100	0x3b19e6c3	0.0023483492
101	0xbbc390be	-0.0059681823
102	0xbbb792b2	-0.0056022042
103	0xbb5337f3	-0.0032229393
104	0x3bd39bda	0.006457788
105	0xbc33211f	-0.01093319
106	0xbb86e83f	-0.0041170414
107	0x3c12a89b	0.0089513315
108	0xbb6136b2	-0.0034364876
109	0x3b6a78cb	0.0035777565
110	0x3a699d24	0.00089116604
111	0xbb42d219	-0.0029727279
112	0xba9f2aa1	-0.0012143442
113	0x3b0e9664	0.002175712
114	0xba51b635	-0.0007999868
115	0xbb072265	-0.0020619866
116	0xb9b5cb4f	-0.00034674487
117	0x3c0f37e7	0.0087413555
118	0xbb0b1f2e	-0.0021228301
119	0x3af7e630	0.0018913206
120	0x3b082384	0.0020773122
121	0x3a561ff3	0.0008168213
122	0xba93b61f	-0.0011269486
123	0x3aefb463	0.0018288012
124	0x3b5abc8e	0.0033376548
125	0x3c0777b2	0.008268284
126	0x39aee24c	0.0003335647
127	0x3b3be5ec	0.002867098

conv2.lin.weight f4 [128, 128]
0	0x3df64a27	0.12025862
1	0xbdf60737	-0.12013095
2	0x3e15fe8b	0.14647882
3	0x3db7c36d	0.089728214
4	0xbdc00f84	-0.09377959
5	0xbd7765c5	-0.06039979
6	0x3ae5118c	0.0017476543
7	0xbd822c06	-0.06356053
8	0x3d8a9941	0.06767512
9	0xbdf9aaa9	-0.12190754
10	0xbd82e375	-0.0639104
11	0x3e0c1518	0.13679922
12	0x3d9a2ab6	0.07527678
13	0xbd56fcab	-0.052487057
14	0x3d5693fe	0.05238723
15	0x3d486469	0.048923884
16	0x3e0b564f	0.13607143
17	0x3c273ad7	0.0102069
18	0x3d92167d	0.071331955
19	0x3df15a21	0.11784769
20	0xbde81a51	-0.113331445
21	0xbdb76f30	-0.08956754
22	0xbd1bbde8	-0.038022906
23	0x3d3eff43	0.046630155
24	0xbc2afd4a	-0.010436365
25	0x3e18937b	0.1490001
26	0xbd138440	-0.036014795
27	0xbc6862e8	-0.014183737
28	0x3e0523fe	0.13002011
29	0xbde1a63e	-0.11018036
30	0xbc93150f	-0.017954377
31	0x3ce4f3a7	0.027948214
32	0x3e48f924	0.1962629
33	0x3dad4d30	0.08461988
34	0x3e0fb0d9	0.14032306
35	0x3d8e48ef	0.06947505
36	0xbe0d080f	-0.13772605
37	0xbca18e7e	-0.019721266
38	0x3d9ad973	0.075610064
39	0x3c205ddd	0.009788004
40	0x3bded613	0.006800422
41	0x3dcefe50	0.101071
42	0xbb9089c2	-0.0044109533
43	0xbcd17a17	-0.025570912
44	0xbd7c96e3	-0.061667334
45	0xbda6a650	-0.0813719
46	0xbca97163	-0.02068395
47	0x3e13523a	0.14386836
48	0x3c9f574f	0.019450812
49	0xbd8703ff	-0.06592559
50	0x3e059dbc	0.13048452
51	0xbe019b7d	-0.1265697
52	0x3d8ee6ec	0.069776386
53	0x3d4f04c2	0.050541647
54	0xbd92f319	-0.071752734
55	0x3dc12ce9	0.09432394
56	0xbdbc1919	-0.091844745
57	0x3dcf85b1	0.101329215
58	0x3d9ebfc4	0.0775142
59	0xbca6d033	-0.020362949
60	0x3db3af75	0.087737
61	0xbdfc72b8	-0.12326568
62	0x3d830fa4	0.063994676
63	0x3decb12c	0.1155723
64	0xbe632b38	-0.22184455
65	0xbdd24b46	-0.102682635
66	0x3daa8d69	0.08327753
67	0x3d3efeaf	0.046629604
68	0xbe21f50f	-0.15816139
69	0x3cac59a4	0.021038838
70	0x3dab8ea0	0.08376813
71	0xbd1287e3	-0.035774123
72	0xbd60efda	-0.05491624
73	0x3def80fc	0.11694524
74	0x3e336d68	0.17522204
75	0x3ddbb4a7	0.10727816
76	0x3de70ecf	0.112821214
77	0x3d2fe7f0	0.042945802
78	0x3ddc6cc7	0.10762935
79	0x3dfe6106	0.124208495
80	0xbe04d2bf	-0.12971018
81	0xbc1725b4	-0.009225298
82	0xbdf32f81	-0.11874295
83	0xbdb92275	-0.09039775
84	0xbd5efbdb	-0.054439407
85	0xbd91176b	-0.07084545
86	0x3ced01e0	0.028931558
87	0x3dcb00fd	0.09912298
88	0x3db86515	0.09003655
89	0x3dae2929	0.085039444
90	0xbe049c2a	-0.12950197
91	0x3d53f9d0	0.05175191
92	0xbd0d72cb	-0.034533303
93	0xbdad9e68	-0.08477479
94	0xbde5021c	-0.11182043
95	0x3dadc0d1	0.084840424
96	0xbd59e6dd	-0.053198684
97	0xbc0043f1	-0.0078286985
98	0x3daafdc6	0.08349185
99	0xbcd2d366	-0.025735568
100	0xbc0cfc16	-0.008605024
101	0xbda0ed9d	-0.07857821
102	0x3c3e0405	0.011597638
103	0x3dc3fd9a	0.09569855
104	0xbd317d4a	-0.043332376
105	0xbd2b5b35	-0.04183503
106	0x3dbdd84d	0.09269772
107	0x3d40e8cb	0.04709701
108	0x3d41a169	0.047273073
109	0xbe06b30d	-0.1315424
110	0x3d726274	0.059175923
111	0x3e0bfddd	0.1367106
112	0xbaa50815	-0.001259091
113	0x3e004b82	0.12528804
114	0x3c0384b2	0.0080272425
115	0x3b6bcb07	0.0035979168
116	0x3de1832f	0.110113494
117	0x3cdd37b9	0.02700411
118	0x3dcb2b73	0.09920397
119	0xbcf1a0f9	-0.029495703
120	0x3ce3a259	0.027787374
121	0x3cdbd86b	0.026836595
122	0xbc014935	-0.007890989
123	0xbcaa5864	-0.020794101
124	0xbdcb8869	-0.099381275
125	0xbdbe255c	-0.092844695
126	0xbdc1eeb0	-0.09469354
127	0xbdcd515b	-0.10025283
128	0x3dac0a3d	0.0840039
129	0xbdcee232	-0.10101737
130	0xbcfdd71f	-0.030986367
131	0x3c5d1d6e	0.013495786
132	0x3cf83fa9	0.030303793
133	0x3dab2075	0.083558
134	0x3d96cc98	0.07363242
135	0x3dc38dc3	0.09548523
136	0x3d3136cc	0.04326515
137	0xbde2e3c1	-0.11078597
138	0x3dbcc3cc	0.09217033
139	0x3cda64fa	0.026659478
140	0xbcc1cf7a	-0.023658503
141	0x3e262d74	0.16228276
142	0x3d24577d	0.040122498
143	0xbdabe04f	-0.08392393
144	0x3cee79fe	0.029110905
145	0x3d0e3b76	0.034724675
146	0x3e007cd7	0.12547623
147	0x3da38925	0.079851426
148	0xbe330a3c	-0.17484373
149	0xbdc98671	-0.09840096
150	0xbd25f886	-0.040520214
151	0xbd04057f	-0.032231804
152	0x3dd87c3e	0.10570572
153	0xbd9d6aca	-0.07686384
154	0xbd1fdca6	-0.039028786
155	0x3ccddacc	0.025128745
156	0x3d252a54	0.04032357
157	0x3e0cff96	0.13769373
158	0xbdba44f4	-0.09095183
159	0xbd8b10fc	-0.06790349
160	0xbb3fd977	-0.0029273906
161	0xbdee5a47	-0.11638313
162	0xbd9c1b7d	-0.076224305
163	0x3cf69540	0.030100465
164	0x3e110f40	0.14165974
165	0x3d49bc70	0.049251974
166	0x3da91f9e	0.082579836
167	0xbdd93289	-0.10605342
168	0xbdda3d74	-0.106562525
169	0x3d7d2bff	0.061809536
170	0xbc8d11fd	-0.017220492
171	0xbc196faf	-0.009365006
172	0x3daa0156	0.08301036
173	0xbe1af2a2	-0.1513162
174	0xbdf1c2ff	-0.11804771
175	0x3ce8f630	0.028437704
176	0x3e257f99	0.16161956
177	0xbca99747	-0.020702017
178	0x3dd5460a	0.104137495
179	0x3db0871b	0.08619519
180	0xbe18c402	-0.14918521
181	0xbd904d36	-0.07045977
182	0xbdd61f20	-0.104551554
183	0xbe2e69d7	-0.17032562
184	0xbd70ea54	-0.058817223
185	0xbc125058	-0.008930288
186	0xbe01073b	-0.12600414
187	0xbd808eba	-0.06277223
188	0xbe0e471e	-0.13894317
189	0x3da1d3af	0.079017036
190	0xbcab29ae	-0.020893898
191	0xbda1404a	-0.0787359
192	0xbd6e058a	-0.05811075
193	0x3dbe34d7	0.09287422
194	0x3e176f08	0.14788449
195	0xbdcf7634	-0.10129967
196	0xbd757a14	-0.059930876
197	0xbc15b8ad	-0.009138268
198	0xbcc142f8	-0.023591504
199	0xbd8fdaa4	-0.07024124
200	0xbdbd5235	-0.09244195
201	0xbd32c79f	-0.043647405
202	0xbc818408	-0.015810028
203	0xbd207c6d	-0.03918116
204	0xbbaa3c89	-0.0051952046
205	0x3d45a9a7	0.048257496
206	0x3de01a8f	0.10942566
207	0x3d76705b	0.060165744
208	0xbda8c49a	-0.08240624
209	0xbe09f17a	-0.13471022
210	0x3ca21f87	0.019790424
211	0xbd6ec334	-0.05829163
212	0x3e1c136f	0.15241788
213	0xbdc7949b	-0.09745141
214	0x3cd0af69	0.025474267
215	0x3d84fa20	0.0649302
216	0xbd873d05	-0.066034354
217	0x3e1322c9	0.14368738
218	0x3da706ad	0.0815557
219	0x3d1522f6	0.036410294
220	0xbd626d36	-0.055279933
221	0x3e2be5c3	0.16786866
222	0xbd939528	-0.07206184
223	0x3e0237b2	0.12716559
224	0xbdab04df	-0.083505385
225	0xbdb710ff	-0.089387886
226	0xbd8c61d4	-0.06854597
227	0x3dedc99c	0.116107196
228	0xbdb140da	-0.086549476
229	0xbc93cba5	-0.018041441
230	0xbb5ccb26	-0.0033690422
231	0x3cd16873	0.0255625
232	0x3cfd2488	0.030901209
233	0xbd1f3dab	-0.03887717
234	0xbdb2eab0	-0.08736169
235	0x3db2a24c	0.08722362
236	0xbd5a1a30	-0.05324763
237	0xbd8058ea	-0.06266959
238	0x3d0a00b5	0.03369208
239	0xbd103437	-0.035206046
240	0x3d285564	0.04109706
241	0x3de38bc4	0.111106426
242	0x3db9c507	0.09070783
243	0x3dcb08c6	0.09913783
244	0x3d9478f1	0.0724963
245	0xbc0109f3	-0.007875907
246	0xbdd9bc90	-0.106316686
247	0xbc8720b8	-0.016495094
248	0xbb02e467	-0.0019972564
249	0x3e02fc0d	0.12791462
250	0x3e332b06	0.17496881
251	0x3ddb6bb2	0.107139006
252	0xbdf9d6de	-0.12199186
253	0x3e169381	0.14704706
254	0xbc97269f	-0.018451033
255	0x3d4a6df8	0.04942128

bn2.module.weight f4 [128]
0	0x3f8b95ff	1.090515
1	0x3f84b614	1.0368066
2	0x3f7162f4	0.94291615
3	0x3f83da67	1.0301026
4	0x3f7007e4	0.9376204
5	0x3f77ecbc	0.96845603
6	0x3f86d62a	1.0534108
7	0x3f74cb17	0.9562239
8	0x3f7e8c62	0.9943296
9	0x3f81be0b	1.0136122
10	0x3f721263	0.94559306
11	0x3f87be0a	1.060487
12	0x3f85d08d	1.045427
13	0x3f785112	0.96998703
14	0x3f7ecd0b	0.9953162
15	0x3f829b73	1.0203689
16	0x3f80a042	1.0048907
17	0x3f879f32	1.0595458
18	0x3f797f34	0.9745972
19	0x3f898fb4	1.074698
20	0x3f7adbd7	0.979917
21	0x3f822e95	1.0170466
22	0x3f788045	0.97070724
23	0x3f7e9039	0.99438816
24	0x3f8ba438	1.090949
25	0x3f7a11fa	0.9768368
26	0x3f89b8d4	1.075953
27	0x3f75a3b4	0.95952916
28	0x3f771eef	0.96531576
29	0x3f77f371	0.9685584
30	0x3f864a25	1.0491377
31	0x3f790a5a	0.9728142
32	0x3f7a9d21	0.9789601
33	0x3f840de4	1.0316739
34	0x3f8b9153	1.0903724
35	0x3f7bb699	0.98325497
36	0x3f75e966	0.9605926
37	0x3f797396	0.97441995
38	0x3f84a07a	1.0361474
39	0x3f743538	0.95393705
40	0x3f820c9b	1.0160097
41	0x3f78b0d2	0.97144806
42	0x3f842a05	1.0325323
43	0x3f75da0b	0.9603583
44	0x3f70d22a	0.94070685
45	0x3f7727aa	0.965449
46	0x3f83c2ad	1.0293785
47	0x3f842699	1.0324279
48	0x3f841675	1.0319353
49	0x3f71c245	0.94437057
50	0x3f69892a	0.9122492
51	0x3f86941b	1.0513948
52	0x3f7fe771	0.99962527
53	0x3f7fa643	0.9986307
54	0x3f83b15a	1.0288498
55	0x3f8896ba	1.0670998
56	0x3f7d70ba	0.9900013
57	0x3f81b332	1.0132811
58	0x3f782b73	0.969413
59	0x3f845b26	1.0340316
60	0x3f77c3e7	0.967833
61	0x3f868ae9	1.0511142
62	0x3f797f2b	0.9745967
63	0x3f6b65a7	0.91951984
64	0x3f7a2408	0.9771123
65	0x3f7c1f4b	0.9848525
66	0x3f808a81	1.0042268
67	0x3f813ff6	1.0097644
68	0x3f794e65	0.97385246
69	0x3f74e6d2	0.95664704
70	0x3f6be6a9	0.92148834
71	0x3f766dde	0.96261394
72	0x3f883cb0	1.064352
73	0x3f801a60	1.0008049
74	0x3f6e8494	0.9317105
75	0x3f7e598f	0.99355406
76	0x3f869989	1.0515605
77	0x3f8668d8	1.0500746
78	0x3f792927	0.9732842
79	0x3f83f14d	1.0308014
80	0x3f86223b	1.0479196
81	0x3f82fe95	1.0233942
82	0x3f808ad2	1.0042365
83	0x3f7dcb87	0.99138683
84	0x3f7fca59	0.99918133
85	0x3f7cbe85	0.9872821
86	0x3f81a920	1.0129738
87	0x3f800d8e	1.0004137
88	0x3f8b04f7	1.086089
89	0x3f7679a2	0.96279347
90	0x3f811ff9	1.0087882
91	0x3f780e5d	0.96896917
92	0x3f6f5eca	0.9350401
93	0x3f85266a	1.0402348
94	0x3f763dbb	0.96187943
95	0x3f84a32d	1.0362297
96	0x3f85d567	1.045575
97	0x3f826a67	1.0188721
98	0x3f8acada	1.0843155
99	0x3f802bf1	1.001341
100	0x3f76ab42	0.9635507
101	0x3f7c0344	0.9844248
102	0x3f7c0796	0.98449075
103	0x3f8603dc	1.0469928
104	0x3f70c8be	0.9405631
105	0x3f857952	1.0427649
106	0x3f8852b3	1.0650238
107	0x3f75676d	0.9586094
108	0x3f806492	1.0030692
109	0x3f8235fd	1.0172726
110	0x3f81101c	1.0083041
111	0x3f849797	1.0358762
112	0x3f75f9e1	0.9608441
113	0x3f78035a	0.96880114
114	0x3f779b42	0.9672128
115	0x3f820c9a	1.0160096
116	0x3f7e107a	0.9924389
117	0x3f72c525	0.9483207
118	0x3f77b303	0.96757525
119	0x3f719b5a	0.9437767
120	0x3f743c56	0.95404565
121	0x3f882cfc	1.0638728
122	0x3f7a0da4	0.97677064
123	0x3f836524	1.0265241
124	0x3f81a5f1	1.0128766
125	0x3f80bd8f	1.0057849
126	0x3f6cf03f	0.92554086
127	0x3f809909	1.0046703

bn2.module.bias f4 [128]
0	0x3d889d43	0.0667062
1	0x3c9e9ae5	0.019360969
2	0xbd4a918b	-0.049455207
3	0xbb7ae629	-0.0038284159
4	0xbd891119	-0.06692714
5	0xbca9c9b5	-0.020726064
6	0x3cc7b67e	0.024379011
7	0xbc8dd96f	-0.017315594
8	0x3b03c7b3	0.0020108044
9	0xbd04691e	-0.03232681
10	0xbd5af381	-0.05345488
11	0x3c4eed35	0.012629797
12	0x3d029118	0.031876653
13	0xbd7cb4f2	-0.061696
14	0xbcbd05ec	-0.023074113
15	0xbc8de388	-0.01732041
16	0x3c5426b9	0.012948685
17	0x3c4952e6	0.012287831
18	0xbbd72f16	-0.0065668924
19	0x3d137008	0.035995513
20	0x3c6e48b0	0.014543697
21	0x3c8d5bfa	0.017255772
22	0xbd7b63be	-0.06137442
23	0xbb5970c8	-0.0033178795
24	0x3d09f060	0.033676505
25	0xbd0ba336	-0.034091197
26	0x3d616ef5	0.055037457
27	0xbd36b395	-0.044604857
28	0xbd108b5b	-0.03528915
29	0xbd29a0c5	-0.041413087
30	0xbd024955	-0.031808216
31	0xbd16f3ed	-0.03685372
32	0xbd110bb0	-0.035411537
33	0x3cef7581	0.029230835
34	0x3cb036ff	0.0215106
35	0xbd5cec9f	-0.053936597
36	0xbd5c8982	-0.053842075
37	0xbd00b425	-0.0314218
38	0x3ca141d7	0.019684715
39	0xbd6f2e15	-0.058393557
40	0xbb4cf5cd	-0.0031274438
41	0xbd02f4eb	-0.031971853
42	0x3cc498a7	0.023998572
43	0xbd82401c	-0.06359884
44	0xbd24eca5	-0.040264744
45	0xbd0aeae7	-0.033915427
46	0x3c526af1	0.01284288
47	0x3c8ee107	0.017441286
48	0xbc7c9c1e	-0.015418081
49	0xbd763427	-0.06010833
50	0xbdd3bc5b	-0.1033866
51	0x3cc99cc9	0.024610894
52	0x3c509b92	0.012732403
53	0x3bec20df	0.007206067
54	0xbbafb027	-0.005361575
55	0x3ca8951a	0.02057891
56	0x3b6fa411	0.0036566297
57	0x3c61177f	0.013738512
58	0xbc957937	-0.018246276
59	0xbcaa8cf0	-0.020819157
60	0xbd3fda95	-0.046839315
61	0x3d3946e2	0.045233615
62	0xbd1f2351	-0.03885204
63	0xbd7821ad	-0.06057899
64	0xbc9adb4e	-0.0189034
65	0xbd1a594b	-0.037682813
66	0x3b54660c	0.0032409457
67	0xbc88d95e	-0.016705211
68	0x3a912083	0.0011072311
69	0xbd99398a	-0.07481678
70	0xbcbd0703	-0.023074633
71	0xbd2df4fa	-0.042469956
72	0x3d47f6c0	0.048819304
73	0x3c8e76ca	0.017390627
74	0xbd739744	-0.05947043
75	0xbc86e97c	-0.016468756
76	0x3acb6576	0.0015517909
77	0xbcac66a0	-0.02104503
78	0xbd3c3979	-0.045953248
79	0xbc7aa74b	-0.015298675
80	0x3cc086c9	0.02350177
81	0xbb2e9779	-0.0026640578
82	0xbccc3384	-0.024926908
83	0x3bc2b7e2	0.0059423307
84	0x3c5e031b	0.013550545
85	0x3bdfc2f8	0.006828662
86	0xbbdbd7f9	-0.0067090956
87	0x3c9a0574	0.018801428
88	0x3d2f41e1	0.042787436
89	0xbd4a060e	-0.04932218
90	0x3c4dc392	0.012558835
91	0xbd010d56	-0.03150686
92	0xbd533905	-0.05156805
93	0x3d1431d3	0.03618033
94	0xbcdf000f	-0.027221708
95	0x3c74b22c	0.014935058
96	0x3cbb3709	0.022853391
97	0x3cdf3f04	0.027251728
98	0x3c9f4a5f	0.019444643
99	0xbbf124cd	-0.0073591233
100	0xbd12b3f5	-0.03581615
101	0xbd8aaf3d	-0.06771705
102	0xbc3626ef	-0.011117681
103	0x3c8220d6	0.015884798
104	0xbd7e972a	-0.06215588
105	0x3bcb6def	0.0062081735
106	0x3d3ccb4b	0.046092313
107	0xbd8a9884	-0.06767371
108	0xbbc1703f	-0.0059032734
109	0x3ccc2144	0.024918206
110	0xbca011ac	-0.019539677
111	0x3c3d7a71	0.011564837
112	0xbd62000c	-0.055175826
113	0xbce36bf2	-0.027761433
114	0x3cc7a596	0.02437095
115	0xbcaa2bfa	-0.020772923
116	0xbcb253ef	-0.021768538
117	0xbd6c9907	-0.057763126
118	0xbce7ce7b	-0.0282967
119	0xbc96b6b3	-0.018397665
120	0xbdb5c4f8	-0.088754594
121	0x3d356b29	0.04429165
122	0xbd43630f	-0.04770189
123	0xbc5576c3	-0.013028803
124	0x3c9d8dac	0.019232593
125	0xbb3e4d73	-0.0029037863
126	0xbd9fbabe	-0.0779929
127	0xbcac6a4c	-0.02104678

bn2.module.running_mean f4 [128]
0	0x3ee3cb99	0.4449127
1	0x3d84eea5	0.0649083
2	0xbf4c4259	-0.7978874
3	0x3e92f3c9	0.28701618
4	0xbf3410e3	-0.7033827
5	0x3e9030d2	0.28162247
6	0x3ecc4e7f	0.39903638
7	0xbef6803e	-0.48144716
8	0x3e3ad1ac	0.18244046
9	0x3ec1d21d	0.37855616
10	0x3f124fae	0.5715283
11	0x3d709c99	0.058743093
12	0x3e4e792f	0.20163415
13	0x3d909f2a	0.07061608
14	0xbe9598bf	-0.292181
15	0xbd8423b9	-0.06452126
16	0xbef5557e	-0.47916788
17	0x3f1aeed6	0.60520685
18	0xbd8f9be0	-0.07012153
19	0x3e7501d6	0.23926482
20	0xbef11b94	-0.47091353
21	0x3f007a10	0.5018625
22	0xbddc628a	-0.10760982
23	0xbd1ea020	-0.038726926
24	0x3ee8a81e	0.45440763
25	0xbe323c48	-0.17405808
26	0x3d8db92f	0.069200866
27	0xbee75068	-0.45178533
28	0xbf1d26ec	-0.61387515
29	0xbdf061ad	-0.1173738
30	0x3f323606	0.69613683
31	0x3ea9884d	0.33111802
32	0xbead2471	-0.33816865
33	0xbe8a7b73	-0.2704731
34	0x3e42a35f	0.19007634
35	0xbeb75123	-0.3580409
36	0x3f4926fb	0.78575104
37	0x3e733d1e	0.23753783
38	0xbcfffee2	-0.031249467
39	0x3f01cb21	0.50700575
40	0xbe93c609	-0.28862026
41	0xbc2687c5	-0.010164206
42	0xbe7fc339	-0.24976815
43	0xbf079274	-0.52957845
44	0x3ed1ae1d	0.4095315
45	0xbcb928a9	-0.022602396
46	0x3dc3fe62	0.09570004
47	0x3eb12aa2	0.3460284
48	0x3ef4da79	0.4782293
49	0xbf534f60	-0.8254299
50	0xbf0f7e8b	-0.56052464
51	0x3e97ffda	0.29687387
52	0xbe92de27	-0.28685114
53	0xbf6f1bef	-0.93402
54	0x3eb6f19a	0.35731202
55	0x3e71e9d7	0.23624359
56	0xbe72c6cb	-0.23708646
57	0xbe205bfe	-0.15660092
58	0xbdc93dbc	-0.09826228
59	0x3e9efabb	0.31050667
60	0xbed0b168	-0.4076035
61	0x3e9bb2d6	0.30409878
62	0xbe5f5235	-0.21808703
63	0xbf1be402	-0.6089479
64	0xbeabcf0f	-0.3355641
65	0xbf43bb91	-0.7645808
66	0xbeac24e6	-0.336219
67	0x3eea0215	0.45704713
68	0xbf475f3a	-0.7787968
69	0xbe638175	-0.22217353
70	0x3d7de73e	0.061988108
71	0x3e15ba1c	0.14621776
72	0xbde64d09	-0.11245162
73	0xbe99aebb	-0.3001612
74	0x3df2b742	0.1185136
75	0x3ec7252b	0.38895544
76	0xbdd3389c	-0.10313532
77	0x3e91f62d	0.2850813
78	0xbf16a414	-0.58844113
79	0xbd825f1d	-0.06365798
80	0xbcecfbc8	-0.028928652
81	0xbe392e76	-0.1808413
82	0x3ef53c0b	0.47897372
83	0xbf10f7ac	-0.5662792
84	0xbea005ba	-0.3125437
85	0xbe0c5bfe	-0.13706967
86	0x3d2232e6	0.03959932
87	0xbd21c278	-0.0394921
88	0x3ed18197	0.40919182
89	0xbe5d66f7	-0.21621309
90	0xbe24e5ae	-0.16103241
91	0xbf006b5c	-0.5016382
92	0xbedb10c2	-0.42786223
93	0xbc0aa822	-0.008462938
94	0x3e4b0307	0.19825374
95	0x3e6417c9	0.22274698
96	0x3e1247ef	0.14285253
97	0x3e05cd73	0.13066654
98	0xbf000b71	-0.5001746
99	0x3d949c15	0.07256333
100	0xbf35d263	-0.7102415
101	0xbf476277	-0.7788462
102	0xbebdcd21	-0.37070563
103	0xbecf5245	-0.40492454
104	0xbf4f8412	-0.810609
105	0xbe1a9429	-0.15095581
106	0xbda460e1	-0.08026291
107	0xbf697840	-0.9119911
108	0x3d901dcd	0.07036934
109	0x3e89fdfe	0.26951593
110	0xbd38fe09	-0.04516414
111	0x3e112412	0.14173916
112	0x3e02742f	0.12739633
113	0xbf6b866c	-0.92001987
114	0xbf4d4489	-0.801827
115	0xbdf4b168	-0.119479
116	0x3e423776	0.18966469
117	0x3c383a88	0.011244424
118	0xbf59da0f	-0.85098356
119	0xbe993e2b	-0.29930243
120	0x3f44e596	0.7691282
121	0x3f2c7a70	0.67374325
122	0xbf20678a	-0.6265799
123	0x3d3e2d48	0.046429902
124	0xbf40296e	-0.75063217
125	0xbf147253	-0.57986945
126	0x3de6f056	0.11276309
127	0xbe69fc51	-0.22850157

bn2.module.running_var f4 [128]
0	0x3f22af2d	0.6354855
1	0x3fb9b4a3	1.4508251
2	0x40057c31	2.085705
3	0x4011e141	2.2793734
4	0x405e26de	3.4711223
5	0x4044ac64	3.073022
6	0x404a4a4f	3.1607854
7	0x4046642a	3.0998635
8	0x3f661677	0.8987803
9	0x3fb7b4e1	1.4352075
10	0x3ff45d3c	1.9090953
11	0x405695d2	3.3528943
12	0x4012d302	2.294129
13	0x3f102bc9	0.5631681
14	0x3e030de9	0.12798275
15	0x3f97e0d0	1.1865482
16	0x3ff3c6d7	1.9045056
17	0x401c51b2	2.4424863
18	0x402ee340	2.7326202
19	0x3f5e109e	0.86744106
20	0x402a225f	2.6583478
21	0x3d9ffa71	0.0781144
22	0x3df1cb61	0.118063696
23	0x4022f7d3	2.546376
24	0x4077834d	3.867389
25	0x3f8b20b8	1.086936
26	0x3fca856b	1.5821966
27	0x400ac518	2.1682796
28	0x4030740f	2.7570837
29	0x3fbcf6dc	1.4762836
30	0x4030b1cb	2.7608516
31	0x4034ed0c	2.8269682
32	0x400e6c39	2.2253554
33	0x402475e9	2.5696967
34	0x3ff92ed5	1.9467417
35	0x409bbfc6	4.86716
36	0x3fe45aea	1.7840245
37	0x401226b8	2.2836132
38	0x402477e9	2.5698187
39	0x3f8646f0	1.0490398
40	0x3f78f1fc	0.9724424
41	0x3ff767de	1.9328573
42	0x404938cf	3.1440923
43	0x402c41d8	2.6915188
44	0x3fe807a4	1.8127332
45	0x3f67cb43	0.9054453
46	0x3f5748d9	0.8409553
47	0x3fbec227	1.4903
48	0x3fa11cef	1.2586955
49	0x402bf1b6	2.6866279
50	0x4048e88b	3.1391933
51	0x3faa5a4e	1.3308809
52	0x4023f899	2.5620482
53	0x3f9b519e	1.2134283
54	0x4003ab4c	2.0573301
55	0x3fb4fe7e	1.4140165
56	0x406d2aa8	3.7057285
57	0x4044f36d	3.0773575
58	0x3f43999a	0.7640625
59	0x3f288487	0.6582722
60	0x402c9749	2.6967337
61	0x3fc2f1bb	1.523002
62	0x408d6588	4.418644
63	0x3ff71b5e	1.9305227
64	0x403fabec	2.9948683
65	0x401df1f4	2.4678926
66	0x3faad7f1	1.334715
67	0x3dac3c26	0.0840991
68	0x40d38a96	6.610667
69	0x3fc685bb	1.5509561
70	0x3f2e745c	0.681463
71	0x3dc1b514	0.09458366
72	0x406af9b1	3.67149
73	0x3fcf1991	1.6179677
74	0x3fff7b7e	1.9959562
75	0x3ff389c4	1.9026418
76	0x3fff9496	1.996722
77	0x3e998578	0.2998464
78	0x403826c9	2.8773673
79	0x3fc8aa7d	1.5677029
80	0x3ff14852	1.8850195
81	0x3fb8e119	1.4443694
82	0x4040cb4a	3.0124078
83	0x409548b5	4.6651254
84	0x3fc23a26	1.5173995
85	0x3ff0cb54	1.8812051
86	0x3faaf1a8	1.3354998
87	0x4000a335	2.0099614
88	0x402194ed	2.5247147
89	0x40829cd6	4.081645
90	0x3fdfb6db	1.7477678
91	0x40636e8a	3.5536218
92	0x4044c7e9	3.0747015
93	0x3ffe0112	1.9844077
94	0x406ffa3a	3.7496476
95	0x400a9560	2.1653671
96	0x3e1cecc3	0.15324692
97	0x4018fe90	2.3905373
98	0x3f3322ef	0.6997518
99	0x40023034	2.034192
100	0x3f66edcc	0.902066
101	0x3f91dacb	1.1394895
102	0x3f8c07f9	1.0939933
103	0x3f708017	0.9394545
104	0x3fde0f72	1.7348464
105	0x3db6bf6b	0.08923229
106	0x3ff3f8a6	1.9060256
107	0x4034bf14	2.8241625
108	0x3fdff1e4	1.7495694
109	0x3f3abe53	0.7294666
110	0x3f5c6665	0.8609374
111	0x4083c099	4.1172605
112	0x400b0cd9	2.1726592
113	0x40310574	2.7659578
114	0x4087c759	4.2430844
115	0x4015d518	2.3411312
116	0x401b3eda	2.4257112
117	0x3fd0a249	1.6299525
118	0x409ac389	4.836369
119	0x3fe2a2ad	1.7705895
120	0x3e573cdb	0.21019308
121	0x40790527	3.8909395
122	0x40239c7a	2.5564256
123	0x3fe55f07	1.7919625
124	0x3fa8a05e	1.317394
125	0x400f63f1	2.240475
126	0x40022a4b	2.0338314
127	0x40272f50	2.6122627

conv3.bias f4 [128]
0	0x3b17b42c	0.0023148162
1	0x3bbc549b	0.0057473904
2	0xbaa85428	-0.0012842463
3	0x3c87c251	0.01657215
4	0x3c793e1b	0.015212561
5	0x3c61649e	0.013756899
6	0x3b32163b	0.0027173895
7	0x3bb625bd	0.005558698
8	0x3c6d8955	0.014498075
9	0x3be49b28	0.006976504
10	0x3c8edf16	0.01744036
11	0xbb10c550	-0.0022090264
12	0x3bd5cc1d	0.0065245763
13	0x3c1cd636	0.009572556
14	0x3b5ea27b	0.0033971358
15	0xbba022d6	-0.0048869653
16	0x3b27e97e	0.002562135
17	0x3aa4e3ba	0.0012580075
18	0x3ca3c6c7	0.019992245
19	0x3c457a55	0.012053092
20	0xbaf455c2	-0.001864128
21	0xb9debc6c	-0.00042483525
22	0x39ad9f1b	0.00033115674
23	0x3a413717	0.0007370575
24	0x3be84991	0.007088848
25	0x3c118f72	0.008884298
26	0x3c8395c7	0.01606263
27	0x3c5bd07a	0.013416404
28	0x3b8aa077	0.0042305547
29	0x3c483181	0.012218834
30	0x3c50ab09	0.01273609
31	0x3c6b71a0	0.014370352
32	0x3c1f45a8	0.009721197
33	0x3c881a92	0.016614232
34	0x3c8f814d	0.01751771
35	0x3bca0022	0.0061645666
36	0x3c8c775b	0.017146757
37	0xbc0bcc12	-0.008532541
38	0x3b0198ee	0.001977499
39	0x3b83fd3f	0.004027992
40	0x393f0312	0.00018216323
41	0x3a1105f9	0.0005532201
42	0x3c3841b4	0.011246134
43	0x3ca6bb6e	0.020353045
44	0xbb96ec63	-0.004605816
45	0x3ca6cbf1	0.020360919
46	0xbae19357	-0.0017210048
47	0x3c99ed35	0.018789867
48	0x3c57abde	0.013163535
49	0x3c0def2b	0.008662979
50	0x3c11ef1f	0.008907109
51	0x3c2b6835	0.010461857
52	0xbc23cc5b	-0.009997453
53	0x3c063c77	0.008193127
54	0x3c3fc21b	0.011703993
55	0x3c8da5ce	0.017290976
56	0x3c7afdb9	0.015319281
57	0x3bf13e80	0.007362187
58	0x3bc0832a	0.005875011
59	0x3b33f698	0.0027460214
60	0x3b50e6ec	0.0031875921
61	0x3b596100	0.0033169389
62	0xb88c2523	-6.6826375e-05
63	0x3c98bf0e	0.01864579
64	0x3c7c3867	0.015394307
65	0x3ca06e0f	0.01958373
66	0x3c49ac80	0.012309194
67	0x3bcc119d	0.0062276856
68	0x3c5866ac	0.013208073
69	0x3c40c9a0	0.011766821
70	0x3b58d06a	0.003308321
71	0xbbeed928	-0.0072890706
72	0x3c424523	0.011857304
73	0xbba6f7f1	-0.005095475
74	0x39948687	0.0002832899
75	0x3bc70f41	0.0060748165
76	0xbaaefaf3	-0.0013349935
77	0x3bf1763b	0.0073688305
78	0x395c53df	0.0002101208
79	0x3c009ff5	0.007850637
80	0x3c03b23c	0.0080381
81	0x3c9f0532	0.019411657
82	0x3a6d5543	0.00090535375
83	0x3b82408c	0.0039749797
84	0x3c166ac7	0.009180731
85	0x3cb0b595	0.02157096
86	0x3c85cb65	0.016332338
87	0x3c1792e4	0.00925133
88	0x3c97dd59	0.018538164
89	0xba9a4bd2	-0.0011771864
90	0xbbebae4e	-0.0071924096
91	0x3c8cd9c9	0.017193692
92	0xbbcd48e8	-0.0062647946
93	0x3c45280d	0.012033475
94	0xbb99d8d5	-0.004695038
95	0x3b57bf7c	0.003292053
96	0xbc006c94	-0.007838387
97	0x3b2233b7	0.0024750063
98	0xbbcc81f7	-0.006241079
99	0xbc92df9c	-0.01792889
100	0x3bb77bbc	0.005599467
101	0x3b6195ac	0.0034421487
102	0x3c1a2037	0.009407095
103	0x393f6fd2	0.00018256836
104	0x3c03e12d	0.008049292
105	0x3a5f40aa	0.00085164106
106	0x3bf92e10	0.007604368
107	0xbc038207	-0.008026606
108	0x3bcf02c0	0.0063174665
109	0x3c86246d	0.016374791
110	0x3c6b398a	0.01435698
111	0xbb8b1aa3	-0.0042451187
112	0xbba03980	-0.004889667
113	0x3c6971a7	0.014248288
114	0x3c6679ea	0.0140671525
115	0x3adc28a5	0.0016796781
116	0xbb2f86ff	-0.0026783345
117	0x3b1d2265	0.00239768
118	0x3bdddeda	0.0067709507
119	0x3bdc0e8b	0.006715601
120	0x3bd67fa6	0.0065459786
121	0x3b9e3232	0.004827761
122	0x3c346de6	0.01101253
123	0x3c32fcca	0.010924527
124	0x3c8f971e	0.017528113
125	0x3bcc2001	0.006229401
126	0xbada2a48	-0.0016644681
127	0x3c8720e6	0.01649518
