Mini project III/models/vae.pth (torch, 454159 bytes, 32 tensors)

conv1.bias f4 [128]
000000 cb 35 8a ba 48 1e 15 3c 55 37 23 bb 7f 4e c2 3d
       -0.0010544596 0.009101458 -0.0024904807 0.09487628
000010 e6 25 ac ba cb 09 c8 bd 83 37 df bb f4 1a 8b bc
       -0.0013133853 -0.09767493 -0.0068120374 -0.016980626
000020 7d ee c6 3b 94 1c 7f 3c 5b 23 0b bb 55 f2 06 bc
       0.0060709105 0.015570778 -0.002123079 -0.008236487
000030 6b 6f 1b bb 36 e2 58 3c 0b 21 33 3e 0d e3 23 3a
       -0.0023717533 0.013237527 0.17493074 0.000625179
000040 df 4d aa 3b b2 59 fc ba 38 e9 d1 ba 60 a7 30 bb
       0.0051972712 -0.0019252806 -0.0016014939 -0.0026955232
000050 80 79 17 3e 9a b7 a0 3c 30 66 6b 3a fa 95 29 ba
       0.14792442 0.019618798 0.00089797657 -0.00064691866
000060 57 07 30 3b 43 d2 80 3a b0 8b 7b bb 1c 29 c7 3c
       0.0026859844 0.0009828288 -0.003838282 0.024311595
000070 85 23 90 ba b6 64 91 3b 7e d7 01 3e 50 55 24 3c
       -0.0010996914 0.0044370545 0.1267986 0.010030106
000080 37 aa a2 bb 8e bb 63 3b 9c 36 56 3e 29 e7 82 3b
       -0.004964139 0.0034749242 0.2091927 0.0039948416
000090 b0 74 da bc a8 ae 1b ba 17 e9 47 bb 9c 4b 5f bb
       -0.026666969 -0.00059388066 -0.0030503923 -0.0034072166
0000a0 52 f7 e8 bb bf bc 90 3a 0a 6d 2a 39 5b 86 bc 3b
       -0.007109561 0.0011042579 0.00016253084 0.005753321
0000b0 f0 26 1e 3c 67 6a 63 ba 9a e8 2f bc 80 f8 35 bc
       0.009652838 -0.0008675218 -0.010736609 -0.01110661
0000c0 28 91 fe 3c 67 80 de bd 22 00 43 bc f7 a6 bd b9
       0.031075075 -0.108643346 -0.011901887 -0.00036173288
0000d0 42 16 cc 3a 40 d7 95 3a bc 2c df ba 8a bd 38 bb
       0.0015570598 0.0011431947 -0.0017026882 -0.0028189146
0000e0 98 76 96 bc 86 e9 99 3b d8 f1 fd 3b 00 b7 bf 3c
       -0.018367097 0.0046970276 0.0077497773 0.02340269
0000f0 da 21 2d 3c b1 90 37 3e d9 cc 46 3b 2b 2f 2c 3c
       0.010567153 0.17926289 0.00303345 0.010509293
000100 1f 85 15 3a 6d c9 1e 3c ea 49 50 bc 2d ff 18 3c
       0.00057037355 0.009691578 -0.012712935 0.009338182
000110 62 b6 96 bc 1c 36 74 3b c5 e0 8f 3b 9f 97 07 bc
       -0.018397514 0.0037263697 0.0043908083 -0.008275895
000120 54 4c d9 3a c4 6a 35 3e 66 be 33 3d f3 d1 0b bb
       0.0016578534 0.17716509 0.04388275 -0.0021334856
000130 06 cf c8 3b 10 a3 e5 bc 17 3b b7 bb 1a f1 c0 3b
       0.0061281947 -0.028031856 -0.005591761 0.0058881165
000140 e8 2c 09 3c df a0 28 3c 54 a5 96 bc 6d 5f 8b 3b
       0.008372523 0.010292261 -0.018389381 0.004253319
000150 1c f9 49 3c 74 26 35 ba bb fc b1 bc 39 22 1d 3c
       0.012327459 -0.0006910332 -0.021726957 0.009590679
000160 3d 05 56 3b 9c 5b 0a bc ec 4c e9 3b 23 d5 1c 3b
       0.003265693 -0.008444693 0.0071197655 0.002393075
000170 f3 f0 a5 3a 6b 56 8b bb b1 f1 38 3b b6 bc 1b 3c
       0.001266031 -0.004252245 0.0028220231 0.009505441
000180 db 26 05 bc 3b 9b 04 3b fe 50 15 3a e3 75 61 3e
       -0.00812694 0.0020234126 0.00056959677 0.22017626
000190 b5 9b 21 3a b3 28 62 3b 51 b5 42 3a 18 5c 61 3e
       0.0006164865 0.0034509122 0.0007427531 0.22007787
0001a0 fa 6e 9c bc f6 b8 e5 38 a9 4c 5d 3e 94 8e 12 bb
       -0.019095886 0.000109540226 0.21611275 -0.0022362815
0001b0 a0 ec e9 3c 27 ac 88 3b 6a ff 1a 3b a8 fb e1 bb
       0.028555214 0.004170913 0.0023650774 -0.006896455
0001c0 85 8e 98 3a 53 73 02 3b 27 42 54 bb e7 ee ec 3d
       0.0011639154 0.0019905164 -0.0032388063 0.115690045
0001d0 af ae 74 3e d2 53 c5 3d 7d 2c 94 3b 33 06 0e 3c
       0.23894762 0.09635128 0.004521905 0.00866847
0001e0 c9 9b 83 bc cc 89 2d 3b 1e a5 0d 3b dd 71 6e bb
       -0.016065495 0.0026479838 0.002161331 -0.0036383786
0001f0 91 f6 86 3c ff e3 f2 3a 77 3f cb bb 45 2a 87 3b
       0.016474994 0.0018531083 -0.006202634 0.004124912

conv1.lin.weight f4 [128, 7]
000000 df eb 33 bd 93 c3 01 3d 60 16 80 3d 00 a1 68 be
       -0.043926116 0.031680655 0.06254268 -0.22717667
000010 3a 63 31 3e 72 3b 46 bc f0 a0 5f bd 54 5e 4a bd
       0.17323008 -0.012099134 -0.05459684 -0.049406365
000020 cc 5c 12 3e ab a8 43 be 76 71 d3 bd ce 24 e7 3b
       0.14293212 -0.1910731 -0.10324375 0.007053948
000030 7e 18 38 3e e9 5b 0d be 3d 8b 45 bd d9 b8 9e 3d
       0.17978093 -0.13804592 -0.04822849 0.07750101
000040 5a 59 4b be fb 96 20 be 05 da ce 3b b8 7e 67 bc
       -0.19858304 -0.15682594 0.006312611 -0.014129333
000050 00 86 b9 bd 85 60 e3 3d 30 cb 12 3e ee 5b c8 3d
       -0.090587616 0.11102394 0.14335322 0.09783159
000060 03 c9 18 3e a2 9b a4 3d 17 74 9b 3d 15 20 34 3c
       0.1492043 0.08037497 0.07590502 0.010993977
000070 4d 3b c4 3d 60 0f b9 bd e4 d0 56 be 78 c8 3b 3e
       0.09581623 -0.09036136 -0.20978123 0.18338192
000080 c7 c2 6e 3c 22 29 11 be 9e c7 ab 3d 5b 25 1d be
       0.014572806 -0.14175847 0.08387683 -0.15346281
000090 83 fe 29 be b1 3a 2e be fc f4 0f be 26 69 00 3e
       -0.16600995 -0.17014576 -0.14058298 0.12540111
0000a0 87 2c 68 bd 44 49 81 3b b5 7e 8c bd bb 51 7c be
       -0.05668309 0.0039455015 -0.06860105 -0.24640553
0000b0 bb 9d 8d 3d 24 76 8f bd e1 e7 2a 3e 08 46 77 bd
       0.0691485 -0.070049554 0.16690017 -0.06036952
0000c0 fc 76 ca bd 25 da 06 3e 16 a6 d8 bc 21 34 e4 3d
       -0.09885976 0.13169153 -0.026446383 0.11142755
0000d0 a4 51 15 3e 69 ff 2a be 7b 6b 17 bc 95 85 79 bd
       0.14581925 -0.16698994 -0.009241934 -0.06091841
0000e0 61 ff d5 bd 42 6b 27 3e 96 a1 a0 bd a9 94 b4 3d
       -0.104491 0.1634951 -0.0784332 0.08817417
0000f0 fe ae 00 3e 06 4b 06 3e fc 8e 28 be db c4 89 bd
       0.12566754 0.13114557 -0.16460794 -0.06727
000100 80 e4 fb 3a f6 ae 25 be 12 1d cf bd 33 ec 29 3e
       0.0019217879 -0.16180024 -0.101129666 0.16594009
000110 97 8e ca 3d cd 47 2a bd 22 e6 f5 3c 12 26 63 bd
       0.09890478 -0.04157238 0.030016962 -0.05545623
000120 1e d8 82 be c2 c3 5b 3d d2 d1 7c bb 41 60 e3 3c
       -0.2555551 0.053653486 -0.003857721 0.027755858
000130 28 a4 9f 3e 82 26 02 3e ef a5 d7 3d 95 5d b5 3d
       0.3117993 0.12710002 0.10529696 0.0885574
000140 0a 38 ac 3d 03 76 80 bd 72 48 80 3d ef 9e 95 bd
       0.08409126 -0.06272509 0.06263818 -0.07305705
000150 17 2f 80 3c b7 d4 1a be 40 41 42 3e 54 cc a8 3c
       0.015647454 -0.15120207 0.18970203 0.020605244
000160 6d cb b9 bd 5b ea 13 3d 4c 0a 96 3c 0c df 5b be
       -0.090720035 0.03611217 0.018315457 -0.21471804
000170 d4 17 03 bd 12 b0 01 be b4 09 e6 3d 77 b4 d1 3d
       -0.032005146 -0.12664822 0.112323195 0.10239499
000180 2e c2 5a bd d5 d2 72 3d 14 f1 38 3e 36 91 4e 3e
       -0.05340784 0.059283096 0.18060714 0.20172581
000190 0e 7f 22 3e 37 e2 20 3e 13 4e cb 3d 0b de 30 3e
       0.1586878 0.15711294 0.09927001 0.17272203
0001a0 5d 11 e4 3d 1f 6a 4d be 4e 25 b2 3d b3 48 78 3e
       0.11136124 -0.20060013 0.086985216 0.24246483
0001b0 a3 86 b4 3d 72 f3 9d 3d ed b1 15 3e 39 49 16 3e
       0.088147424 0.07712449 0.14618655 0.1467637
0001c0 d2 68 6a 3d a4 e5 96 3d 9a 16 91 3d 25 59 62 bd
       0.05722887 0.07368019 0.07084389 -0.055260796
0001d0 68 3e 27 3d 4b b2 6e 3c aa b6 b3 be 6e ab 35 3e
       0.040831 0.014568876 -0.351003 0.17741176
0001e0 19 e7 e5 3d 98 90 b2 bd 81 7d 24 bd 46 e8 f7 3d
       0.11225719 -0.08718985 -0.040158752 0.121048495
0001f0 b3 28 c8 3d 53 7f e8 3d c8 b8 62 3e 4d 1f a5 3d
       0.09773388 0.1135241 0.22140801 0.08062611
000200 10 70 7a bd bb 32 df bd c3 02 59 3d 47 72 2f 3e
       -0.061142027 -0.10898348 0.05298115 0.17133437
000210 8a df 22 be ae 01 83 3d 2f eb a6 bc e5 c2 58 3e
       -0.15905586 0.06396805 -0.020375816 0.21168096
000220 41 d9 53 be 1b 08 ec bd 5f 54 08 3e 9d a0 1e 3e
       -0.20688345 -0.115249835 0.13313435 0.15490957
000230 43 ab a5 3d 85 3c d2 3d e6 6c d3 3d 83 ce c1 3d
       0.08089306 0.102654494 0.10323505 0.09463217
000240 67 16 2f 3d 7f 39 95 3d 5e c5 4d 3d 8e 3f 8d bd
       0.042745974 0.07286357 0.050237052 -0.06896888
000250 d1 3d 79 3d 67 77 5d be 2c 4a 1a 3e 2d e3 76 3e
       0.06084997 -0.2162758 0.15067357 0.24110098
000260 05 a6 bf 3d 81 21 d3 bd 7e d1 29 3e 40 44 4c 3e
       0.093578376 -0.10309125 0.16583821 0.1994791
000270 42 05 47 3d 19 87 07 3e e8 65 33 3b 8e a4 13 bd
       0.048589 0.1323513 0.0027373973 -0.036045603
000280 58 8e 73 3e 37 8e ab bc ed 91 f9 3d 5a 3d ce 3c
       0.23784769 -0.020941837 0.12186036 0.02517574
000290 88 dd 96 bb 80 ad 31 3e e0 c0 b5 3d c1 03 f2 bd
       -0.0046040453 0.17351341 0.088746786 -0.11817122
0002a0 95 78 79 be ae 86 29 bc ca 45 af bd 60 7d 07 3e
       -0.24362405 -0.010347052 -0.08558233 0.1323142
0002b0 43 5a c3 3c 17 7d ef bd a8 44 f4 3d 18 59 59 3e
       0.023846751 -0.11693781 0.11927158 0.21225393
0002c0 bb a9 24 3e 2c 51 80 bd ae 30 2a 3e ab 36 b4 bd
       0.16080372 -0.06265482 0.16620132 -0.087994896
0002d0 b0 1c 09 3d e4 9e 08 3e 6b a8 b4 bd 74 32 44 3a
       0.033474624 0.13341862 -0.08821186 0.0007484325
0002e0 93 e1 4c be 07 d5 6b 3c 9c ae 31 3e d9 0f b1 bd
       -0.20007925 0.014394051 0.17351764 -0.08645601
0002f0 bb dd 43 3d fd 8c 41 3e c7 1f 20 3e 92 b0 eb 3d
       0.04781888 0.18901439 0.15637122 0.115082875
000300 3c 2f a6 bd bc b9 46 3e 3f e8 90 bd 0f 18 57 bd
       -0.08114478 0.1940679 -0.070755474 -0.05251318
000310 bf df 48 3e 3b 2e cc bd 8e b0 5f be c2 08 26 3e
       0.19616602 -0.09969755 -0.21844694 0.16214278
000320 9a dc 1e be 29 78 b2 bd ae 93 30 3e b1 1f ca bd
       -0.1551384 -0.08714325 0.17243835 -0.09869326
000330 2d 30 99 3c 69 87 57 3c 8d b4 bb bd fd e7 22 be
       0.01869973 0.013154843 -0.09165297 -0.15908809
000340 aa 9d 0f 3e 1f 88 d8 bc dc 08 1d 3e e8 8a 07 3e
       0.14024988 -0.026432095 0.15335411 0.13236582
000350 ff 5a 27 3e bd b7 0a 3e 6b 03 34 3e b0 a3 d1 3d
       0.16343306 0.13546653 0.17579429 0.10236299
000360 a2 cb bd 3d ad 2a 33 3e 1a 46 32 3d 03 50 15 3e
       0.092673555 0.17496748 0.043523885 0.14581303
000370 5b 2b 6c 3c cb 94 28 be 5b ec 46 3d ba 24 50 3e
       0.014414634 -0.1646301 0.04856525 0.2032651
000380 e0 b0 c2 3d ea 10 1b be f2 7a 0b 3e 95 51 5f 3e
       0.095063925 -0.15143171 0.13621119 0.21808465
000390 32 d5 e0 3d 2a cb 63 bd c3 4f a7 3d 53 81 3e bd
       0.10978164 -0.055613674 0.0816951 -0.046510052
0003a0 f2 e3 2a 3d ca b1 f5 3c 93 da db 3d 84 2d c2 bd
       0.04172129 0.029992003 0.10735049 -0.09481338
0003b0 12 ac 19 3e a7 7b 81 be 94 f2 4d 3e 41 5d 54 3e
       0.15007046 -0.25289652 0.20112067 0.20738699
0003c0 f8 83 45 3e 19 78 ea 3d 60 09 4c 3e da 29 18 3e
       0.19288623 0.11448688 0.19925451 0.14859715
0003d0 19 e5 8f bd 7e 43 16 bd c9 dd 8e 3d 0f f3 8f bd
       -0.07026119 -0.03668546 0.06975896 -0.070287816
0003e0 9c a9 29 3e 63 f1 89 be 46 a1 0b bd 10 76 ad 3e
       0.16568607 -0.26941976 -0.03408935 0.33879137
0003f0 6c 42 46 3e de c5 d7 3d be af 54 3e 5d c8 1e 3e
       0.19361275 0.10535787 0.20770165 0.1550612

bn1.module.weight f4 [128]
000000 ce 71 70 3f 9e e8 75 3f 1e f1 6f 3f e5 27 90 3f
       0.9392365 0.9605807 0.9372729 1.1262175
000010 61 de 72 3f 08 2e 9a 3f 99 41 89 3f 65 73 6d 3f
       0.94870573 1.2045298 1.0723144 0.92754203
000020 04 39 65 3f ac d5 78 3f 27 3b 6c 3f 7c 23 68 3f
       0.89540124 0.9720104 0.9227776 0.90679145
000030 4e fd 6a 3f 3e 4f 6d 3f e2 40 91 3f ed eb 6f 3f
       0.9179276 0.9269904 1.1347926 0.9371937
000040 e5 2f 6e 3f 8b b1 65 3f 82 21 7c 3f 83 e1 6e 3f
       0.9304183 0.89724034 0.9848863 0.93312854
000050 0c b3 92 3f 67 b4 7f 3f b2 f7 82 3f 9e e7 62 3f
       1.1460891 0.9988465 1.0231841 0.8863467
000060 97 09 73 3f 94 05 76 3f 2c bf 82 3f 2b 79 83 3f
       0.9493651 0.9610226 1.0214591 1.0271353
000070 79 c0 5f 3f b4 aa 73 3f d4 e9 91 3f 48 9a 7f 3f
       0.87403065 0.9518235 1.1399484 0.9984479
000080 dd e1 73 3f 15 5a 77 3f 01 12 a4 3f e8 4b 7b 3f
       0.95266515 0.9662183 1.2817994 0.981627
000090 28 fb 69 3f 30 61 70 3f 84 27 7a 3f 57 ab 69 3f
       0.9139886 0.93898296 0.97716546 0.9127707
0000a0 0c 7f 73 3f ff 58 7a 3f 34 33 78 3f 4e df 68 3f
       0.95115733 0.9779205 0.9695313 0.90965736
0000b0 76 f8 85 3f 07 a3 69 3f 2f 7a 6d 3f a6 f3 69 3f
       1.0466449 0.91264385 0.9276456 0.91387403
0000c0 97 83 6a 3f 1b 01 9c 3f 9b fe 6c 3f bb 06 72 3f
       0.9160704 1.2187837 0.92576 0.9454152
0000d0 ce a4 72 3f 64 78 7a 3f 27 0b 7d 3f a0 69 6e 3f
       0.9478272 0.9783995 0.9884514 0.9312992
0000e0 69 89 6a 3f 57 9e 6a 3f f5 80 79 3f b5 0d 77 3f
       0.9161592 0.9164786 0.974624 0.9650529
0000f0 3d 62 6d 3f 0a fb 95 3f c6 eb 73 3f 0f 4f 80 3f
       0.92728025 1.1717236 0.95281637 1.0024127
000100 44 91 7d 3f 5a bb 80 3f dd 4c 6c 3f eb e3 70 3f
       0.9904978 1.0057175 0.92304784 0.94097775
000110 09 69 62 3f 41 2a 78 3f 7c 45 71 3f c1 02 7e 3f
       0.8844152 0.96939474 0.9424665 0.9922295
000120 e5 f7 6e 3f 52 84 95 3f 9e 37 88 3f 7f 4c 73 3f
       0.9334701 1.1681006 1.0641973 0.950386
000130 38 c9 71 3f 62 a4 68 3f 8a 82 6d 3f 9d b2 6e 3f
       0.9444766 0.9087583 0.9277731 0.9324129
000140 86 08 77 3f 7c 2a 75 3f 26 a2 75 3f ec c5 6c 3f
       0.9649738 0.9576795 0.95950544 0.92489505
000150 cb 98 80 3f e6 93 74 3f ba 64 6c 3f 9e ee 76 3f
       1.0046629 0.95538175 0.92341197 0.9645785
000160 0b 8d 7b 3f 62 a3 5e 3f 1a a8 66 3f 68 93 6a 3f
       0.9826209 0.8696805 0.9010025 0.91631174
000170 e8 7b 81 3f 53 26 66 3f c0 62 6e 3f 05 76 6c 3f
       1.0115938 0.8990223 0.9311943 0.92367584
000180 c0 b7 74 3f 34 58 72 3f 85 d5 62 3f 0c 4d a1 3f
       0.9559288 0.9466584 0.88607055 1.2601638
000190 f1 01 7e 3f 86 15 64 3f 02 30 69 3f 51 ae 9f 3f
       0.9922171 0.8909534 0.9108888 1.2475072
0001a0 01 1c 65 3f db e3 71 3f 64 28 a2 3f cd 32 72 3f
       0.89495856 0.94488305 1.2668576 0.94608766
0001b0 84 01 79 3f 1b 59 64 3f 69 ad 6c 3f b4 54 6c 3f
       0.9726794 0.89198464 0.924521 0.92316747
0001c0 bc 39 6a 3f 67 3a 66 3f 08 f4 7f 3f 61 79 97 3f
       0.91494346 0.89932865 0.9998174 1.1833917
0001d0 03 f6 a8 3f 83 db 8e 3f 0d cf 80 3f 4e 05 6f 3f
       1.3200077 1.116074 1.0063187 0.9336747
0001e0 28 ab 69 3f bc 4a 6a 3f 0b 02 70 3f f3 43 67 3f
       0.9127679 0.91520286 0.9375312 0.9033806
0001f0 e0 53 66 3f ba d4 6b 3f 75 3c 6b 3f c7 42 67 3f
       0.89971733 0.9212147 0.91889125 0.9033627

bn1.module.bias f4 [128]
000000 d5 8e 79 bd 66 9b 35 bd 61 5e 6f bd e8 62 16 be
       -0.06092723 -0.044337653 -0.058439616 -0.14686167
000010 48 a8 0c bd 15 c1 ec 3c e6 d0 5e bc ec d4 42 bd
       -0.034340173 0.028900662 -0.01359961 -0.04756634
000020 56 45 ea bd 57 65 0b bd df 80 a0 bd 6c 2e 09 be
       -0.11439006 -0.034032192 -0.0783708 -0.13396615
000030 ec d4 89 bd 6a ee c2 bd 8c b9 5a be a4 82 13 bc
       -0.06730065 -0.0951813 -0.21359843 -0.009003315
000040 78 ec 49 ba f0 46 10 be 65 ae 3a bd 48 a7 85 bd
       -0.0007702778 -0.1408956 -0.04557647 -0.06526047
000050 ac cd f1 bd 41 85 63 3c 44 56 03 be e0 94 ed bd
       -0.11806807 0.013886751 -0.12825876 -0.11600661
000060 78 f4 77 bc 60 82 9c bd 4a a1 48 3d 61 b1 1f be
       -0.0151339695 -0.076420546 0.048981942 -0.15595008
000070 b4 ec 0b be a3 33 0f bd 61 60 8d bd da 97 c1 bd
       -0.13664514 -0.034961354 -0.069031484 -0.094527915
000080 1a 7c 62 bd 90 9f 1b bd 49 f2 47 be 3e c8 aa bd
       -0.055294134 -0.037993968 -0.19526018 -0.083389744
000090 20 f6 71 be 3a 78 29 bd 63 4b 8d bd b9 f5 f3 bd
       -0.23629045 -0.041374423 -0.068991445 -0.11912102
0000a0 c1 b8 db bd 8b ad a0 bd 36 f6 d6 bd 3b 29 ac bd
       -0.107285984 -0.07845601 -0.1049618 -0.084063016
0000b0 5f 81 78 3d cb 9e e6 bd 4e 35 1d be fe 1e af bd
       0.060670253 -0.11260756 -0.15352365 -0.08550833
0000c0 9e 4b 9a bd d6 3f ad bc fe b8 ca bd 68 94 84 bd
       -0.07533954 -0.021148603 -0.09898566 -0.06473619
0000d0 e7 dd 87 bd 9d b7 17 bd e5 f8 32 bd e9 a7 86 bd
       -0.066341214 -0.03704034 -0.043694396 -0.06574995
0000e0 1e e0 8a bd 89 f1 7d bd ba a5 79 be 75 4e a4 3b
       -0.06781028 -0.061997924 -0.24379626 0.0050142356
0000f0 df e2 8b bd 44 a8 0b be 37 87 69 bd a6 fd 70 bd
       -0.068303816 -0.13638407 -0.057013717 -0.058835648
000100 b3 46 90 bd 5e eb 4a bd 9d 8d 0a be 1a d7 c1 bd
       -0.07044735 -0.04954087 -0.13530584 -0.094648555
000110 e2 52 64 be ce c7 84 3d aa a3 44 bd 81 86 cd bc
       -0.22297242 0.06483422 -0.048007645 -0.02508855
000120 6d 19 9d bb 3b c7 68 be b7 31 89 bd 04 2a 9f bd
       -0.0047942908 -0.2273225 -0.066989355 -0.07771686
000130 c4 7d ae bd 3a 7b 5c be b7 b1 b6 bd 18 c5 15 be
       -0.08520082 -0.21531382 -0.08920615 -0.14625967
000140 74 cf ea bd 5b f9 e4 bd c9 45 12 be 16 98 f1 bd
       -0.1146535 -0.11180373 -0.14284433 -0.11796586
000150 aa 76 10 be 62 db b0 bd 78 7e b7 bd f7 1c 21 bd
       -0.14107767 -0.08635594 -0.08959669 -0.039334264
000160 5c 2b 28 bd 27 85 fd bd 7c ce 5c bd fe 83 31 bd
       -0.041056976 -0.123789124 -0.053907856 -0.04333877
000170 ca 0b c6 bc 72 25 e5 bd c5 41 86 bd ab 1b cf bd
       -0.024175543 -0.11188783 -0.06555513 -0.10112699
000180 fd 84 12 be c1 31 3c bc 0a 6b ec bd bf 1e 45 be
       -0.14308544 -0.011486472 -0.115438536 -0.1925001
000190 ab f2 04 be b1 d3 09 be 78 85 ce bd f2 08 ef bd
       -0.12983195 -0.1345966 -0.10084051 -0.11671628
0001a0 d1 73 1e be b2 d4 55 bd c2 d0 6e be 34 25 a1 bd
       -0.15473868 -0.052204795 -0.23321822 -0.07868424
0001b0 87 81 61 be 25 6d 99 bd f4 da 30 bc 08 e5 c8 bd
       -0.22022067 -0.07491521 -0.01079439 -0.09809309
0001c0 e0 a7 f0 bd 76 9e be bd 28 54 8e bd 54 8b 19 be
       -0.117507696 -0.09307568 -0.06949645 -0.14994556
0001d0 82 a9 72 be 28 3a 59 be 84 2e 4d 3c 1d 0b dc bd
       -0.23697475 -0.21213591 0.012523297 -0.10744307
0001e0 eb 04 9e bd a2 ee 03 be 60 29 26 bd 28 7a df bd
       -0.07715782 -0.12884 -0.040566802 -0.10911971
0001f0 f2 34 49 bd 1a 23 9b bd 54 a4 d6 bd 5e 81 f8 bd
       -0.04912276 -0.075750545 -0.10480562 -0.1213405

bn1.module.running_mean f4 [128]
000000 b5 39 9d bc 0b 4a 1a bd 06 5b 6b bd c0 bb 55 3e
       -0.019192556 -0.03766827 -0.057459854 0.20872402
000010 30 f4 ca 3c 18 b9 83 be a5 90 98 bd 19 75 bc 3d
       0.02477464 -0.25727153 -0.07449464 0.09202022
000020 45 c5 74 bd 78 3e 69 bd 99 52 c5 bc 5d 3d db 3d
       -0.059758443 -0.05694434 -0.024087237 0.107050635
000030 a4 9f 91 3c fb 7d 26 be ed 25 b5 3e d6 e0 c3 bd
       0.017776318 -0.16258995 0.35380498 -0.095643684
000040 4c 06 81 3d 5e dc fc 3d 6b d1 21 3e 90 f7 90 3d
       0.06300029 0.12346719 0.15802543 0.07078469
000050 66 94 74 3e 32 53 60 bd ba a4 18 3e 03 29 27 3b
       0.23884735 -0.05476684 0.14906588 0.0025506623
000060 c9 0d 3e be d8 df 22 3e 8c 81 c4 bd 47 10 44 3e
       -0.18559946 0.15905702 -0.095950216 0.19146834
000070 e3 ad be 3d a4 92 7c bd 53 2e 88 3e 55 a7 1f 3e
       0.0931051 -0.061663285 0.26597843 0.15591176
000080 33 df 89 3d aa 86 9e bc 9f d9 cf 3e b9 21 ca bc
       0.06732025 -0.019351322 0.4059572 -0.024674283
000090 38 62 1c 3e 89 80 ea 3d c1 9c fc 3d 1c 67 4f 3d
       0.15271842 0.114502974 0.12334586 0.050635442
0000a0 47 76 a6 3d d5 b8 04 3e 58 ae ab 3d 04 1c cc bc
       0.08128028 0.12961133 0.08382863 -0.024915703
0000b0 57 58 8d bd 8d a5 10 bc c5 ce 85 3d f1 c4 1d 3d
       -0.06901615 -0.008828533 0.06533579 0.038517896
0000c0 36 64 86 bd 7c 62 63 be 18 43 54 3d 17 ec f1 3d
       -0.065620825 -0.22205538 0.051821798 0.11812609
0000d0 47 12 06 3e 83 01 b7 bd 99 9d 22 3e 33 da d3 3c
       0.1309291 -0.08935835 0.15880431 0.025860881
0000e0 58 b1 a6 3c 81 ca 37 3c a0 96 fb 3d c9 d4 fd bc
       0.020348236 0.011217714 0.12284589 -0.030985253
0000f0 de e5 fa bd f3 8b 9a 3e 7f 1e 2b 3e d1 d1 b4 bd
       -0.12250875 0.30184898 0.16710852 -0.08829082
000100 a5 17 08 3e 05 f0 82 bd 15 d0 50 3d 91 c3 0f 3e
       0.1329027 -0.06393436 0.050979692 0.14039446
000110 4a 76 d1 3d b0 83 db bb ae 0e 32 bc 10 c2 5a 3c
       0.1022764 -0.006699048 -0.010867758 0.013351932
000120 4e 37 9f bd 0e 57 98 3e a1 8b 26 3e a8 5f 1c bc
       -0.077742204 0.29753917 0.16264202 -0.009544291
000130 4d bc da bd 9e d0 ac 3d bf cc 02 3e de fa 94 bd
       -0.10680447 0.08438228 0.12773417 -0.072744116
000140 cd 65 f4 3d d9 b6 21 3d 37 8c d3 3d 36 f6 99 3b
       0.119334795 0.039481018 0.10329478 0.00469854
000150 93 f5 c7 3d 81 66 10 be b9 db c6 3c 69 4f b4 3c
       0.097636364 -0.14101602 0.024274694 0.022010522
000160 75 89 d0 3d ec a6 6e 3d 42 5f da bd f4 8e 8b 3c
       0.10182468 0.058264658 -0.106627 0.017035939
000170 c4 d7 12 3c 94 b7 c5 3d 7e e7 f6 bd f4 c0 0a be
       0.008962575 0.096541554 -0.120558724 -0.13550168
000180 71 38 96 3d 26 be c5 bc 9d b4 4e bc d1 9f c1 3e
       0.07334984 -0.024138521 -0.012616304 0.37817243
000190 1a 97 96 3d 78 40 82 bc 96 c0 2d bc c8 84 c5 3e
       0.07353039 -0.015899882 -0.010604998 0.38577867
0001a0 48 4b 98 3d 04 5b 51 3d c0 42 ad 3e 11 d5 b6 3d
       0.07436234 0.05111219 0.3383999 0.08927358
0001b0 89 8e 01 3e 4b a7 09 be 6a 05 3e be 7e 16 74 3d
       0.12652029 -0.13442723 -0.18556753 0.059591763
0001c0 9b 5c 25 3e 59 99 e3 bd 4b 85 b7 bd 73 e8 7c 3e
       0.16148607 -0.11113233 -0.089609705 0.24698047
0001d0 79 bd c9 3e 0a 38 4d 3e 1f 2d d0 3d 3a 53 b4 bd
       0.3940237 0.20040908 0.10164856 -0.08804937
0001e0 a9 c8 e1 3d 71 21 87 bd aa e5 89 bd 85 00 cb 3d
       0.11024601 -0.06598175 -0.06733258 0.099122085
0001f0 49 d2 da bd b7 ec 84 bd 4f bc c8 3d af f3 53 bd
       -0.1068464 -0.06490462 0.09801542 -0.051746067

bn1.module.running_var f4 [128]
000000 10 d9 af 3a 4c 10 87 3a 88 36 81 3a 45 3d 13 39
       0.001341613 0.001030454 0.000985817 0.00014041837
000010 30 35 1d 3c 8d a4 ae 39 50 7e 40 3a 17 53 9c 3a
       0.0095952 0.00033310466 0.0007343041 0.0011926618
000020 f3 c2 26 3b 4a e2 01 3a df a2 d6 3b a3 6d 9d 39
       0.0025445789 0.0004954679 0.0065501775 0.0003002706
000030 dd 27 a5 3a 8e 27 3d 3b d3 70 bb 39 11 2e ac 3c
       0.0012600381 0.0028862688 0.0003575148 0.02101806
000040 d3 c5 07 39 3f 6c be 3b 5d 1d 06 3c 6e 97 a4 3a
       0.00012948299 0.005811244 0.008185712 0.0012557337
000050 ca 4f f9 38 e6 de 93 3a cd 75 5e 3a cf 7c 84 3a
       0.00011888107 0.0011281639 0.00084861816 0.0010107997
000060 4f c4 bc 3b 9f 25 bf 3b 99 35 31 3a 63 f6 88 3a
       0.0057607065 0.005833342 0.0006760001 0.0010449406
000070 74 60 9d 3c 15 bd fd 3a 0f 4a 8e 39 d7 4b 81 3a
       0.019211031 0.0019358719 0.00027139529 0.0009864521
000080 66 8f c2 3a 75 b0 84 3a 27 3a ed 39 32 7c b1 39
       0.0014843761 0.0010123389 0.0004524749 0.00033852604
000090 d6 fe 36 3a ee 81 9a 3c 24 f0 0e 3c 34 b9 2b 3b
       0.00069807225 0.018860783 0.008724246 0.002620292
0000a0 ff 91 3a 39 5b 23 43 3b 80 ab bd 3a 3a 0a fa 3a
       0.0001779273 0.0029775712 0.0014470667 0.0019076534
0000b0 3f 27 fa 39 27 83 9f 3b f8 58 6d 3a 04 13 19 3a
       0.00047712956 0.0048679295 0.000905409 0.00058393204
0000c0 15 45 ce 39 4b fe 11 39 57 e6 b7 3a d9 3f 3c 3c
       0.00039342852 0.00013923009 0.0014030439 0.011489832
0000d0 c9 b4 ca 3c 2c d8 44 3c 9d ea 10 3c 61 b0 2a 3c
       0.024744408 0.01201443 0.008844999 0.010418029
0000e0 af 12 45 3a 85 21 1b 3a 21 c3 11 3a f4 92 82 39
       0.00075177377 0.00059177756 0.00055603875 0.0002490502
0000f0 52 9a 16 3b 61 4b 2f 39 4d bb 84 3c de 00 1a 3a
       0.0022980166 0.00016717381 0.016202593 0.0005874763
000100 02 a5 81 3b d3 e4 ad 39 9c ad 6b 3a 18 86 34 3a
       0.003956438 0.0003316762 0.00089904084 0.00068864366
000110 ae e8 0d 3a df 0e 03 3b 9f 16 bc 3a d4 0b ff 3a
       0.0005413395 0.0019997878 0.0014350003 0.0019458481
000120 dd 55 dc 3b cf 0b 64 39 1b ea 9d 39 e0 c1 e1 3b
       0.006724103 0.00021748173 0.00030119796 0.006889567
000130 57 5b 9a 3b f1 eb ac 39 41 d5 e6 3a 2f 14 ca 3a
       0.0047105956 0.00032982187 0.0017611162 0.0015417392
000140 80 76 48 3a fe e9 28 3a 8b 27 cc 39 5f a8 8e 3a
       0.00076470524 0.0006443559 0.00038939374 0.0010883919
000150 ef fe 34 3a 81 3a fd 3b 0c d9 81 3a 2c e9 bf 39
       0.0006904443 0.0077279215 0.0009906604 0.00036604085
000160 82 24 4a 3a 67 86 d4 3b d9 30 13 3b 11 5a 6f 3a
       0.00077111286 0.0064857486 0.0022459535 0.00091305474
000170 cf 85 a5 3b ec b3 a7 3b 28 0f fe 3b 9d ee f2 3a
       0.0050513516 0.005117884 0.0077532716 0.0018534247
000180 75 3a 14 3a 8a dd 7e 3b 42 90 15 3c 25 8d 94 39
       0.0005654463 0.0038889372 0.009128632 0.0002833392
000190 5a 81 22 3a 86 c0 35 3b 31 ff 1f 3c 6a 63 9b 39
       0.00061990845 0.002773316 0.009765432 0.00029637973
0001a0 37 68 d8 3a 4e 7b 74 39 11 dd 38 39 cb 07 9f 3b
       0.0016510551 0.00023315588 0.00017629961 0.004853224
0001b0 ad 7e 1f 39 38 0b f8 3b 2d e8 14 3c ce 0f b5 3a
       0.00015210612 0.0075696968 0.009088558 0.0013813914
0001c0 63 48 ac 3c fa 11 a2 3c 29 f9 14 3a 4c 25 45 39
       0.02103061 0.019783963 0.000568288 0.00018801278
0001d0 60 ea 86 39 0b 4f ec 38 34 77 8c 3b d0 21 96 39
       0.00025733095 0.0001126808 0.004286671 0.00028635422
0001e0 f4 6e 8f 3b 08 77 51 3c a0 bd 24 3b 02 02 d8 3b
       0.0043772403 0.012784727 0.002513744 0.006592036
0001f0 c5 4d 44 3a 79 6b 0a 3b 56 df 81 3b c2 32 a6 3b
       0.0007488395 0.0021121188 0.0039633913 0.005071969

conv2.bias f4 [128]
000000 c2 1a c3 37 88 83 2b 38 85 88 33 b8 31 dd 31 39
       2.3258272e-05 4.0892075e-05 -4.280407e-05 0.00016962436
000010 dd 0d a6 b9 d8 1c 86 3b 3f c4 b6 39 a0 32 0d b9
       -0.00031672316 0.004092794 0.0003485996 -0.00013465667
000020 8c 67 d4 bb 25 9c 5d 39 6f 19 87 b9 c0 73 05 38
       -0.0064820703 0.00021134371 -0.00025768156 3.181747e-05
000030 f9 a7 55 39 7d 67 8a b7 c2 ee ca 38 6f 10 01 b9
       0.00020375838 -1.6499072e-05 9.676583e-05 -0.0001230852
000040 7f ea 13 bc fd 53 d2 b8 6a 31 12 b9 bf e1 82 3b
       -0.009028076 -0.00010029224 -0.00013942053 0.003994196
000050 79 e0 6b b8 22 5f 9d b9 13 cd 8f 37 2d a2 c9 b7
       -5.6237423e-05 -0.00030016253 1.7142424e-05 -2.4036586e-05
000060 87 44 ab 38 8c 86 82 38 c6 9f 5a 39 62 20 0b 38
       8.1666796e-05 6.2239444e-05 0.0002084962 3.317034e-05
000070 4f 5e 82 37 ea b7 fc 38 b7 65 9e bb 7d e1 8e 39
       1.5541124e-05 0.00012050553 -0.0048339027 0.00027252352
000080 06 0a e2 b8 16 00 48 b9 6c 94 07 3a 7b 1e be 3a
       -0.00010778387 -0.00019073518 0.0005171958 0.0014504933
000090 88 f8 2f 39 d4 ba 3d 39 78 09 8c 37 fd 05 d5 b9
       0.00016781886 0.00018094043 1.669371e-05 -0.00040630987
0000a0 c9 c2 8e b9 4f 25 bd b8 cf e8 e2 3a e7 fd 85 b8
       -0.00027229477 -9.0191716e-05 0.0017311814 -6.389227e-05
0000b0 7d 62 ea b9 e6 78 8d 38 00 89 ad 38 39 60 8a b9
       -0.00044705337 6.745923e-05 8.274801e-05 -0.00026393103
0000c0 09 1c 79 39 36 90 2b 39 03 ae a2 b8 d7 5a 09 3a
       0.00023756934 0.00016361554 -7.757174e-05 0.00052396714
0000d0 3c 27 0a 39 22 39 cc 3a 60 e1 b3 b7 f6 fe 27 ba
       0.00013175322 0.0015580992 -2.1443411e-05 -0.00064085366
0000e0 02 88 81 37 76 c7 55 37 6f 5d c4 39 5e 29 26 b9
       1.5441332e-05 1.274223e-05 0.00037453647 -0.00015846404
0000f0 71 32 81 b9 6a d7 a5 38 14 ec 99 b8 62 e8 62 b9
       -0.0002464238 7.907937e-05 -7.3395815e-05 -0.00021639609
000100 83 db af b9 5f bd 3e b9 bb bf f3 37 1c e2 5a b8
       -0.0003354215 -0.00018190358 2.9057139e-05 -5.218583e-05
000110 63 59 99 39 77 1d c0 38 10 6f 9e 39 68 0e 41 b8
       0.00029249032 9.160762e-05 0.00030218856 -4.6028203e-05
000120 1c d9 9c b9 14 0c a2 ba 28 4d 28 b9 2a fe d4 38
       -0.00029916398 -0.0012363219 -0.00016050471 0.000101562895
000130 9d 4a d4 38 80 1e 9a b8 15 31 aa b8 ad 93 72 38
       0.000101228456 -7.348973e-05 -8.115374e-05 5.783483e-05
000140 1d 18 54 38 43 5d 4c 39 9a d5 31 39 e8 ec 13 bb
       5.0567196e-05 0.00019489699 0.00016959608 -0.0022571627
000150 58 35 83 39 64 48 18 3c f9 4b a6 38 6e c3 6c b8
       0.0002502601 0.009294603 7.929648e-05 -5.6448793e-05
000160 0c 06 ef 38 74 db 4f b8 4b b2 41 39 50 a4 cc b9
       0.000113975344 -4.9557028e-05 0.00018472334 -0.00039032334
000170 3a d6 e3 38 85 82 23 b8 27 8c 11 39 75 45 42 b9
       0.00010864106 -3.8983784e-05 0.00013880488 -0.00018527156
000180 87 f9 a4 38 81 95 e9 38 3d 31 26 b9 42 08 40 b8
       7.8666075e-05 0.00011138153 -0.00015849336 -4.5784058e-05
000190 63 c6 a7 39 04 c5 d8 b9 e5 00 b7 b8 5d 70 65 b9
       0.00032000532 -0.0004134552 -8.7262866e-05 -0.00021881
0001a0 0b f3 c2 ba 4f af 51 b9 2e 09 d7 b8 db 84 cf b8
       -0.0014873458 -0.00019997101 -0.00010253709 -9.8952754e-05
0001b0 a1 f8 17 39 02 1c 7f b8 95 f2 22 39 00 dd 89 39
       0.00014493104 -6.0822822e-05 0.00015539893 0.00026295334
0001c0 fe 75 ef b9 fb a1 73 3b 9b c1 26 b8 b0 f3 ab 39
       -0.00045673543 0.0037175405 -3.9757793e-05 0.00032797223
0001d0 04 10 8a b8 6c 2e 1c 3b d3 65 1b b7 17 ca c9 37
       -6.583336e-05 0.002383138 -9.262428e-06 2.4055173e-05
0001e0 dd 0a b4 b9 30 33 df 38 2a a5 09 b8 e5 63 45 b8
       -0.0003434037 0.00010643003 -3.2817166e-05 -4.7061494e-05
0001f0 af d8 71 39 be 4f 3c 38 07 c5 d6 b6 4a b1 67 b9
       0.00023064272 4.489696e-05 -6.400634e-06 -0.00022095922

conv2.lin.weight f4 [128, 128]
000000 93 1c f1 bd cc 9c 2b 3e 16 21 21 3e 25 17 7c 3c
       -0.11773028 0.16759032 0.15735278 0.015386377
000010 8b dc d3 bd 21 62 5d 3c 98 07 ed bd f9 9c 10 3d
       -0.103447996 0.013512165 -0.11573714 0.03530595
000020 fc 0e 3b 3d 3c a7 04 3d 8d e4 59 bd 90 72 e1 3b
       0.045668587 0.03238605 -0.05319648 0.006880112
000030 0f 83 4f bd e9 dc 1f bd 02 71 35 3e 63 3c 5b bc
       -0.050662097 -0.039029036 0.1771889 -0.013381097
000040 ef 4b 06 be 8e 41 aa 3c f7 86 82 bd 5e a5 4c bd
       -0.13114904 0.020783212 -0.06373399 -0.049962394
000050 f0 89 cc 3d 7b 84 0f 3e 13 d1 20 3e 55 e7 2f bd
       0.09987247 0.14015381 0.15704755 -0.042945225
000060 42 58 63 3d b1 e4 b6 bd 02 9e ab 3c df 66 ff 3d
       0.05550409 -0.08930338 0.020949367 0.12470793
000070 19 6d 14 be e1 49 8f bd 05 7c 14 3e 62 14 e8 3d
       -0.14494742 -0.06996513 0.14500435 0.11332013
000080 dc 35 87 3d 3c 8c cd bd c2 27 82 3e 76 bb 20 bc
       0.0660207 -0.10036513 0.25420958 -0.009810319
000090 84 94 cb bd 14 d4 9d bd 41 4b b9 bd fc 86 28 be
       -0.099404365 -0.07706466 -0.09047557 -0.16457742
0000a0 0f 5b 43 3d e4 fd a8 3d 9d a4 d9 3d d8 19 99 3c
       0.047694262 0.08251551 0.106271006 0.018689081
0000b0 65 c1 6b 3d a9 7e 95 bd 8b 1e 0b 3c 3a e9 12 be
       0.057557482 -0.07299549 0.008491169 -0.14346781
0000c0 86 00 a6 3d b0 bf 23 3e e2 8b be bd 8a 72 1b 3b
       0.081055686 0.15991092 -0.09304024 0.0023719394
0000d0 60 09 aa 3d 90 c3 f5 bd 24 56 7f 3c a0 de 9d bd
       0.083025694 -0.12000191 0.015584502 -0.07708478
0000e0 6a 64 f6 bd 5e 22 04 3e 8e 4b d7 bd 7c 6c 1a 3e
       -0.12030871 0.12903735 -0.10512458 0.15080446
0000f0 3e 38 30 3b 77 60 27 3e 5c 9d 7c 3d a7 79 2e 3c
       0.0026888992 0.16345392 0.061673507 0.010649121
000100 6f a1 7b 3d 72 dd 7c 3d 3a c8 cd 3d d5 37 c5 3d
       0.061433252 0.061734624 0.10047956 0.0962979
000110 13 5e 09 3e df ff 05 bd de 40 ec bd ab 6b c3 3d
       0.13414793 -0.03271472 -0.1153581 0.095420204
000120 39 7a d9 bd 50 8c d0 3c 50 06 2d 3e 9a 5b 18 3e
       -0.10619015 0.025457531 0.1689694 0.14878693
000130 26 33 04 be 06 47 94 bd 1c 2c c1 bd d2 21 cc 3d
       -0.12910137 -0.07240109 -0.09432241 0.09967388
000140 30 8b 10 bd 45 1e 0b 3d e9 ed dd 3d d8 b4 b9 3d
       -0.03528899 0.033964414 0.108363934 0.09067696
000150 f2 cf 48 bd 96 06 0c 3d 81 e0 01 3e e2 e0 87 bc
       -0.049026437 0.03418597 0.12683298 -0.016586725
000160 d4 8e a0 3d b5 ae f5 3d 19 40 7d 3d fc a5 e3 ba
       0.07839742 0.11996213 0.061828706 -0.0017368193
000170 f7 46 bd bb 25 62 9e 3a 54 97 14 be 9b ee aa 3d
       -0.005776282 0.0012083693 -0.14510852 0.08346292
000180 d5 ec ff 3c 83 56 ef bb 17 e9 22 be ec 64 61 bc
       0.03124086 -0.007304014 -0.15909229 -0.013756972
000190 77 56 49 3e 24 85 ec 3d f9 67 65 3d 05 b0 5a 3d
       0.1966189 0.11548832 0.05600736 0.05339052
0001a0 c6 2b f1 3d 49 44 ee 3d ad 9f 4f 3d f6 21 ea 3d
       0.11775927 0.11634118 0.050689388 0.11432259
0001b0 18 10 00 3e f8 01 c9 3d 60 37 85 3d eb 55 8b 3d
       0.1250614 0.09814829 0.065047026 0.06803497
0001c0 d0 c0 1f be a5 c8 dd bd e3 f2 cf bd 0f 8e 21 3e
       -0.15600896 -0.108292855 -0.10153749 0.15776847
0001d0 69 1b 0c 3e b4 a3 68 3e 50 e4 a3 bd a4 2d 5a 3d
       0.13682331 0.22718698 -0.080025315 0.053266183
0001e0 3e 77 39 3d 11 72 a0 3d cd 89 ee bd 6a e5 03 3e
       0.045279734 0.078342564 -0.11647377 0.12880483
0001f0 77 d4 5b 3c 2c 50 4e bd ef 04 30 3e b6 68 a4 3b
       0.013417355 -0.050369427 0.17189382 0.0050173653
000200 c6 6e 2c 3d b0 09 05 be 61 12 0c 3c 4c e7 b7 bd
       0.04209783 -0.12991977 0.008549304 -0.08979663
000210 96 22 bc bd e0 c7 05 be 86 ce 59 3d 99 e0 f4 bc
       -0.09186284 -0.13064528 0.05317547 -0.029892253
000220 0c e5 2b 3e 68 37 03 be f8 18 a2 bd 58 f1 bf 3d
       0.16786593 -0.12814105 -0.07914919 0.093722045
000230 38 4c 17 3d 14 de 08 3e 75 89 b2 3d 09 72 f2 3d
       0.036937922 0.13365966 0.08717624 0.11838157
000240 f2 b0 e9 3d a5 b3 e5 3d a9 9d fd bd c9 ad 3a bd
       0.11410703 0.11215905 -0.12383587 -0.04557589
000250 6b 6a 16 3d c4 ec bc 3d 8d 43 9b 3d c9 48 1f 3e
       0.03672258 0.09224847 0.07581244 0.15555109
000260 72 57 18 3d b0 73 e6 bd 34 2e e7 bd 06 de ab bd
       0.03719277 -0.112525344 -0.112881094 -0.08391957
000270 c3 15 a8 bd 86 d2 03 bc 97 98 08 3d 1b f5 88 bd
       -0.08207276 -0.008045798 0.033348646 -0.06687375
000280 2b e7 c2 3d 39 ad 0b 3e 01 b7 5c 3d 75 4a 3e 3d
       0.09516748 0.13640298 0.053885464 0.046457727
000290 76 3f 5f 3d 9f 91 e6 bd 1e 49 2d be 90 ac 06 3e
       0.05450388 -0.11258244 -0.16922423 0.13151765
0002a0 5f 69 26 3e 52 da 65 bd 78 61 de bd b8 e2 9a 3d
       0.16251133 -0.05611641 -0.108584344 0.075627744
0002b0 12 cf 58 bd 73 82 ab 3d d4 13 c5 3d 32 e9 43 3d
       -0.052931853 0.083744906 0.096229225 0.047829814
0002c0 aa 9e 04 bd 8f c0 08 3e 6f d7 d0 3d 2a 9b a6 3d
       -0.032377876 0.13354705 0.10197341 0.08135064
0002d0 75 de 09 be da f7 a3 bd 7e cb 6b bd bd 83 bd bd
       -0.13463767 -0.08006258 -0.057567112 -0.09253643
0002e0 bd 7f 19 bd 30 fc 05 bc 07 c3 1f 3e 95 d4 6b 3d
       -0.037475336 -0.008177802 0.15601741 0.05757578
0002f0 cd fd 39 bd a8 28 cc 3d 74 cd 55 bd c2 4a 6d bc
       -0.04540806 0.09968692 -0.05219789 -0.014483156
000300 72 d8 35 be cd 62 bd 3b e2 4c b4 bd ac b5 8c 3d
       -0.17758349 0.0057796002 -0.08803727 0.06870589
000310 b8 2a 43 bd 99 f0 01 3e 81 a7 6e bc ed bf a8 3d
       -0.04764816 0.12689437 -0.014566303 0.08239732
000320 0d 18 29 3d 0a 8e eb bd 16 3c 82 bd 12 05 0a be
       0.041282702 -0.11501701 -0.06359117 -0.13478497
000330 c5 4e ac 3d c1 19 51 bd 95 9e f6 3d 99 ee 0f bd
       0.084134616 -0.05104995 0.12041966 -0.035139654
000340 3c 41 70 3c 79 12 2b be f4 0d 74 bd e3 be 1d be
       0.014663991 -0.16706266 -0.05958362 -0.15404849
000350 7c 09 c9 bc ef 2d 41 bd fa bd 1c be 60 83 03 be
       -0.024540655 -0.047162946 -0.15306845 -0.12843084
000360 e0 f1 ef bc 1c 99 3f bd e9 91 e1 bc ac fb 98 bc
       -0.02929014 -0.046776876 -0.027535396 -0.018674694
000370 56 c3 f0 bc a3 5f c7 bd af f7 3f 3e 97 fd 68 3d
       -0.029390018 -0.09735038 0.18746828 0.056882467
000380 b7 d2 23 3d ed 1c 86 3d be d4 c0 bd eb e7 f1 3d
       0.039995875 0.06548486 -0.09415577 0.11811813
000390 83 9c b6 3d 12 23 b2 3d f7 76 0d be 09 d0 58 3e
       0.08916571 0.086980954 -0.13814913 0.21173109
0003a0 f7 27 0a bd 32 93 bb b9 3d a9 23 3e 7f dd b0 bd
       -0.03372952 -0.00035777088 0.15982528 -0.08635997
0003b0 7a a6 22 3e 85 5f 61 3d 4d 13 9e bd 7e 16 a9 3b
       0.15883818 0.055022735 -0.07718525 0.005160152
0003c0 10 20 c9 3d 0e c3 68 3d 97 db b1 bd 7a 2e 0b 3d
       0.098205686 0.056826644 -0.086844616 0.03397987
0003d0 bc 93 58 3d 62 57 64 3d f3 36 73 3d d9 8b ee bd
       0.052875265 0.055747397 0.059378576 -0.116477676
0003e0 73 82 13 3d c2 ba 0c bd ae 66 fa 3c 8f 17 45 3d
       0.036013078 -0.034357794 0.03056654 0.04811817
0003f0 c7 1d 04 3e bd a0 d3 3d f1 cc 27 be be f1 32 bd
       0.12901984 0.10333393 -0.16386773 -0.043687575

bn2.module.weight f4 [128]
000000 3e 22 84 3f 1a e6 81 3f cd f2 61 3f f0 db 71 3f
       1.032295 1.0148346 0.8826111 0.94476223
000010 2d 51 78 3f 14 24 89 3f ac 95 7c 3f 18 77 6b 3f
       0.96998864 1.0714135 0.9866588 0.919786
000020 7f f4 a2 3f 3d f6 70 3f a3 d2 7c 3f 3c d0 81 3f
       1.2730864 0.9412573 0.98758906 1.0141673
000030 c7 1e 77 3f dc 6c 7a 3f 36 98 73 3f 0f d9 77 3f
       0.9653134 0.97822356 0.9515413 0.9681558
000040 af 47 a5 3f b7 63 72 3f 3d 76 7b 3f 30 a7 94 3f
       1.2912501 0.946834 0.9822729 1.1613522
000050 55 ac 60 3f cd e8 66 3f 07 fa 88 3f ec 3b 71 3f
       0.8776296 0.90198976 1.0701302 0.9423206
000060 f3 7d 84 3f 40 f7 69 3f 40 18 70 3f ea 01 82 3f
       1.0350937 0.913929 0.93787 1.0156834
000070 1b 7b 7b 3f 5c 47 7f 3f 9c 71 81 3f b7 c6 6d 3f
       0.9823472 0.9971826 1.0112796 0.9288134
000080 3d fe 67 3f 30 96 80 3f 05 94 6c 3f 82 0f 8a 3f
       0.9062231 1.0045834 0.9241336 1.0785983
000090 ba ff 6b 3f 95 99 6c 3f 2c 09 69 3f 86 90 70 3f
       0.9218708 0.9242185 0.9102962 0.93970525
0000a0 2a 8b 75 3f 8a 07 79 3f e1 c3 76 3f f9 d0 70 3f
       0.9591547 0.9727713 0.9639264 0.94068867
0000b0 7f 22 81 3f 6d e8 7a 3f b0 ca 7e 3f 49 51 6c 3f
       1.0088652 0.98010904 0.99528027 0.9231153
0000c0 a7 45 70 3f b2 59 6e 3f b1 05 68 3f 6c b8 60 3f
       0.9385628 0.93105614 0.90633684 0.87781405
0000d0 47 0e 8b 3f a1 19 8d 3f 6a 9d 68 3f e2 74 74 3f
       1.0863732 1.1023446 0.90865195 0.9549085
0000e0 ea a4 79 3f af 14 77 3f cc 02 7b 3f c8 11 79 3f
       0.97517264 0.96515936 0.9805114 0.9729276
0000f0 e1 63 81 3f 7d 08 80 3f 8d 05 87 3f 9e 68 75 3f
       1.0108606 1.000259 1.0548569 0.9586276
000100 27 ee 85 3f 25 3e 7e 3f c3 dc 74 3f c5 24 79 3f
       1.0463303 0.99313575 0.95649356 0.9732173
000110 df c9 7b 3f d7 17 73 3f 56 f4 79 3f ef f6 7b 3f
       0.98354906 0.9495825 0.9763845 0.98423666
000120 f9 4c 85 3f 05 7a 8c 3f 98 19 85 3f 5a ca 82 3f
       1.0414115 1.0974737 1.0398436 1.0218003
000130 d2 6a 6c 3f 7e 80 7c 3f 11 38 72 3f f3 b9 79 3f
       0.92350495 0.98633564 0.946168 0.9754936
000140 14 5a 73 3f 8b 64 75 3f 34 84 6e 3f 80 a1 8a 3f
       0.95059323 0.9585654 0.93170476 1.0830536
000150 6b d1 64 3f b3 12 9a 3f 1c b9 80 3f 17 db 84 3f
       0.89382046 1.2036957 1.0056491 1.0379361
000160 e7 18 83 3f de c7 80 3f 44 5a 83 3f b2 09 67 3f
       1.0241975 1.0060995 1.0261922 0.9024917
000170 38 14 77 3f c6 5a 7c 3f 7d 96 77 3f 33 ee 73 3f
       0.96515226 0.9857601 0.96714 0.9528534
000180 43 31 81 3f b6 86 6f 3f 79 f8 76 3f 8b d1 7e 3f
       1.0093158 0.9356493 0.9647289 0.9953849
000190 aa 65 65 3f 8f 90 68 3f 44 1e 77 3f 00 ba 78 3f
       0.8960825 0.9084558 0.96530557 0.97158813
0001a0 8d d9 84 3f b2 76 81 3f 42 1e 7a 3f 5e 1c 71 3f
       1.0378891 1.0114348 0.9770242 0.9418391
0001b0 93 64 85 3f 29 a5 7c 3f 1f d5 81 3f 26 9a 66 3f
       1.0421318 0.98689514 1.0143164 0.9007896
0001c0 a7 4c 81 3f 7c 63 98 3f 05 f0 67 3f 61 1f 5e 3f
       1.0101517 1.190536 0.90600616 0.8676663
0001d0 f7 0b 71 3f ea 9f 79 3f 32 ea 78 3f 3d 5f 78 3f
       0.9415888 0.97509634 0.97232354 0.9702032
0001e0 84 69 77 3f 7e c1 61 3f be 4a 71 3f a2 61 83 3f
       0.9664538 0.8818587 0.9425467 1.026417
0001f0 36 27 5a 3f 42 91 68 3f d7 5b 76 3f a2 a5 79 3f
       0.8521608 0.90846646 0.96233886 0.9751836

bn2.module.bias f4 [128]
000000 1f 7b 2f bd b8 a7 00 bd be c5 9a bd 63 88 00 be
       -0.042842027 -0.03140995 -0.075572476 -0.12552027
000010 8f d8 9e bc 7d e9 0e be 9a 25 2f bd 7c ea bb bd
       -0.019390373 -0.13956256 -0.04276047 -0.09175584
000020 c8 3b 4d bd 35 99 44 be 05 92 03 bd 3a b5 00 be
       -0.05010584 -0.19199069 -0.032121677 -0.12569132
000030 e4 d3 ae bd 55 8b 87 bd cf d2 0c 3d 83 d8 cb bd
       -0.08536509 -0.06618372 0.03438073 -0.09953406
000040 53 bd 0f bd 1f 11 ab bd 1e 27 22 bd e7 52 08 be
       -0.035092663 -0.08352875 -0.039588086 -0.13312875
000050 4d 47 f6 bd 85 e0 13 be cf 0a fc 3b 88 97 01 be
       -0.12025318 -0.14441116 0.007691718 -0.12655461
000060 d0 2a 6e bd 0b 02 96 bd ce ed 63 bd 70 71 cd bd
       -0.058146298 -0.073246084 -0.05564671 -0.10031402
000070 d5 ef d1 bd 76 e9 af bd c0 bf 17 be 6e e0 b7 bc
       -0.102508225 -0.08589451 -0.1481924 -0.022445884
000080 bc ec 20 be e8 76 d9 39 10 6f d6 bd 19 73 d4 bd
       -0.15715307 0.00041478057 -0.10470402 -0.10373516
000090 a5 2b b9 bd 58 7c a9 bd f6 30 03 be 8c 6f 34 bd
       -0.09041528 -0.0827567 -0.12811646 -0.044051692
0000a0 92 a3 81 bd b8 ed bc bd c7 67 20 be e4 a4 35 bd
       -0.06330027 -0.09225029 -0.15664588 -0.044346705
0000b0 8c c6 b7 bd 21 df b0 bd 32 02 8c bd de dc bd bd
       -0.08973417 -0.086363085 -0.06836356 -0.09270643
0000c0 1d 59 5e bd 26 5a 73 bd d8 aa b1 bd 1a cc 13 be
       -0.054284204 -0.059412144 -0.08675164 -0.14433327
0000d0 3a bc c6 bd 08 2f db bc d1 53 93 bd c7 fb a2 bd
       -0.0970387 -0.026755825 -0.07193721 -0.07958179
0000e0 32 3f 1e bd c5 28 61 bd fc 96 89 bd ef b1 c9 bc
       -0.038634486 -0.05497052 -0.06718251 -0.024620978
0000f0 0d 38 52 bd e9 97 a7 bb ae 4a 9f bd 73 79 b0 bd
       -0.051322985 -0.0051145446 -0.07777916 -0.086169146
000100 1d 31 8b bc 19 9d 3e 3b d9 ca a3 bc bf 55 77 3c
       -0.016991192 0.0029085337 -0.019994186 0.015096127
000110 93 59 61 bb 9f a4 43 39 2a 22 dd bb 5d 4e 5b 3b
       -0.0034385666 0.00018657975 -0.0067484574 0.0033463456
000120 b2 7e 03 3d 1e c5 01 be 74 7d 98 bd 77 83 c8 bc
       0.032103248 -0.1267285 -0.07445803 -0.02447675
000130 fe 00 e8 bd ee 5d d4 bd 9e 98 ba bd 0f f8 93 3b
       -0.11328314 -0.10369478 -0.09111141 0.004515655
000140 9b 5a 50 bd 2c 83 0d bd 80 0a de bd 87 f2 ab bd
       -0.050867658 -0.034548923 -0.108418465 -0.08395868
000150 2c 9b 02 be 28 ab 64 be 57 a8 12 3d df ea 29 3c
       -0.12754506 -0.22330916 0.035805073 0.010370939
000160 02 b5 75 bd 61 19 09 bd cc d6 1d 3b f7 41 26 be
       -0.059987076 -0.03347147 0.0024084328 -0.16236101
000170 09 4b 6e bd 46 b4 e3 bd b9 d2 4f bd 94 99 f5 bd
       -0.058177028 -0.11118369 -0.05073807 -0.11992183
000180 18 7f 6e bc 58 ae 04 be eb 3b e4 bd dd 67 b5 3c
       -0.014556669 -0.12957132 -0.11144241 0.022144252
000190 52 41 0e be 0d c7 2c be 08 be 26 be 45 65 6b bb
       -0.13892105 -0.16872807 -0.16283429 -0.0035918516
0001a0 48 56 5c bd a4 ad 26 bb 6c 43 b0 bc 0d f5 04 be
       -0.05379322 -0.0025433088 -0.021516524 -0.12984104
0001b0 a3 19 7f 3c bb aa 95 3c 43 e9 31 bd 31 c2 7c bd
       0.015570077 0.018269887 -0.043435346 -0.061708633
0001c0 f6 0d 57 bd 79 56 1f be 81 61 97 bd b5 29 9a bd
       -0.05250355 -0.1556033 -0.07391644 -0.07527486
0001d0 56 7e a9 bd 90 c4 6d be 48 20 9f bd 2e 9b 3a bd
       -0.0827605 -0.23219514 -0.07769829 -0.045558147
0001e0 c0 36 0a be 55 23 b5 bd a4 5b 8d bd 37 dc 49 bd
       -0.13497448 -0.0884463 -0.06902245 -0.04928228
0001f0 51 86 03 be 00 fc ab bd f4 97 a9 bd ce 2d 24 bd
       -0.12844206 -0.083976746 -0.08280936 -0.040082745

bn2.module.running_mean f4 [128]
000000 02 4e 44 3f 38 5a 28 3e 6f b7 a3 be fe 66 31 bf
       0.7668153 0.16440666 -0.31975886 -0.6929778
000010 9a df bd 3e cd 56 dc 3f 0a 39 ef 3e dc 88 fe 3d
       0.37084657 1.721399 0.46723205 0.124284476
000020 54 0b cd bf c3 80 1f 3d dc 7d 96 3e 88 e7 e5 3e
       -1.6019082 0.038941156 0.29392898 0.44903207
000030 bb fc 7d 3c 31 50 c0 bd 4b 9d b7 3e 68 8e cc be
       0.01550215 -0.09390295 0.35862193 -0.39952397
000040 d7 07 d8 bf ce 4f 00 be fa 86 73 3e 20 0c a9 3f
       -1.6877393 -0.12530443 0.23781958 1.3206825
000050 03 02 0e be ef c1 d2 3e 59 7f b3 3e 50 e8 a3 be
       -0.13867955 0.41163585 0.35058096 -0.32013178
000060 cd 24 02 bf 4d b2 21 bf 4c 54 af be 21 d3 98 be
       -0.50837404 -0.6316269 -0.34244 -0.2984858
000070 b8 63 dd be 10 4b 78 bf 59 8a a2 bf 42 55 87 be
       -0.43240142 -0.96989536 -1.269847 -0.26432234
000080 78 6e 9d be 14 85 98 be b7 ab 04 bf 1a ac ad 3f
       -0.30748343 -0.2978903 -0.51824516 1.3568146
000090 24 79 d6 be 2c e2 55 bf 9c 42 12 be 13 31 93 bc
       -0.41889298 -0.83548236 -0.14283222 -0.017967736
0000a0 ca 56 d5 3e 0f 42 78 be a1 4c 8e 3f 83 17 1e 3f
       0.41667777 -0.2424395 1.1117135 0.61754626
0000b0 6a 3f 38 3f a5 e7 c2 be 04 3d f5 be 4f 2a 8a be
       0.7197176 -0.38067356 -0.47898114 -0.26985404
0000c0 b8 f0 47 be e7 9e b8 be 22 18 69 3e 2e 55 d0 bc
       -0.1952542 -0.36058733 0.22763112 -0.025431242
0000d0 42 3a 5c bf 7a fc a7 3f 68 2e ad 3e 3a 92 fd 3c
       -0.86026394 1.3123925 0.33824468 0.030953515
0000e0 0e 99 4e be e3 00 18 3f b0 df 53 bf a0 15 af 3e
       -0.20175573 0.59376353 -0.82763195 0.34196186
0000f0 80 25 09 bf ed 64 32 bf 27 2e 2c 3e 0b 54 3e bf
       -0.53572845 -0.6968525 0.1681448 -0.7434699
000100 3f ea e4 be a3 e3 f4 bd 7b 91 18 be be ea 94 be
       -0.44709966 -0.11957481 -0.14899246 -0.29085344
000110 e9 fe 2e be 22 5e 2d 3e 51 58 2c bf 47 3b 30 bd
       -0.17089428 0.1693044 -0.6732226 -0.04302528
000120 aa c4 30 bf e2 21 a4 bf 39 18 e9 3e 07 aa 96 bd
       -0.69050086 -1.282284 0.45526293 -0.07356649
000130 2c cc 94 3d c1 89 df 3e f5 d3 b1 3d 85 33 21 3e
       0.07265505 0.43659785 0.08683006 0.1574231
000140 90 54 c3 ba 0c f9 38 be af d8 28 bf 11 2b d3 bf
       -0.0014902521 -0.18063754 -0.6595563 -1.6497518
000150 c1 c9 8f bf 7a 23 05 40 12 2b 63 bf 71 53 9a be
       -1.1233445 2.0802903 -0.88737595 -0.30141786
000160 ad 40 72 3e 1e b1 9d bb ec e4 c2 bd 07 53 0d 3f
       0.23657484 -0.004812374 -0.0951632 0.55204815
000170 a3 47 bd be fe a1 10 bf 59 41 40 bf 0d 86 bc bd
       -0.36968717 -0.5649718 -0.7509971 -0.09205256
000180 ee c6 b8 3d 18 c2 c4 be b3 d4 9a be 35 29 41 3d
       0.09022318 -0.38429332 -0.30240402 0.04715844
000190 f8 f2 b4 bd fc cf 09 3f e5 54 2f bf b2 f9 8a be
       -0.08835405 0.53832984 -0.68488914 -0.27143627
0001a0 a9 d1 95 bf f3 9a 58 be d2 27 69 be d1 2b 20 be
       -1.1704608 -0.21152858 -0.22769096 -0.15641715
0001b0 7a be ef be 58 cd 7e 3d e4 4d ab bd d6 81 2e bf
       -0.4682501 0.06220755 -0.08364466 -0.68166864
0001c0 2d 65 12 3e f6 2c a5 3f 99 a0 e8 bd cc ce c2 be
       0.14296408 1.2904346 -0.113587566 -0.38048398
0001d0 20 5a f6 3e 76 79 5c 3f e2 be 90 3e c3 36 e8 be
       0.48115635 0.86122835 0.28270632 -0.4535428
0001e0 cf e6 df be 30 b8 88 be 2e 30 04 3e 18 b1 88 3e
       -0.4373078 -0.26703024 0.12909004 0.26697612
0001f0 88 91 99 be 2b 78 2a bf 6f 12 60 3d 33 9f e2 bc
       -0.29993844 -0.6658961 0.05470508 -0.027663803

bn2.module.running_var f4 [128]
000000 34 05 1a 3f 8d 53 c4 3f 2f c1 25 40 a9 78 0e 3f
       0.6016419 1.5337998 2.589916 0.5565286
000010 bc 38 75 3f 89 06 b9 3e 5f 90 2b 3f 6f d6 18 40
       0.95789695 0.36137798 0.6701717 2.388088
000020 3b 6b d0 3e f7 04 62 3f fe 3e 40 3f 3b 40 d9 3f
       0.4070681 0.88288826 0.7509612 1.6972727
000030 bb 5a 02 40 59 dc b9 3f 1b d5 9c 3f 92 89 28 40
       2.0367877 1.452037 1.2252535 2.6333966
000040 29 3c 1f 3f af ad e9 3f 0d ab be 3f 0c 6d e8 3e
       0.6220117 1.8256129 1.489595 0.45395696
000050 60 29 8c 3f 23 9b 4e 3f 6e e1 c8 3f e7 7d 15 40
       1.0950127 0.8070547 1.5693796 2.3358095
000060 e4 58 c1 3f 34 92 31 40 27 28 88 3f 67 b5 39 3f
       1.5105252 2.7745485 1.0637254 0.72542423
000070 19 ec a7 3f a0 87 c6 3e c5 aa a9 3e 82 c8 24 3f
       1.3118926 0.3877535 0.331381 0.6436845
000080 1f 0a da 3f 3d 67 75 3f fe 24 3b 3f 81 99 0e 3f
       1.7034339 0.95860654 0.7310332 0.5570298
000090 9c 19 4a 3f 62 87 e4 3f 56 cc e9 3f b5 2a 3e 3f
       0.78945327 1.7853816 1.8265483 0.74283916
0000a0 40 03 80 3f b6 8d ac 3f 0c fb e7 3e f9 15 0b 40
       1.0000992 1.3480747 0.4530872 2.173216
0000b0 fe d4 bb 3f ce 6d 53 40 70 a5 b0 3f bc 54 8e 3f
       1.4674375 3.303577 1.3800488 1.1119609
0000c0 03 08 ae 3e 4e d5 e6 3f f8 9a 56 3f c8 b3 04 3f
       0.33990487 1.8033845 0.83830214 0.51836824
0000d0 72 4d a7 3e f7 0a 2f 3f a8 17 45 3f 7c 9e 90 3f
       0.32676274 0.68376106 0.7698922 1.1298366
0000e0 03 97 4e 3f df 89 0a 3f 3f 83 96 3e 13 49 88 3f
       0.80699176 0.54116625 0.29397008 1.06473
0000f0 c5 38 b0 3f ea 20 dd 3f ed 43 3e 3f cc a1 2b 40
       1.3767325 1.727567 0.74322397 2.6817503
000100 51 82 c5 3f 18 57 cb 3f 03 db a6 3f 51 2a b5 3f
       1.5430394 1.5885954 1.3035587 1.4153539
000110 12 a0 86 3f ea ea 68 3f c6 f9 b3 3f db 9e 88 3f
       1.05176 0.9098345 1.40606 1.0673479
000120 ef bc 6b 3f 0d cb 01 3f 69 8c d3 3f 35 34 82 3f
       0.92085165 0.50700456 1.6527225 1.0172182
000130 05 fc 81 40 79 5e d5 3e 84 34 2a 3f 3d ed 82 3f
       4.062014 0.4167364 0.6648638 1.0228649
000140 87 47 b2 3f 37 bf 05 3f 71 d9 22 40 0a b9 fa 3e
       1.3928078 0.52244896 2.5445216 0.489693
000150 a5 e2 ee 3f 89 5d 03 3f cb a2 94 3e 98 02 01 40
       1.8662916 0.513146 0.2903045 2.0157833
000160 69 a0 0c 40 7f 6b c1 3f 70 51 00 40 19 40 8f 3f
       2.1972907 1.511093 2.0049706 1.1191436
000170 ac 8a 8c 3f d0 28 cc 3f ba ab d1 3e 7b fd 4b 3f
       1.0979819 1.5949955 0.4095133 0.79683656
000180 bb 69 1a 40 8e a6 cd 3f 3d c8 de 3f f8 9e 44 40
       2.4127033 1.6066453 1.7404858 3.0722027
000190 df 7a ab 3f 82 51 56 3f 11 7a 03 40 2c c5 b0 3f
       1.3396872 0.8371812 2.0543253 1.3810172
0001a0 82 6a 87 3e 68 c9 c1 3f a9 a6 28 3f ac 7c 5f 40
       0.26448447 1.5139589 0.65879303 3.4919844
0001b0 bf 8e 47 3f 46 24 3e 40 23 36 f6 3e 40 9e 36 3f
       0.7795219 2.970964 0.48088178 0.7133522
0001c0 ea f8 3b 3f 3a 5b 08 3f 7f b1 ce 3f 54 f5 7a 3f
       0.7342669 0.532642 1.6147918 0.9803059
0001d0 b0 ef d4 3f c9 28 ed 3e fa 61 1a 40 8e 25 2c 3f
       1.6635647 0.4632018 2.41223 0.67244804
0001e0 94 82 b8 3f 6a a4 8f 3f b7 d4 e0 3e ef 26 3a 40
       1.4414849 1.122205 0.4391229 2.9086263
0001f0 79 c6 cb 3f 76 76 d1 3f 4f 05 fc 3f e5 ab a6 3f
       1.5919944 1.6364276 1.968912 1.3021208
