Mini project III/models/vae.pth (torch, 454159 bytes, 32 tensors)

conv1.bias f4 [128]
00000000: 522f 103c b62b 9739 7fda 8d3d b10e 9d3c
00000010: 2c3e 88bd b3c9 9cbc b4a2 0a3c ce57 453b
00000020: e660 733a 089c 3b3c d7a9 de3d efde d33c
00000030: b869 dd3a ca6f d6ba 63e8 8c3b 582e f43c
00000040: bf8f 023b 6061 713c 5fad 323b 88ff 733c
00000050: aca6 083c 5ad7 8e3b 3432 4d3c bc2b cc3d
00000060: d24d d83b 0a33 e1b9 2647 e5ba ce18 c7bb
00000070: d0d4 433b 9a05 fe3b 6a50 87bb 4092 1fbb
00000080: 10b9 68bd 1f4a c63a 2e62 b83b 8e34 fe3b
00000090: 2f85 d43b b881 1a3d 2712 0e3c efb8 41bc
000000a0: 6629 e23b b4a8 973d be31 153b 2036 c53c
000000b0: d8ce bb39 781b 723b 0dea bb3c 540f 31be
000000c0: 8de9 54bb 24fd a83b 84d0 ac3b 7345 273b
000000d0: 474f 04bc b588 963b 6542 6abc 9da4 1bbe
000000e0: 1fca b03b c715 5ebd b0df e439 25d8 183c
000000f0: f1cc 2f3d 52ac 0dbc a1c7 8b3b ef1e ccba
00000100: 85e2 9e3b e91f 6b3d 07de d437 4ec9 93bc
00000110: 5469 d6ba 4283 023c 52d4 363c 3433 c53d
00000120: f0ea 9fbc 5115 bcbd 8eb2 113e 2bb3 263c
00000130: cf97 73bc 6327 2e3a cc36 453b 7614 8a3c
00000140: e16b 623c 1d7a 053c b592 3cbd 6c37 eabb
00000150: 0947 2cbe ee4c 343b 8277 82bc 2d8c ea3d
00000160: 18d3 353b dad8 b8ba 1978 0d3b 56ad f93a
00000170: 2ac7 1fbc 3d62 2c3c 9ff8 8fb8 08a2 92bb
00000180: f33d da3c 017d 543b bcdc 6b3b bf7f 213c
00000190: 6b2a 7d3d f380 f9b9 c1f9 173a 1fb4 b4bc
000001a0: a8d8 873a c285 a53c 5e42 2bbb 651f d8b9
000001b0: dd05 963b bcf3 9f3c 91b2 b9bb 18dc e23b
000001c0: b416 16bb 37fb 05ba 887d 973a ac0b 6fbb
000001d0: 8aae 833b 5c53 a5bc 0121 a23c b985 a83b
000001e0: 3d47 7d3b a12d 1bbe 7ebb 11bc 4807 ff3c
000001f0: d937 153c 9a24 25bc ece6 4db9 8b7e 69bc
0.008800345 0.00028833532 0.069264404 0.019172044 -0.06652483 -0.019139146 0.008461643 0.003011215
0.00092841533 0.011450775 0.10872238 0.025863139 0.0016892469 -0.001636022 0.0043001636 0.029807255
0.0019922105 0.014732689 0.0027263982 0.014892466 0.008340519 0.004359168 0.012524176 0.09969279
0.006601074 -0.0004295337 -0.0017492517 -0.006075955 0.0029881485 0.0077521326 -0.004129459 -0.0024348646
-0.056817114 0.0015128291 0.0056269383 0.00775773 0.0064856033 0.037721366 0.00867132 -0.011823877
0.0069019077 0.074052244 0.0022765244 0.02407366 0.0003582153 0.0036942642 0.022938753 -0.17291003
-0.003248784 0.00515713 0.0052738804 0.0025523573 -0.008075542 0.0045939335 -0.014298056 -0.15199514
0.0053951885 -0.054219987 0.0004365421 0.009328877 0.042920057 -0.008647041 0.004265741 -0.0015573184
0.0048487806 0.05740348 2.5375759e-05 -0.018040325 -0.0016358295 0.007965865 0.01115902 0.09628907
-0.019521207 -0.09183753 0.1422827 0.010174553 -0.014867737 0.00066434423 0.0030092476 0.01685546
0.013819666 0.00814679 -0.04603835 -0.00714772 -0.16823973 0.0027511674 -0.015926126 0.11452518
0.002774423 -0.0014102713 0.0021586476 0.001904885 -0.009752074 0.010521469 -6.865081e-05 -0.004474882
0.026640868 0.003242314 0.0035989722 0.009857117 0.06180803 -0.00047589056 0.0005797409 -0.022058545
0.0010364251 0.020205382 -0.0026132087 -0.0004122212 0.0045783357 0.019525401 -0.0056670387 0.00692321
-0.0022901716 -0.00051109813 0.0011557797 -0.0036475463 0.0040186094 -0.02018135 0.019791128 0.005142894
0.0038647198 -0.15154125 -0.008894799 0.031131402 0.009107553 -0.010079527 -0.00019636349 -0.014251362

conv1.lin.weight f4 [128, 7]
00000000: 9d1b e63d 8f6c b93d b8c6 323d e1bf 103e
00000010: f11d 5c3e f935 5e3d 65d8 fc3b cc99 163c
00000020: 62fa a6ba 7d96 363e 192b 57be 9b68 023e
00000030: 26ee a63b acc0 d7be d736 283e 6100 193e
00000040: 46b1 3f3e 89b1 a4bd 67c5 113e 7050 013e
00000050: 847c b93c 4a63 483e 02ea 303e a8e3 4d3c
00000060: fb7b 403e f709 a73d 1b28 c53c 5165 ab3e
00000070: 1047 07be cab5 edbd fccd 1cbe fb2a eabd
00000080: 27f0 2e3d b427 10be 438e 20bd 7fb2 d5bd
00000090: f9c0 17be 65cd 95bc 1d50 953e 1e32 03be
000000a0: bdf0 013e 7515 cfbd eed0 3c3e e8aa b13d
000000b0: 4d5a f73d a3b3 0b3e 893d a6bd c901 6c3c
000000c0: a709 2a3d f75c 7f3c 5d1f 1e3e ce20 1bbe
000000d0: 4222 e1bd a174 563e f335 1d3e 9da8 a23e
000000e0: 9f46 473e e881 14be d2d3 d4bd 7b50 543d
000000f0: 9bdf b33d 6773 e6bd a508 203e fed2 c3bb
00000100: d5be 9cbc 5fa0 c53d 28b7 3dbe f079 f0bd
00000110: f9f5 903c f291 7fbe 289e c73d ea9c e23d
00000120: 33f2 c83d cbfe b93d 5143 ad3d cd4f cd3d
00000130: beea ed3c f157 073e 7a13 513e f852 123e
00000140: e070 2abc 6e33 583e d4b8 993d 67c9 47be
00000150: 1fa7 bd3d b170 8c3d 3487 43be d122 343d
00000160: a758 91bd 01e0 e5bd 6e3e e7bd f6cc 0cbe
00000170: 5264 bf3d d395 233e a5a0 1e3e 5dbf 3cbe
00000180: 6cd7 0c3d 6d4f e23d 1890 d23d 53fe c2bd
00000190: bc02 c5bd 7340 243e 0ec2 babc 5158 de3d
000001a0: e3ca c23e 3257 67bd 4ab6 20be 2738 b6bc
000001b0: 9828 2a3d 8c1e d83d b35b 1f3d 843d b13c
000001c0: 6933 85be 1d5e 83ba b103 c0bd 066f 33bc
000001d0: eae9 98bd 2acb 06be aa38 fb3d 1c44 db3d
000001e0: 09c9 2e3e 7817 7f3d 12df 993d 483c 7dbe
000001f0: 73ad cf3d 1fce bd3e dc57 8c3d 5971 26be
00000200: 4194 6ebe 0bc8 043d 4bdf 92bd 4a2a 813d
00000210: 9003 913d c9ea 67be d4e7 a6bd 250f 31be
00000220: 4025 333e c8ac 793e c0f6 76bd b3b2 843e
00000230: 54d7 c93d 767f f03d 6c5e d43d 7690 31be
00000240: 1292 193e 112f 87bd 495c 39bd 2cd0 433d
00000250: 73eb 9b3c 5cc2 ac3d 7162 03be 8a58 0c3d
00000260: b9f3 a1bd e3a0 393e dbdb 73be b459 f6bd
00000270: 8a7e f2bc d270 4ebe fb10 c0bd 1e14 5ebd
00000280: 006d 813d cf80 543d 9889 953d 2308 883d
00000290: d2ca a93d 6de4 b63c a4f5 5f3d dda3 d5bc
000002a0: c59f 423e 30aa 70bd dbac 9bbc 1aaf e4bd
000002b0: 57c9 f6bd 1140 04be 87fc 603e 9ba4 43bb
000002c0: 4879 0e3e 9508 2c3e 6c0d 01be 4f12 183c
000002d0: 2cec 5bbe e59a 89be dca3 dabd 3346 8ebc
000002e0: f319 183e 75e4 023e e304 6a3e 88c3 6f3d
000002f0: 9bf1 4d3d 6949 ce3d f03c 193e e03f f83d
00000300: f141 043e 6051 813e ca91 893d 4fe6 97be
00000310: 3f3f f93c 7d6b 013c a5d8 83be 82ca 3cbe
00000320: c1d3 c13d c2e1 ec3d b11b 2e3e 4e53 edbd
00000330: 580e 5fbe e535 003e 705a 31be 152f e3bc
00000340: d85b babd 30f8 2bbc 8c2f 963d d7bc 663c
00000350: 7511 8bbd ee3c 893d 4ada c0bd 1a22 b3bd
00000360: c152 303e 3fb5 09bd b383 f23d 6a2a 313e
00000370: 2f52 083e 0666 e23c 0c55 a5bd 57a9 35bd
00000380: 24cb c9bd 1bf7 9cbd 86c6 d7bd 1aaf 0ebe
00000390: 0788 763e fdb9 0ebe bbf5 63be 8d19 42bc
000003a0: 7f23 f23d a422 ddbd 463f 443e f57a fbbc
000003b0: 762e 5c3d e684 07bd 6411 063d a251 3ebe
000003c0: dded 4b3e 34ae 523e 19af df3d dce5 3d3e
000003d0: beaa e6bb aa7b 5c3e 222f e13c c1b1 b9bd
000003e0: f559 173e d5cd 1bbe 680e 153e 7904 ae3e
000003f0: 247f fabc fe26 14be f3bc 473e a8a5 af3d
0.112357356 0.09053909 0.043646544 0.14135696 0.21495797 0.05425069 0.007716226 0.0091919415
-0.0012739415 0.17830844 -0.21012534 0.12735216 0.0050943075 -0.42139184 0.1642717 0.14941551
0.18719968 -0.08041675 0.1423546 0.1262834 0.022642381 0.19569126 0.17276767 0.0125664845
0.18797295 0.081561975 0.024066975 0.33475736 -0.13210702 -0.11606939 -0.15312952 -0.11433979
0.042709496 -0.14077646 -0.03919817 -0.10434436 -0.14819707 -0.018286416 0.29162684 -0.12812087
0.1268949 -0.101115145 0.18439075 0.08675176 0.120777704 0.13642745 -0.08117206 0.0144047225
0.04151311 0.015586129 0.15441652 -0.15149233 -0.10992862 0.20942928 0.15352611 0.31769267
0.19460534 -0.1450268 -0.10391964 0.051834565 0.08782884 -0.1125248 0.15628298 -0.00597608
-0.019133965 0.09649729 -0.185269 -0.11742008 0.017695414 -0.24958017 0.09746963 0.11065085
0.09811821 0.09081801 0.08460105 0.100249864 0.029042598 0.1321714 0.20417586 0.14289463
-0.010402888 0.21113369 0.07505956 -0.19510423 0.092603914 0.06857432 -0.19094545 0.043978516
-0.07096987 -0.11224366 -0.112912044 -0.13750061 0.093453065 0.15975122 0.15490969 -0.18432374
0.03438513 0.110503055 0.1028139 -0.09521165 -0.09619662 0.1604021 -0.02279761 0.10856689
0.38045415 -0.05647964 -0.15694538 -0.022243572 0.04154262 0.10552701 0.03890581 0.021635778
-0.26015785 -0.0010022555 -0.09375704 -0.010951763 -0.074664906 -0.13163438 0.12266667 0.1070635
0.17068876 0.06227824 0.075132504 -0.24730027 0.10140505 0.3707132 0.06852695 -0.16254176
-0.23298742 0.03241734 -0.07171496 0.06306894 0.070807576 -0.22648157 -0.081496865 -0.17290933
0.17494678 0.24382317 -0.060293913 0.25917587 0.09855524 0.11743061 0.10369572 -0.17340264
0.14997128 -0.06600774 -0.045254026 0.04780595 0.01903317 0.084355086 -0.12830521 0.034264125
-0.079078145 0.1812778 -0.23814337 -0.12028828 -0.029601354 -0.20160225 -0.09378239 -0.054218404
0.06319618 0.051880654 0.073016346 0.06642177 0.08290638 0.022325719 0.05467762 -0.026079113
0.1900626 -0.058756053 -0.019003322 -0.111662105 -0.12050121 -0.12915064 0.21971332 -0.0029852751
0.13913453 0.16800149 -0.12602776 0.009281709 -0.21476811 -0.26875988 -0.10675785 -0.017367458
0.14853649 0.12782462 0.22853427 0.058536083 0.05027924 0.100725956 0.14964652 0.12121558
0.1291578 0.25257397 0.0671726 -0.296679 0.030425666 0.007899162 -0.25751224 -0.18436626
0.09464217 0.115664974 0.17002751 -0.11588155 -0.21782815 0.12520559 -0.17319655 -0.027732411
-0.09099549 -0.010496184 0.073332876 0.014083109 -0.06790439 0.067010745 -0.09416635 -0.08746739
0.17219068 -0.033620115 0.11841526 0.17301336 0.133126 0.02763654 -0.08072862 -0.04435095
-0.09853199 -0.07664319 -0.10535912 -0.13933983 0.24075328 -0.13938136 -0.22261707 -0.011846912
0.118231766 -0.10797623 0.19164762 -0.030698279 0.053755246 -0.033085726 0.03273143 -0.18585828
0.19914956 0.20574266 0.10922069 0.18544716 -0.007039397 0.21531549 0.027488295 -0.09067107
0.1478041 -0.15215237 0.14556277 0.33987787 -0.030578203 -0.14468 0.19505672 0.08576518

bn1.module.weight f4 [128]
00000000: 77a4 7b3f 553c 753f 5534 883f b2eb 833f
00000010: 7247 8f3f 2265 823f 84a3 783f b676 773f
00000020: 6282 753f 7a7b 723f 9442 8d3f d1d0 7f3f
00000030: 5552 703f 16e7 6e3f 6f35 803f e866 723f
00000040: d0ab 7b3f dd62 803f c759 5b3f fdd4 743f
00000050: 4274 7e3f 93c8 7d3f a5fc 713f 27f2 8e3f
00000060: aa39 7e3f e55c 6f3f acef 713f cb39 783f
00000070: 32d7 6d3f f80c 743f 7860 843f 8ec7 773f
00000080: c4ce 8a3f 24b5 813f 0c6e 7f3f 327e 843f
00000090: 1ac4 803f 2a0a 823f b72c 703f 8215 763f
000000a0: 5aea 6a3f c423 8f3f 8b48 7f3f ec5f 843f
000000b0: ccbe 6f3f f27f 6c3f 267d 803f 898f a03f
000000c0: 9224 743f 5b32 7d3f 3bc3 623f 7c07 673f
000000d0: d63f 813f 12e3 743f a462 7a3f 6457 973f
000000e0: 2758 773f 5c9c 8d3f 7c2b 783f f310 793f
000000f0: 9ca7 7e3f 4bca 7f3f dd61 6a3f 99d2 693f
00000100: d1e4 733f 8fef 883f 13da 7d3f f009 7f3f
00000110: 805f 803f fa01 813f 41d8 6a3f 6bf8 8b3f
00000120: 3dcd 813f 0e12 903f 4a6e 963f cc59 7c3f
00000130: 8176 783f 8e77 6a3f 93d9 6e3f a04e 7e3f
00000140: 43ad 6f3f e977 783f 32e5 893f 13bf 803f
00000150: 6973 9c3f 5fbb 793f b60a 823f cd8a 933f
00000160: 1718 723f 632a 753f a168 753f fa11 723f
00000170: f8bb 853f a1f3 6c3f 2592 6c3f b0e6 803f
00000180: 6fda 7a3f e783 6d3f fefa 803f 8239 7e3f
00000190: f30c 893f bbd2 7b3f f133 813f 5a7d 863f
000001a0: f432 643f 2689 773f 75f8 6c3f 5318 7b3f
000001b0: 3cbe 723f e7e5 6d3f 8163 713f 492c 803f
000001c0: ca59 713f ad4b 663f 7bde 6d3f bf27 823f
000001d0: 564c 813f c9f7 833f 3928 803f 3e2f 7c3f
000001e0: 7d84 753f 4de7 9a3f feea 7a3f 3867 883f
000001f0: 69df 753f 74f7 773f 2ef8 723f 2070 6a3f
0.9829783 0.95795184 1.064097 1.0306304 1.1193678 1.0187113 0.97124505 0.96665514
0.95902073 0.9471966 1.1035943 0.99928004 0.9387563 0.9332136 1.0016307 0.9468827
0.9830904 1.0030171 0.85683864 0.95637494 0.99396145 0.99134177 0.9452613 1.1167649
0.9930674 0.9350112 0.94506335 0.96963185 0.92906487 0.9533229 1.034194 0.9678887
1.084435 1.0133405 0.99777293 1.0351012 1.0059845 1.0159352 0.9381823 0.9612657
0.9176384 1.118279 0.99720067 1.0341773 0.9365051 0.9238273 1.0038192 1.2543803
0.953683 0.9890496 0.8857915 0.90245795 1.0097606 0.9565898 0.97806764 1.1823545
0.96618885 1.1063342 0.9694135 0.9729149 0.994745 0.9991805 0.9155558 0.9133697
0.9527102 1.0698107 0.9916088 0.9962454 1.0029144 1.0078728 0.9173623 1.0935186
1.0140759 1.125551 1.1752408 0.9857452 0.9705582 0.91588676 0.9330074 0.9933872
0.9362375 0.9705797 1.077307 1.0058311 1.222272 0.9755153 1.0159519 1.1526734
0.9456801 0.957678 0.95862776 0.9455868 1.0447989 0.9255925 0.924105 1.00704
0.97989553 0.9277939 1.0076597 0.993065 1.0707077 0.98368424 1.0093976 1.0507004
0.8914025 0.96693647 0.92566615 0.9808399 0.94821525 0.9292893 0.94292456 1.0013515
0.9427763 0.8995922 0.92917603 1.016838 1.0101421 1.0309993 1.0012275 0.98509586
0.95905286 1.2101837 0.9801482 1.06565 0.9604402 0.9686196 0.9490994 0.9157734

bn1.module.bias f4 [128]
00000000: 2e7f eebc 6150 45bd 1407 53be 9ab4 2bbc
00000010: e20d 36bc 45fa c7bd 16e4 9fbd b850 6bbd
00000020: 806f 89bd db38 24bd 2d10 debd 7c09 66bd
00000030: 87dc c3bd 24de 1cbc 4e30 44bd 6bba 73bd
00000040: e646 3e3c f1c7 3fbe 5186 e5bd 1e35 0cbe
00000050: d998 1ebd 6b7d a8bd ac37 3cbd 0bb2 a8bd
00000060: c073 4fbd ef50 62bd acd4 afbd c201 87bd
00000070: c58d 8dbd d76e d33c e7dc 873c eaf6 9ebd
00000080: 3f86 333a 1397 e9bc c6f4 c8bd 02b7 a93c
00000090: 87a1 afbc c885 b0bd 1b86 3bbe 1492 69bd
000000a0: 8220 61bd f048 efbd 33c5 f1bc 4278 5dbd
000000b0: dcbe 18bd 7a48 bebd cc30 a3bc c716 383d
000000c0: 2ee5 60bd b9a3 8239 224b 00be e5d6 b3bd
000000d0: e34d 7a3b aa87 66bd f3f4 98bd d805 cc3c
000000e0: ba88 bcbb 70f4 01bd 9093 5c3c 150a 83bd
000000f0: 91a3 bdbd a2c2 4cbd b00d 12bd 1208 b5bd
00000100: 5ebc 98bd fa50 2dbe ad4d 3fbd 2e56 923c
00000110: 23b8 33bd c709 8c39 b64a 9cbd 3863 c8bd
00000120: fb68 50bb e8ea b63c 5d24 b0bd 451b 33bc
00000130: aa26 c2bd 71bf 30bc bbdb c7bc 1224 063d
00000140: b373 48bd 6be1 103c 5f79 05bc 1bd2 58bb
00000150: b677 ea3c 7adf c7bc 67d3 69bc ef10 bfbd
00000160: cbdb 68bd 8308 6fbd 787a 59bc 7313 9fbd
00000170: ec7b 5b3c 5e84 11bd 7777 aabd b595 8abd
00000180: 36c2 cbba 07d3 a6bd 7cd0 e1bc 0ae0 96bc
00000190: 18a1 6c3d 4b56 94bc 2adc 91ba 7b95 30bd
000001a0: 04b9 fcbd 0590 77bb 1c15 d2bd bb03 a7bd
000001b0: 45c8 cbbc fa8a 7dbd c2e7 20bd b06b 9dbd
000001c0: 1004 f7bd 413c cabd deaf 1abd 1de2 a6bb
000001d0: 963f 33bd 43f8 b0bd 35f5 b1bd c5a2 0cbe
000001e0: 51f6 8cbd 75d1 63bc 31cd 38bd 15da 25bb
000001f0: 98af b9bd ed74 3dbd 891c 6fbd f8a6 ddbd
-0.029113378 -0.04817236 -0.20608169 -0.0104800705 -0.011111708 -0.09764532 -0.07807176 -0.057450026
-0.0671072 -0.040093284 -0.10842929 -0.05616139 -0.09563547 -0.009574447 -0.04789763 -0.059503954
0.011613583 -0.18728615 -0.112072594 -0.13692138 -0.038719986 -0.082270466 -0.04595153 -0.08237084
-0.050647497 -0.055252966 -0.08585486 -0.06592132 -0.06911806 0.025809688 0.016584827 -0.07761939
0.00068483123 -0.02851442 -0.09812312 0.020717148 -0.021439327 -0.08619267 -0.18312876 -0.057024077
-0.054962642 -0.116838336 -0.029512977 -0.054069765 -0.037291393 -0.092911676 -0.01992073 0.044943597
-0.054906063 0.00024917515 -0.12528661 -0.08781222 0.0038193397 -0.056281723 -0.07468595 0.02490513
-0.0057536038 -0.031727254 0.013462916 -0.06398407 -0.092597134 -0.049990304 -0.035657585 -0.0883943
-0.07457803 -0.16925421 -0.046704937 0.01786336 -0.04387678 0.00026710166 -0.076314375 -0.097845495
-0.0031800854 0.022328809 -0.08600686 -0.0109317945 -0.09480031 -0.010787831 -0.024396768 0.032749243
-0.048938464 0.008842806 -0.008146613 -0.0033084217 0.028621536 -0.024398554 -0.014271594 -0.09329402
-0.056850236 -0.058357727 -0.013273828 -0.077673815 0.0133962445 -0.035526626 -0.08323567 -0.067668356
-0.001554555 -0.08145719 -0.027565233 -0.018417377 0.05777082 -0.018107554 -0.0011128236 -0.043111306
-0.123399764 -0.0037775051 -0.102579325 -0.081550084 -0.02487577 -0.061900117 -0.03928352 -0.076865554
-0.12061322 -0.09874774 -0.037765376 -0.005092873 -0.043761812 -0.08641102 -0.08689348 -0.13733967
-0.068829186 -0.013904919 -0.04511756 -0.002530699 -0.09066695 -0.046254087 -0.058376823 -0.108228624

bn1.module.running_mean f4 [128]
00000000: d0ea dd3d 23b4 f73c 66a0 6e3e 8881 3a3e
00000010: ddc6 4abe 8ebd e6bd 9543 2b3e 2dde 223c
00000020: c7fb d93d 5f54 983c 61ce 513e 5cbe 283e
00000030: 9bbc 433d b38c 87bd 40fb 5b3d f25d 00bd
00000040: e433 4bbe 8dbd fc3d e679 b6ba d145 3abe
00000050: d643 dc3d a8c4 583d a044 35be 404c 1e3e
00000060: 0a7b 043e f728 113d ec82 6bbd e441 d03d
00000070: 9c43 44bc 6423 abbd e48c 263d 6ff4 3e3c
00000080: 045f 1dbe 4341 09bc 9683 203d a884 1d3e
00000090: 3bdb 54bb c481 0f3e f849 f6bd 73fd 913c
000000a0: 3782 89bd abda 503e 25ee 1b3e 5e04 323e
000000b0: 9a33 2cbd 0187 c13d f8cf ffbb 117b abbe
000000c0: 6dde abbc 769e f33c fd87 f63b 27be 8fbd
000000d0: 9926 8abd faaf a33c 8795 f93d 3524 92be
000000e0: 5b2c 74bd efd3 3dbe 5b3d 3abc 96ab 62bd
000000f0: f6fe 033e d09b a4bc 865a 9e3c fde0 373c
00000100: 0947 a93d 4d89 d83d 6dc2 ec3d dc85 04be
00000110: 4296 acbd f1cd f13d 18d5 583c ab3d 863e
00000120: aa0b bcbd 6f76 64be 8ba4 933e 6050 c03d
00000130: ea5e 013e ca21 90bd 6cc1 dcbd 0d61 87bd
00000140: e2a3 a03d b2a5 0ebe ff3e 41be f5ac f43a
00000150: e923 abbe d25b bcbb 5b2f 0f3d 22e6 8c3e
00000160: 2ea4 fcbc e386 a43d 6d0b a537 f141 3fbd
00000170: d6c9 bcbd 7114 d5bc 7d81 2bbc 3ff8 443d
00000180: f77f 39bd 7b13 3cbd 0e3b f2bc 98b7 a03c
00000190: 80b0 653e bafb 2fbd c7c2 243d 2550 efbd
000001a0: f0d2 15bb a61a dbbc 2fcb 743d a1f0 563d
000001b0: acfc 183c 3b2b 90bd 10da 213d 5d6a d8bb
000001c0: 1c32 363e 4e67 b7bd 8828 24bd 164e 063e
000001d0: c24f 2b3e 6759 27be 7858 273e bf0c 3d3d
000001e0: b65d 6a3c c64c 8dbe ddac 683d fcb0 2c3e
000001f0: fd1e 4e3d ec3c 003e 2d85 993d f032 903d
0.108358026 0.030237263 0.23303375 0.18213475 -0.19802423 -0.112666234 0.16724999 0.009940666
0.10643726 0.018594919 0.20488884 0.16478866 0.04778729 -0.06618633 0.053706408 -0.031339593
-0.19844013 0.123408414 -0.0013921827 -0.18190695 0.10755126 0.05292192 -0.1770196 0.15458775
0.1293756 0.035439458 -0.057497904 0.10168818 -0.01197901 -0.083563596 0.040661708 0.011654957
-0.15368277 -0.008377376 0.03918799 0.15382636 -0.0032479304 0.14014345 -0.12025827 0.01782105
-0.0671429 0.20395915 0.15227564 0.17384478 -0.0420414 0.09449578 -0.007806774 -0.3349233
-0.020980084 0.029738646 0.0075235353 -0.070186906 -0.06745643 0.019981373 0.12186723 -0.2854325
-0.059612613 -0.18537878 -0.011367167 -0.05533942 0.12890229 -0.020093828 0.019330274 0.011223075
0.08265502 0.10573063 0.11560521 -0.12941688 -0.08427097 0.11806858 0.013234399 0.26218924
-0.09181912 -0.22310804 0.28836474 0.0939033 0.12633863 -0.07037695 -0.1077908 -0.06610308
0.07843758 -0.13930395 -0.18871687 0.0018667268 -0.33425835 -0.0057482505 0.03495727 0.27519327
-0.030840006 0.0803354 1.9674853e-05 -0.046693746 -0.09218185 -0.026010724 -0.010467884 0.04808831
-0.045288052 -0.045917016 -0.029569175 0.019618794 0.2243061 -0.042964675 0.040224817 -0.11685208
-0.0022861324 -0.026746105 0.059764083 0.052475575 0.009337585 -0.070394956 0.0395146 -0.0066044764
0.17792553 -0.08955251 -0.040077716 0.13115725 0.16729644 -0.16342698 0.16342342 0.046154734
0.014304569 -0.27597636 0.05680548 0.16864389 0.05032252 0.1252324 0.074961044 0.070409656

bn1.module.running_var f4 [128]
00000000: 2c33 073a 9c67 f73a c011 f939 a6bc 2f3b
00000010: ebf0 6a39 c038 563a a7fd 9e3a 4b49 8c3a
00000020: 3fae 633c 4f9e 373a 67cd d438 22c4 e639
00000030: 7c3e b13b 8def 2f3c d1f4 b53b 31e1 7b39
00000040: 6b85 cf3b c4ad 8239 9f5d 2c3c e006 0b3b
00000050: 9bcc b839 652f 4839 62f4 9e3b ed68 9838
00000060: 0813 ef3b b72b 803b 2f51 b83b ef34 9139
00000070: a8ab b83b 751e 2f3b a31e ef3a f131 a63b
00000080: e977 3039 d168 fd39 4bae a73a c987 253c
00000090: aa52 133b f161 0639 d2ea 393a e89e c439
000000a0: 05e9 903b 509a 7c39 d35e 943b ffc3 a63a
000000b0: 2c05 0b3c 7014 1e3c c1d6 cf39 dc44 a839
000000c0: 4580 403b 61a0 953b f0a6 373b 7c3a 213c
000000d0: 1b7d 003a 1c94 b43b e768 353a b719 b439
000000e0: 2843 6a3b 6f52 9239 94fa 023b 742e 953a
000000f0: c0b9 ba39 52f3 9d3a f17e c23a b5cb c03a
00000100: d059 3a3c 0917 a338 8dc2 e33b 3dd6 023b
00000110: ee08 533c 26d9 433a c263 8039 a46f 9d39
00000120: fae7 f038 57d7 a339 0a90 6c39 4964 7c3b
00000130: 24b5 e739 648f b63b 233c 263c 5396 cf39
00000140: b71e f83b ae84 d23a 18b0 dc39 1f1e cb3a
00000150: 7613 023a 4a72 523b 23da 793b c4e6 d139
00000160: fcf1 cd3b db7d 263b 389c ab3b 2fc7 243a
00000170: 70c8 7d3a 6372 133b 26e2 1c3c 953a ce3b
00000180: b404 1f3a 894a 773a 033c 5e39 10c3 153a
00000190: e63e 093a 004e d139 ad02 e33a 52d0 af39
000001a0: e821 703b b5a5 813a 47a3 a43c 6084 103b
000001b0: 2226 453b 05fb b53a bd51 293b 896a 663a
000001c0: aa5a 9e3a e6a2 263b daef da3b 80f4 8f3b
000001d0: 38ae c83c 324b 573a cbad 793a b25b 943a
000001e0: ec66 3b3a 9a3d 2d39 5d70 f23b f7df 323a
000001f0: df4e c739 f144 5a39 b3d8 a53b bc1f 213a
0.00051574665 0.0018875482 0.00047506206 0.0026815324 0.00022405728 0.00081719086 0.0012130038 0.0010702995
0.013896524 0.0007004486 0.00010147207 0.0004401515 0.00540906 0.010738266 0.005552866 0.00024021116
0.0063330433 0.00024924998 0.010520368 0.0021213815 0.00035247658 0.00019091142 0.00485091 7.267469e-05
0.00729597 0.003911461 0.005624912 0.00027695994 0.0056356974 0.0026721035 0.0018243383 0.0050718714
0.00016829338 0.00048334015 0.0012793032 0.0101031745 0.0022479692 0.00012815722 0.0007092181 0.00037502428
0.0044223093 0.00024090079 0.0045279055 0.0012723206 0.00848512 0.009648427 0.0003964212 0.0003209476
0.002937333 0.004566238 0.0028023086 0.009840604 0.00049014547 0.00551082 0.0006920234 0.00034351434
0.0035745595 0.00027908708 0.0019985782 0.0011381642 0.0003561508 0.0012050665 0.0014838857 0.0014709147
0.011373952 7.776736e-05 0.0069506825 0.0019964122 0.012880547 0.00074710173 0.00024488388 0.00030028552
0.00011487301 0.00031250223 0.00022560373 0.0038511923 0.00044194714 0.0055712927 0.010146174 0.00039594117
0.007572021 0.001606127 0.0004209287 0.0015496648 0.00049620064 0.0032111579 0.0038124404 0.0004003552
0.0062849503 0.0025404606 0.0052371286 0.0006285784 0.00096810516 0.00224986 0.009575402 0.0062936046
0.00060660695 0.0009433409 0.00021193926 0.00057129655 0.0005235508 0.000399217 0.0017319523 0.00033533812
0.0036641303 0.0009891303 0.020097388 0.0022051558 0.0030082543 0.0013884014 0.0025836073 0.00087896787
0.0012081463 0.0025426685 0.0066814246 0.0043931603 0.024497136 0.0008212804 0.00095244934 0.0011318831
0.00071488204 0.00016521514 0.0073986487 0.00068235345 0.00038015 0.00020815783 0.005061233 0.00061463914

conv2.bias f4 [128]
00000000: ef7c fdb9 db0a 14b9 91f8 9fb8 c31c a639
00000010: bd65 beb8 dae8 36b8 fba7 bcb9 a8ef f4b8
00000020: 3d35 30ba cc5d 01b9 40b3 3eba 6fed 83b8
00000030: 447f 3dba de45 f3b8 5e72 b4b9 e287 cc39
00000040: 311d 90b9 1794 1c3a 02ea 9538 7c0b c4b9
00000050: b1ee 3eb9 ee44 0d39 ce75 8038 028f cdb8
00000060: 2cd6 c839 f050 e6b9 29a4 5d38 0e75 ba39
00000070: c1d5 9e3b ade9 7337 9bd0 28b9 4855 c138
00000080: 9f20 81b9 4028 96ba be22 0639 39bb 8bb7
00000090: abb1 8f39 8919 e0b9 9c61 9639 c427 403c
000000a0: 7857 aab9 190a b3b8 3b37 deb8 b1a5 2eb8
000000b0: 0c23 f738 d481 d5b8 765e 3a39 8f09 1a3a
000000c0: a02f 8dba 0652 3938 c6d7 17b8 1818 02b8
000000d0: b912 bc38 0a7b de37 9331 b9b9 d17c 12ba
000000e0: 37b4 eeb9 a978 83b8 37bb 2039 55cf 963a
000000f0: 7c08 b7b8 62cf 57b9 bea7 e838 4e9a fbb7
00000100: b7cc 46ba 39cf 9239 8893 a439 e91a 0b39
00000110: 4d7d d1b8 1ecc 3e3a 2e7d 33b9 cf8d 19b9
00000120: c1dc d738 5650 e338 f62f a838 1eda c5b7
00000130: 2b02 8639 e6fe 2439 c0a2 0639 0e76 89b8
00000140: f233 21b9 f863 a8b8 94df 63b8 abc3 8eb9
00000150: af0d abb8 50b0 dd3a 5522 27b9 eff6 8539
00000160: 62cf 0439 b5a9 2439 576a ad37 441e a1ba
00000170: ed72 9639 fd1a b237 e8a0 3939 a357 86b9
00000180: fc84 11b9 6993 293a cc5c 1839 c11d 9138
00000190: 2bc2 dfb8 acf3 4039 7e4d 4f38 3ddf a3b9
000001a0: 0171 09ba 5e78 62b9 caf0 d7b8 5b60 3fb9
000001b0: 3e04 67ba 206d 1a37 a1fd e034 7d9c 0b39
000001c0: b41b 2b39 9485 3fb9 a406 b339 668c 813c
000001d0: a1df d6b8 1d59 4fb9 f06e 0aba 1fc2 3139
000001e0: c0cf 5bb9 5d72 2c39 c6b5 ce37 3960 31b9
000001f0: 0360 c0b8 ae85 65b9 d11a 1ab9 bfdc 8d39
-0.00048349003 -0.00014118424 -7.62801e-05 0.00031683416 -9.078856e-05 -4.360904e-05 -0.0003598331 -0.00011679466
-0.00067218003 -0.00012337341 -0.0007274635 -6.290792e-05 -0.0007228742 -0.00011600157 -0.00034417486 0.00039011153
-0.0002748757 0.0005972995 7.148461e-05 -0.0003739259 -0.00018208731 0.00013472486 6.1254585e-05 -9.801799e-05
0.00038306543 -0.00043929322 5.2843392e-05 0.00035563897 0.004847259 1.4538336e-05 -0.0001609944 9.218842e-05
-0.00024629102 -0.0011456087 0.00012792178 -1.6657274e-05 0.00027407458 -0.00042743635 0.00028682954 0.011728231
-0.00032490096 -8.537266e-05 -0.000105960724 -4.1639145e-05 0.00011784406 -0.00010180814 0.00017773532 0.0005876058
-0.001077164 4.4183827e-05 -3.620216e-05 -3.1016854e-05 8.968026e-05 2.6521757e-05 -0.00035322885 -0.0005588057
-0.00045529168 -6.2690415e-05 0.00015328532 0.0011505882 -8.7277e-05 -0.00020581254 0.000110938665 -2.9993385e-05
-0.00075836055 0.00028001683 0.00031390437 0.00013266098 -9.989236e-05 0.00072783406 -0.00017117403 -0.00014644045
0.000102931175 0.00010839167 8.019798e-05 -2.3585799e-05 0.00025560087 0.00015735216 0.00012839865 -6.5546585e-05
-0.00015373508 -8.029485e-05 -5.432924e-05 -0.00027230135 -8.156464e-05 0.0016913507 -0.00015939151 0.00025551717
0.00012665757 0.0001570348 2.0672725e-05 -0.0012292345 0.00028695856 2.1231821e-05 0.00017702917 -0.00025623766
-0.00013877818 0.0006468804 0.00014530419 6.919681e-05 -0.00010669635 0.00018401322 4.9424816e-05 -0.00031256108
-0.0005242974 -0.0002159788 -0.00010296849 -0.00018251075 -0.0008812583 9.204523e-06 4.190779e-07 0.0001331437
0.00016318151 -0.00018264941 0.00034146488 0.015814018 -0.00010245969 -0.00019774256 -0.0005280813 0.00016952351
-0.0002096286 0.00016445802 2.4641759e-05 -0.00016915881 -9.173157e-05 -0.00021888941 -0.00014696574 0.00027058084

conv2.lin.weight f4 [128, 128]
00000000: 780a 113e 48c4 80bd 1d21 9b3a 8faf 3abd
00000010: 46b8 98bc 3779 c73d 7b53 4abc 2251 4dbc
00000020: 2846 05be f8ce b6bd c6b3 7cbd 2a77 babd
00000030: f2f1 683c 580a 023d 493f 09bd 9db7 fabd
00000040: 67e8 e83d 6fed 77bc cfa7 debd 482e b93d
00000050: 78a3 11be 80a4 f6bd 0093 d3bb 0eb9 623d
00000060: 0c56 d0bd 8a6e bd3d 6409 103e 42a3 debd
00000070: 50d4 80bd 9a25 23bb 9325 213d 25ca c23b
00000080: aa09 f13c 7a43 fc3d efca 1f3e 96d9 c6bd
00000090: bf06 223e 4fe5 6fbd 6ede 57bd faab 113d
000000a0: cbb0 94bd 4ed9 843d e350 61bd 8514 103e
000000b0: 3e87 9a3d 2c46 aa3d ac1c 023d 70d2 193d
000000c0: 3c21 4d3b d6ee febb 6e04 653c 28f3 c93d
000000d0: 1c3d 743d a434 ffbd a6fb 1d3d 2d91 073d
000000e0: 39ea 2f3e 7dd6 10bc 2b7b e33d 1b3c e73c
000000f0: 41d9 62bd c8b6 cf3d 1f00 163d d8f9 d03d
00000100: 32c7 30bd 17a9 acbd 279a b43d f4a9 8c3c
00000110: a768 2b3e 90ba 193c 96eb 18bd 2f9b d83d
00000120: a502 dcbd 6a44 1b3d 3b47 f9bd b00d 3dbb
00000130: 17e3 cdbc 7cd0 debc fb14 3e3d 1a4e f7bd
00000140: bfe9 e2bc e3b5 393e 50b6 8bbd 86ca d8bd
00000150: 82a5 543d d749 bf3d 5da1 56bd 9026 e53d
00000160: 26e1 b33d 4f5f e13c 78a9 b0bd 4db3 893d
00000170: c13d 15bd 8583 15bd 2b81 be3c 91d1 eabb
00000180: 2e10 23be d8d3 24bd 42b2 d83d 0c67 f8bd
00000190: 5550 483d 1ac9 ab3d db53 b1bc 61f7 11ba
000001a0: 2333 2c3d a8ac fabd 71f9 e7bb 5340 4cbd
000001b0: ea64 d2bd 953c 113e bc54 dfbc d47c 27bd
000001c0: 2acb b7bd 40f8 88bd 3608 783d 8c3f 243e
000001d0: b188 0d3d 8996 203e ead6 cc3b 1dc3 efbc
000001e0: 6091 2e3d 0008 df3c 8d4f 043e 44fb 853c
000001f0: 8ea3 853c 3876 0f3e 0b84 9c3d 9eea 323d
00000200: 864e 1fbe 3b60 f33b 1b25 85bc 2a0b b5bb
00000210: 13c8 2bbe 5d5e 97bd d26b 8abd 791c 293e
00000220: b11e c53d 0eb9 29bc 283b a53d 2e68 95bd
00000230: ad3d e2bb 0291 5c3d ae01 94bd dfca a8bd
00000240: b080 82bd 3ac6 f83d a03f 243e 8a69 afbd
00000250: 7308 b4bc d100 22bd 5153 50bd c961 d3bd
00000260: fef2 563d 4b8d 623c 6a47 20bd 4add f9bd
00000270: 69a0 843d 608d a6bd be2a d53d b4c7 e13d
00000280: f0ac 1fbe 1604 563d eac0 da3d b0a4 f73c
00000290: d126 fbbd 66eb 5cbc ce34 163e ddb2 393c
000002a0: 48b4 a3bd 3de0 173b 3463 033e 013d b4bd
000002b0: e9e6 3c3c 98f8 0c3e 326b 15be 43f8 f13c
000002c0: baaf 21be a27b 5e3c e5bc ad3c 371e 083e
000002d0: cf49 a5bc df98 fcbb 9529 c93d 2266 c23c
000002e0: 5863 b1bd 0d96 e9bd bcb0 bcbd 5ef8 1d3d
000002f0: da75 163c 9a89 f83c 6f0d 8eba fed3 483e
00000300: cf82 3dbd a8a6 903d f331 273e 4d9e 443e
00000310: 8c05 0abb 3bdd aebc 09ef 963d 22ab c83d
00000320: 10b6 853d 9477 71bb ae6a 2fbc 6342 9c3d
00000330: 59e3 94bd e3fc 88bd 8dec c6bb 4d5d 063c
00000340: 34d4 0ebd fc11 513e e082 fe3d 8948 123e
00000350: dd94 273d 56b0 cb3d 6c3f fa3d 8b59 063b
00000360: 3ce7 14be 5207 1b3e d63f e6bd 6130 e03c
00000370: 9f9c 783d 0d22 65bd 3081 763c f6e5 f33d
00000380: 84ed 193e 87fd 373e 10e0 c03d 819b 8abd
00000390: 146a a63d 44ae aa3d 03f9 8fbd 66fe f53d
000003a0: c0f0 abbc ce10 c23d ec0e b7bc f844 f63d
000003b0: 7e70 7ab9 ca5e 06bc ae84 093e 92de f8bd
000003c0: 7941 833d 71f1 293c 2149 863d 937a 2d3e
000003d0: 4001 dbbc 7f99 4d3e 9805 313e df56 00bd
000003e0: 9046 c5bb e7e5 42be 1234 a9bd 8a79 4cbe
000003f0: 4b8e 6abd b9dd e1bd de5a f9b9 cf66 af3c
0.1416415 -0.06287438 0.001183543 -0.045577582 -0.018642556 0.09739917 -0.012349005 -0.012531551
-0.13015044 -0.08926195 -0.061694883 -0.0910476 0.0142178405 0.031748146 -0.03350762 -0.12242053
0.11372452 -0.015132292 -0.10871851 0.090420306 -0.14222515 -0.12043095 -0.0064567327 0.055352263
-0.10172662 0.09249599 0.14066082 -0.10870983 -0.062904954 -0.0024894238 0.039342474 0.0059445077
0.029423553 0.12317558 0.15604757 -0.0970947 0.15822886 -0.058568295 -0.05270236 0.0355644
-0.07260283 0.0648676 -0.05500878 0.14070328 0.07545327 0.083141655 0.031765625 0.037554204
0.0031300327 -0.0077799363 0.013978107 0.098608315 0.05962859 -0.12461212 0.03857007 0.033097435
0.17179193 -0.0088402005 0.11107477 0.028226903 -0.05538297 0.10142285 0.03662121 0.10203904
-0.043158717 -0.08430689 0.08818465 0.017170884 0.1673914 0.009382859 -0.037334047 0.10576474
-0.10742692 0.03790704 -0.12171789 -0.002884727 -0.025132699 -0.027199022 0.046406727 -0.120754436
-0.02769935 0.1813579 -0.06821883 -0.10585503 0.051915653 0.09340256 -0.05239998 0.11188996
0.08783178 0.027511267 -0.086260736 0.06723652 -0.036435846 -0.03650238 0.023254951 -0.0071660955
-0.15924141 -0.040241092 0.10580875 -0.1212903 0.048904736 0.083879665 -0.02164643 -0.00055681734
0.042040955 -0.12239963 -0.0070792963 -0.04986603 -0.10273154 0.14183266 -0.027262084 -0.04089053
-0.08974297 -0.06687975 0.060554706 0.16039866 0.034554187 0.15682425 0.0062512057 -0.029267842
0.04261911 0.027225494 0.12920971 0.016355164 0.01631334 0.1400994 0.07642373 0.04368078
-0.15557298 0.007427243 -0.016253045 -0.0055250125 -0.16775541 -0.07391045 -0.06758846 0.16514768
0.096249945 -0.010359062 0.08067924 -0.07295261 -0.006904325 0.053849228 -0.07226883 -0.082418196
-0.063722014 0.12147184 0.16039896 -0.08565052 -0.021976685 -0.03955156 -0.050860707 -0.103213854
0.05247783 0.013827632 -0.039130606 -0.12200411 0.06475908 -0.08132434 0.10408543 0.110244185
-0.15593314 0.05224999 0.10681327 0.030229896 -0.12263263 -0.013483858 0.14668581 0.011334148
-0.0799337 0.0023174428 0.12830812 -0.08800698 0.011529663 0.13766706 -0.14591673 0.029537326
-0.1578969 0.013579281 0.021208236 0.13292776 -0.020176796 -0.0077086533 0.09822384 0.023730341
-0.086615264 -0.11405573 -0.09213397 0.03856694 0.009183371 0.030339051 -0.0010837744 0.19612119
-0.046267327 0.07063037 0.16327648 0.19201012 -0.0021060435 -0.021345725 0.07369811 0.09798266
0.06528866 -0.0036844956 -0.010706587 0.0762985 -0.072699256 -0.06688859 -0.0060706795 0.008200956
-0.03487034 0.20417017 0.12427306 0.14285482 0.04091345 0.09945743 0.12219128 0.002050015
-0.14541334 0.15139511 -0.112426445 0.027366819 0.06069624 -0.055940676 0.015045449 0.11909096
0.15032011 0.17967807 0.094177365 -0.06767941 0.081257015 0.0833402 -0.07029917 0.12011413
-0.020988822 0.094758615 -0.022345982 0.120248735 -0.00023883765 -0.00820131 0.1342952 -0.12151827
0.06408972 0.0103725055 0.06556917 0.1694129 -0.026733994 0.20078085 0.1728729 -0.031332847
-0.0060203746 -0.19033013 -0.08261885 -0.19968238 -0.057264607 -0.11028618 -0.00047560682 0.021411328

bn2.module.weight f4 [128]
00000000: f7c6 7c3f 1aa0 823f da90 6f3f ec0c 7c3f
00000010: 45a6 793f 68c5 7d3f 87e3 7f3f cc6d 783f
00000020: eba3 853f c65a 863f b208 863f 3a47 733f
00000030: c870 753f ef3b 783f a41f 7a3f 4e47 7c3f
00000040: efc5 6f3f 3156 803f 9ef1 753f 8a1f 793f
00000050: 7450 7d3f 39a6 803f 5cda 733f 4673 7b3f
00000060: f510 833f 7131 813f f81b 793f 6674 853f
00000070: 33ad 8b3f d6bb 7f3f b174 7f3f fe40 813f
00000080: 4f02 793f 012a 873f 2c10 783f f023 8a3f
00000090: bd4f 753f 2029 7d3f 1ff2 673f 6797 933f
000000a0: 4502 733f 4b4c 8a3f 94c9 7f3f 1899 753f
000000b0: faf3 763f 2f4d 7c3f 2890 7b3f aa7d 803f
000000c0: 4569 893f 321f 7f3f 0972 753f 579e 763f
000000d0: 5b66 773f f6c2 673f bf41 833f f3a7 6f3f
000000e0: 0571 833f c584 833f 42cb 713f 1524 8d3f
000000f0: 7397 763f f311 833f 4e0f 7b3f 8c1d 7b3f
00000100: 8de3 6d3f 908d 6f3f b0a2 833f c10d 813f
00000110: 41fd 803f 2a56 803f 7036 783f fd82 783f
00000120: 5133 7a3f 8d72 683f b07b 843f 6ca8 7a3f
00000130: 24c7 723f b506 813f 78f9 713f e10d 843f
00000140: e08d 723f 1d0d 6b3f 48f9 7e3f 82e8 743f
00000150: 15df 7e3f 649d 863f 30c6 773f 9399 763f
00000160: 5afd 6e3f a278 793f 9a63 6f3f 8376 703f
00000170: 1108 813f 62f4 763f 9cf5 803f 209e 763f
00000180: f784 853f 29f5 7f3f c89a 743f b704 703f
00000190: 174f 6e3f 22e7 823f fc0a 763f e055 833f
000001a0: 5632 793f 5ca2 803f a32c 783f f98b 833f
000001b0: 1f57 733f c2f8 7b3f 34c6 7a3f 5830 823f
000001c0: 4c4c 893f 86e7 873f 77c1 833f 658c 913f
000001d0: c28a 7d3f a892 6f3f ab8e 793f 4d20 863f
000001e0: 159e 763f c87c 753f 735c 7e3f 3ecc 753f
000001f0: d790 7c3f 764b 863f dc2d 773f 9514 763f
0.98741096 1.0205109 0.935804 0.9845722 0.9751933 0.99129343 0.99956554 0.97042537
1.0440649 1.0496452 1.0471404 0.9503056 0.95875216 0.9696645 0.9770453 0.985463
0.936614 1.0026304 0.96071804 0.9731375 0.98950887 1.0050727 0.95255065 0.9822277
1.023955 1.0093213 0.973083 1.0426147 1.0912231 0.9989599 0.9978743 1.0097959
0.9726915 1.0559694 0.96899676 1.0792217 0.95824796 0.98890877 0.9060382 1.1530579
0.9492534 1.0804533 0.9991696 0.9593673 0.9646603 0.9855527 0.9826684 1.003835
1.0735251 0.99656975 0.9587713 0.9633536 0.9664056 0.9053186 1.0254439 0.93615645
1.0268866 1.0274893 0.9445077 1.1026636 0.96324843 1.0239853 0.9807023 0.9809196
0.9292534 0.9357538 1.0284023 1.0082322 1.0077287 1.0026295 0.96958065 0.9707487
0.9773455 0.9079979 1.0350246 0.9791324 0.94835114 1.0080172 0.94521284 1.0316736
0.94747734 0.91816884 0.99599123 0.9566728 0.99559146 1.0516782 0.96786785 0.96328086
0.93355334 0.97449696 0.93511355 0.93930835 1.0080587 0.9646665 1.0074954 0.9633503
1.0431203 0.9998346 0.9554868 0.93757194 0.9308943 1.0226786 0.9611051 1.0260582
0.9734243 1.0049548 0.9694311 1.0277091 0.9505481 0.9842645 0.97958684 1.0171003
1.0726409 1.061753 1.0293416 1.137097 0.9903985 0.93583155 0.9748332 1.0478607
0.96334964 0.95893526 0.99359816 0.96014774 0.9865851 1.0491779 0.9655435 0.96125156

bn2.module.bias f4 [128]
00000000: a27e 52bd 18fe 853c 36c9 5bbd 01c1 7ebd
00000010: 17b0 9bbc 214f 09bd a9e2 8b3c 2a04 76bd
00000020: f58d c3bd 7e1c 9f3b 3be8 8b3c 6f03 0bbe
00000030: 909c 4ebc f6c5 d2bc 607d 86bd 3ec6 efbb
00000040: e62b 8abd 55d2 25bd 6bf8 5dbd 3cbd 7fbd
00000050: 8ef7 a0bd efad f5bc 4545 873c 78d3 05be
00000060: 5af8 cabc 6571 ffbd fe42 7fbd c5ce 32bd
00000070: 76d8 9cbd a81e 53bd ffc1 97bd 6d24 6bbc
00000080: 65e1 27bd b072 c6bc eeb0 853b c51b d5bd
00000090: 0a59 b3bb 20e9 11bd a8c1 0bbe aeff 30be
000000a0: ee46 ddbd bd67 05be 28e4 81bd ac7d 88bd
000000b0: df8f a9bd 401f edbc b7e6 b4bd 52eb 17bd
000000c0: 51bf 99bc fedb 34bc eff0 bcbd d29d 363c
000000d0: 2d95 a3bd fdc7 7bbd 2307 183c d4a0 5ebd
000000e0: dad0 21bd 896c bfbd df85 9abd 1a34 413c
000000f0: 717a 95bd 7519 35bd 97bf 05be ba1b c7bc
00000100: aa76 d8bd 4b7c fabd c668 77bd 393a cabc
00000110: 8493 2e3c d7b9 d6bc e1fe 56bd 4308 0abc
00000120: c8a1 b9bc 6dd3 c6bd bc92 023d bd26 a6bc
00000130: 4fc2 d0bd cba3 0bbd 8841 7abd 8509 f43b
00000140: f4cc 86bd acfe a7bd 2c54 20bd 7a05 13be
00000150: 9d6b a4bd 2657 84bd bf57 d3bd 3e92 1abc
00000160: 725d e9bd 7a71 66bc f1f3 a9bd 58f1 9bbd
00000170: 7b33 60bc 130a 86bd 8001 69bd becb f9bc
00000180: 4295 073d feda a8bd 5fa0 a2bd cd77 18bc
00000190: 176e d0bd 923d df3c 4c67 5fbd e7f8 70bc
000001a0: 4af2 49bd 70ac 6f3c 1e41 873b 4a75 9dbd
000001b0: 1e4f 70bd ddb7 e4bc 3624 79bc 5469 55bd
000001c0: 947b 173d c78e 2cbb a934 2dbd d331 4abe
000001d0: 35e2 7dbd d707 1bbd 86ce 00bd d689 a1bd
000001e0: 88b1 0abd 1113 b4bd 42b8 cebc ea21 a9bd
000001f0: dab7 33bd aa58 10be 4dab 68bd c6bb 44bd
-0.051390298 0.016356513 -0.053658687 -0.06219578 -0.019004865 -0.03352273 0.017075853 -0.060062565
-0.095485605 0.0048556915 0.01707851 -0.13575529 -0.01261057 -0.02572916 -0.06566882 -0.0073173335
-0.06746654 -0.04048379 -0.054191988 -0.062436327 -0.07859717 -0.029990165 0.016512522 -0.1306895
-0.024776626 -0.124728 -0.062319748 -0.043654222 -0.07658474 -0.051542908 -0.07410049 -0.014351946
-0.040986437 -0.02422461 0.0040799296 -0.10405687 -0.005473261 -0.035622716 -0.13648093 -0.17285034
-0.108045444 -0.13027854 -0.063423455 -0.06664595 -0.08279394 -0.028945565 -0.08833068 -0.037089653
-0.018767985 -0.011038778 -0.09225642 0.011146026 -0.079874374 -0.06147002 0.009279045 -0.054352596
-0.039505817 -0.09346873 -0.07545065 0.011792207 -0.072987445 -0.04421373 -0.13061367 -0.024305213
-0.105695084 -0.12230738 -0.060402654 -0.024685966 0.010655288 -0.026211662 -0.052489165 -0.008424821
-0.022660151 -0.09708295 0.031878218 -0.020282144 -0.101933114 -0.034091752 -0.06109765 0.007447424
-0.065820605 -0.08202872 -0.039142773 -0.14357558 -0.08028338 -0.06461935 -0.103194706 -0.009434281
-0.113947764 -0.014065141 -0.08298481 -0.07614392 -0.013684149 -0.0654489 -0.056886196 -0.03049266
0.033101328 -0.082448944 -0.079407446 -0.0093059065 -0.10177248 0.027251039 -0.05454187 -0.01470778
-0.04930333 0.014628515 0.0041276356 -0.07688387 -0.058669202 -0.027919704 -0.015206387 -0.0521024
0.036983088 -0.002633022 -0.04228655 -0.19745569 -0.061983306 -0.037849274 -0.031446956 -0.07887618
-0.033860713 -0.08792699 -0.025234345 -0.08258422 -0.043876506 -0.14096323 -0.05680399 -0.048030637

bn2.module.running_mean f4 [128]
00000000: becb d63e 5d99 e33e 9a8c 9fbe b282 aabe
00000010: fe55 86be d2b0 99be af47 4fbe e8a3 1c3e
00000020: ae2e 31bf 6a02 35be 890d 30be 0a8f d13e
00000030: 61d6 39bf 72da d4be 268a b6be 0a40 aebe
00000040: 1639 9a3d 6bed 723f 3211 1fbd 9f17 883e
00000050: cfe7 16be e324 543e 7c55 99be 725f 813f
00000060: 1673 1c3e e754 8a3d d1dc db3e 801c 2cbe
00000070: 92e5 bc3f 3238 b9be a8e9 0fbf efc4 a53e
00000080: 03e5 9c3e 1b8b c7be aa7f b73e fa94 1e3f
00000090: 172f febd ffe2 4cbf 2344 e5be a40d ac3f
000000a0: c0ab 17bf 84c0 f83e 908f 0abf e14e cebe
000000b0: ac05 e2be dc8f 023e 3854 f9be 35bc 40bf
000000c0: fa3b 56be c372 d0be 92aa 98be 2685 d9be
000000d0: f916 0fbd db94 33be 5734 3ebf 9fbe 1e3e
000000e0: d809 acbe b99e a13d bf4d 13be 0305 6a3f
000000f0: b99e 09be dff1 3bbd c11c af3d 050f aebe
00000100: 442d 343f 83fc c0be 2375 ebbe 73c8 c03d
00000110: 6ca1 ee3d fa5b dabe ca42 c9be 07fa e2bd
00000120: fb6f 2abf 8b94 dc3d f794 a5be 9106 afbe
00000130: 3f34 b13b 7c64 0cbf 5144 1cbf 3174 35bd
00000140: 06dc c53d 3665 d23c 4ea2 26bf 2d80 b83e
00000150: 7ec9 9abe b241 7d3f d5a4 eabe 9b57 6cbf
00000160: 05c2 1bbe 1b86 29bf b24f 99be 37dc 703f
00000170: eed4 793f aa08 263b 0061 9bbe 0509 9bbd
00000180: e3cf 89be 28d6 b3be e39e a1be 38aa 093f
00000190: bf86 f5be e12d 1cbf 7bda 95be aa4b 03bf
000001a0: de92 6d3e 1f59 31be 2f90 d7be a3ae 04be
000001b0: 3514 59be e27b 86be c31d 5abf 2894 a3be
000001c0: 9184 f23e 3efc 38bd e2ff d4be f15a d23f
000001d0: 5ffd 6ebe 5b52 693e c280 2f3e f2cc 2fbf
000001e0: b9b6 70be 850e b83e d9fe 02be 2ec4 14be
000001f0: 7646 87bd d902 133f f77c 4d3d b853 6dbe
0.41952318 0.44452944 -0.31161958 -0.33302838 -0.26237482 -0.30017716 -0.20242189 0.152969
-0.6921185 -0.17676702 -0.17192663 0.40929443 -0.7259274 -0.4157291 -0.35652274 -0.34033233
0.075304195 0.9489352 -0.038834758 0.2658052 -0.14736865 0.20717196 -0.29948032 1.0107253
0.15278277 0.06754475 0.42941907 -0.16807747 1.4757559 -0.36175686 -0.56215906 0.3237681
0.30643472 -0.38973317 0.35839587 0.6194607 -0.124113254 -0.8003387 -0.44778547 1.3441663
-0.59246445 0.48584378 -0.5412531 -0.40294555 -0.44144952 0.1275019 -0.48697066 -0.7528718
-0.20921317 -0.40712556 -0.29817635 -0.42484397 -0.034934018 -0.17537253 -0.74298614 0.15502404
-0.3360126 0.07891602 -0.14385127 0.914139 -0.13439454 -0.045884963 0.08550406 -0.33995834
0.7038157 -0.3769265 -0.45987806 0.09413233 0.116518825 -0.42648298 -0.3930877 -0.11082845
-0.6657712 0.1077052 -0.32340214 -0.34184697 0.0054078395 -0.54840827 -0.6104174 -0.044300262
0.09661107 0.025683027 -0.6509141 0.3603529 -0.3023185 0.9892837 -0.45828882 -0.92321175
-0.15210731 -0.66220254 -0.29943615 0.9408602 0.9759053 0.0025334754 -0.30347443 -0.0757008
-0.26916417 -0.35124326 -0.31566533 0.5377536 -0.47954366 -0.61007506 -0.2926825 -0.5128733
0.23200557 -0.17319153 -0.4210219 -0.12957244 -0.21199115 -0.2626639 -0.8520166 -0.31948972
0.47366765 -0.045162432 -0.41601473 1.6434003 -0.23338841 0.22785322 0.17138961 -0.68672097
-0.23507203 0.35948578 -0.12792529 -0.14527962 -0.06605236 0.5742622 0.050168004 -0.23176467

bn2.module.running_var f4 [128]
00000000: e6cd 933f d15e fb3f 9b00 b33f 6585 8d3f
00000010: 9465 ed3f 0e7e 6d3f 8d18 913f f5f3 c53f
00000020: 9ba0 e93f 646a 993f d410 363f fe81 093f
00000030: 58ca ea3f 7aa3 2c40 115d 5b3f 701d 6d3f
00000040: 944f 023f f18c 3f3f d93c ab3f 0c55 3a3f
00000050: 0d08 a93f a13d 513f 55f5 d73f 0e03 473f
00000060: 2999 213f 4320 ab3f fcad 123f 68fe cb3f
00000070: ce6a 4c3e adc7 d03f 9968 3f3f c72f 823f
00000080: e7e1 cb3f 550b 623f 5430 d43f a53b d53f
00000090: 9fa8 563f 4e5b 623f 38fc 9c3f 8ff0 813e
000000a0: 568d cd3f bf63 813f e5db 913f f9c8 ce3f
000000b0: ef32 1640 4b48 0b40 a639 7a3f 13a4 f53f
000000c0: 7013 c53f fd45 ea3f 991c 2f3f 4218 0a3f
000000d0: 42f3 d63f 06b1 8c3f cf9e b13f 14fd 393f
000000e0: 4593 363f 843d 3f3f d278 af3f e06e bd3e
000000f0: 9b09 0940 1940 503f f19e aa3f a591 5640
00000100: 989d a83e 02cf bf3f 757c 843f d171 663f
00000110: d094 0d40 4b9f 0040 76c0 3a3f 5b94 0f40
00000120: cae4 0440 a362 5f3f e41d 753f 0dab ba3f
00000130: 83e1 f43f a957 f63f cf77 723f db72 a23f
00000140: b045 2b3f 5405 763f 06c2 be3f 95dd 523f
00000150: b240 f33f 57d4 bb3e 4fb4 703f 3c90 d13e
00000160: 2aa7 a53f a0d0 5c3f 9443 d23f 2edd 033f
00000170: 3c4b 833f 63d6 cc3f 24eb b23f 797e dc3f
00000180: 0af5 3b40 b138 c53f 9037 883f ae6f a53f
00000190: b247 0e40 1f9e 853f 69e7 e63f 721a 4f3f
000001a0: b5b9 ee3e 7c30 e73f ea0b 413f 6d2b e03f
000001b0: c344 e03f 3412 993f dc5d af3f f25e 773f
000001c0: 207a b03f 8d7b 5540 7a7f ab3f 1668 3e3e
000001d0: d2cf 133f adc9 a43f 7bfe ae3f 9c56 1840
000001e0: bd99 b53f a308 653f 1ac0 f33f 997b ab3f
000001f0: 21bf a63f e47d 623f d5b3 b93f fd29 523f
1.154721 1.9638311 1.398456 1.1056334 1.8546624 0.9277047 1.1335617 1.5465075
1.8252138 1.1985593 0.7111943 0.5371398 1.8343 2.6974778 0.85688883 0.92623043
0.50902677 0.74824435 1.3377944 0.7278602 1.3205582 0.81734663 1.6871744 0.77739036
0.6312433 1.336922 0.5729673 1.5937014 0.19962618 1.6310936 0.7476898 1.017083
1.5928315 0.8829854 1.6577249 1.6658827 0.83851045 0.8842057 1.2264471 0.25378844
1.6058757 1.0108565 1.1395231 1.6155082 2.3468587 2.1762874 0.97744215 1.9190696
1.5396557 1.8302609 0.6840301 0.53943264 1.6792986 1.0991523 1.387659 0.7265179
0.71318465 0.7470324 1.3708746 0.36998653 2.1412113 0.81347805 1.3329755 3.3526394
0.32932734 1.4985049 1.0350481 0.9001742 2.2122078 2.0097225 0.7294992 2.24343
2.0764642 0.8725988 0.95748734 1.458345 1.9131321 1.9245502 0.94714063 1.2691301
0.6690321 0.9610188 1.4902961 0.8236936 1.9004118 0.3668544 0.9402513 0.40930355
1.294164 0.86255836 1.6426873 0.5150937 1.0257335 1.6002926 1.3978009 1.7226096
2.936831 1.5407926 1.0641956 1.2924707 2.223126 1.043888 1.8039371 0.8089973
0.46626058 1.8061671 0.75408804 1.7513252 1.7520984 1.195868 1.3700519 0.9662925
1.378727 3.335666 1.3398278 0.18594393 0.57738984 1.2874047 1.3671411 2.3802862
1.4187542 0.89466304 1.9043 1.3397094 1.3027078 0.88473344 1.4508005 0.8209532

conv3.bias f4 [128]
00000000: c2cc a0b8 5b0b db39 6156 f539 1d4c bb39
00000010: ba80 843a 4cd0 9238 6e5c 7eb8 79f0 0839
00000020: b029 c639 9ff3 ae3a 5147 1c38 ca71 93b8
00000030: 1b05 8dba 96f3 223a 6422 7339 f928 a2b8
00000040: a526 bfb9 a901 033a 2f7e 113b 93f9 a9ba
00000050: 8048 92b9 52c6 0d39 9618 7c3a cc7c 2bb9
00000060: cf9d a03a d5f6 ebb9 e32b fe37 ce03 013a
00000070: 8f3d 1d39 002e 223a 65d9 3c3a 859b 15ba
00000080: 4ddd 1e39 7b2a 63b9 6b25 65b9 803f 44ba
00000090: 7072 0839 4ae5 7eb9 710c bbb9 66c1 6bb9
000000a0: 52a8 2b3a bc67 3bba 2457 a4ba 8b85 60ba
000000b0: 7317 3a37 318b 463a 5b6a 8238 54f7 b639
000000c0: 15ac e9b9 8286 5a39 93a9 9d3a ee6d e039
000000d0: 0060 293a e66d ff39 de26 2eba 1182 d13a
000000e0: a765 203a 75a3 05ba 1632 4fba 824a 8d39
000000f0: 86ed d33a 2034 5b3a e85d 8ab9 11fa 213a
00000100: e5e9 223a e5b6 3d39 dd95 89b9 dad2 b538
00000110: b5eb 21b9 ad98 56ba dffc 5c3a edac 9f39
00000120: d4a8 a039 139d 57ba 82c0 8c3a d0ef b739
00000130: 9a9a 0b39 260d 5a38 b114 e43a 57b8 62ba
00000140: 4eb4 3fb8 619b f638 d14a 38b8 a5aa 90b9
00000150: dfc9 ce39 9b60 0a3a ddba 45b9 80ea 413a
00000160: d0eb e038 5d67 8239 6fdb 7c39 c76b 8338
00000170: d477 1dba b874 d139 65dc 4539 1f6c a138
00000180: 78d3 b53a 4fda b2b9 2f69 843a 6f45 08b9
00000190: fcb3 013a 7fd3 1dba ab74 bbb9 73fa 283a
000001a0: 9777 deba eac9 03ba 7155 07b9 83c4 eb39
000001b0: 1863 d8b7 897e d83a e32c c5b9 151c 40b8
000001c0: 3c1e 6839 7644 a23a 61fb 08ba 57fe 35b8
000001d0: 7695 2f3a 430f 7739 4c3a 41ba ec47 d239
000001e0: 523c 50ba 13d1 da38 9774 253a 8087 1c3a
000001f0: 2e5d 603a 11b4 b43a f0a6 8a3a 1145 0a3a
-7.667534e-05 0.00041779396 0.000467944 0.00035724128 0.0010109164 7.000621e-05 -6.06444e-05 0.00013059554
0.00037796563 0.0013347751 3.7259717e-05 -7.030701e-05 -0.0010758968 0.00062161067 0.00023187097 -7.732394e-05
-0.0003645915 0.0004997501 0.0022200455 -0.0012968056 -0.00027901307 0.00013520688 0.00096167007 -0.00016354321
0.0012254062 -0.00045006597 3.0299596e-05 0.00049215264 0.00014995619 0.0006186664 0.0007204025 -0.0005707073
0.00015150495 -0.00021664232 -0.00021853081 -0.0007486269 0.00013012602 -0.00024308744 -0.0003567669 -0.00022483393
0.0006548214 -0.00071489415 -0.0012538177 -0.00085648213 1.1091924e-05 0.0007573842 6.218693e-05 0.0003489802
-0.00044569434 0.00020840208 0.0012028686 0.00042806513 0.00064611435 0.0004871927 -0.0006643365 0.0015984197
0.0006118663 -0.00050979044 -0.0007903887 0.00026949128 0.001616881 0.0008361954 -0.00026391377 0.00061789254
0.00062146626 0.00018092578 -0.00026242333 8.670027e-05 -0.00015441964 -0.00081862026 0.0008430015 0.00030455683
0.00030643365 -0.0008225005 0.0010738524 0.00035083154 0.00013313667 5.1987496e-05 0.0017401186 -0.00086486846
-4.570587e-05 0.00011759136 -4.3938697e-05 -0.0002759296 0.00039441788 0.00052786776 -0.00018856996 0.0007397309
0.00010725076 0.00024872544 0.00024114338 6.266642e-05 -0.00060069305 0.0003995055 0.00018869487 7.6972174e-05
0.0013872227 -0.00034113458 0.0010102148 -0.00012995837 0.0004947779 -0.000602059 -0.00035754344 0.0006446011
-0.0016972896 -0.0005027341 -0.00012906433 0.00044969106 -2.579535e-05 0.0016517203 -0.0003760821 -4.580252e-05
0.00022136507 0.0012380022 -0.00052254467 -4.3390635e-05 0.00066979916 0.00023561441 -0.00073710526 0.00040107907
-0.0007943559 0.00010433993 0.0006311624 0.0005971119 0.0008558807 0.0013786574 0.0010578316 0.0005274574
